model/hoax_detection_A2.tflite (tflite, 644848 bytes, 4 tensors)

sequential_1/embedding_1/embedding_lookup f4 [10000, 16]
00000000: 3763 8fbc 4e33 52bc 637b 333d b8bc e43c
00000010: df56 373d f859 df3b ce6d 26bd 9794 c1bc
00000020: 0e2b f63c 481c a6bb 0d0d 52bd 532e 57bd
00000030: d113 f4bc e974 4bbd c294 1ebd 09ea 803b
00000040: 4c86 c73d ad7f 41be 0412 0cbc 4fc7 6a3d
00000050: fee5 5bbc 11d3 a5bd c68e 86bd 6285 023e
00000060: 90c5 d3bc 23e4 8cbc f7ab 713b 0341 f6bc
00000070: c33e 303c cdec ef39 1ef2 c73c bce4 94bd
00000080: f14d 763e 4e2f 42be 3746 0cbe 1707 343e
00000090: 741e 373e 8181 3dbe 6b94 41be 4f54 423e
000000a0: a669 25be 12f0 0cbe 0764 3fbe 7f29 1cbe
000000b0: a444 ed3d 5ea8 edbd 3617 0abe 5d82 2fbe
000000c0: 29d1 733e f90a 46be 78d0 65be 3075 353e
000000d0: 07ee 503e df8d 2bbe 6ce3 07be e22a 473e
000000e0: cbfe 4fbe 018d 50be 35ce 17be 80c8 5fbe
000000f0: ad69 1c3e b590 11be 4b1c 0dbe 75fd 5cbe
00000100: b27d 0fbe 2045 6ebe 3273 033e 799c 99bc
00000110: c1f5 eebd 3e70 c33d 44ad d93d ccdc 6dbd
00000120: 61dd 163e 2816 273e a4e9 003e f8a1 013e
00000130: 883b fdbd 44d0 f33d c2d7 bc3d 14fa ef3d
00000140: 1c08 63be f0d9 31be 763f 4d3e c9d2 77be
00000150: 86a8 38be c3ec 193e 2c92 413e aaa8 3abe
00000160: e263 2e3e 021a 6b3e 5ee3 493e c483 7b3e
00000170: 0572 63be 86a5 333e de46 533e e88d 223e
00000180: 70eb f7bd 6958 3bbe 21a3 493e 43b5 f0bd
00000190: 8579 30be 26ea 063e 0d48 123e 2ec3 dabd
000001a0: 4696 2d3e c0d3 453e 2e63 103e 8851 043e
000001b0: a3aa 5abe 7f4c 433e 7b46 283e e342 e93d
000001c0: 1c1c ae3d 6dd3 61be 1770 b9bd e65d 803d
000001d0: 491c 1d3d 57c0 6abd abf6 01be 79d8 893d
000001e0: 8918 dbbd 9cbf d9bd e642 c8bd d53a d0bd
000001f0: 481c 8c3d e6ca 5fbd db85 54bd 74d8 d6bd
00000200: 82d1 2c3c 2be4 54be 6447 493a 4af4 da3d
00000210: 8825 d93c 6955 92bd 7ac7 40bd 97a2 783d
00000220: a330 2c3b f5b0 693c aa8f 56bc 2f8b a4bc
00000230: 856b e73c c261 ee3c 6646 f2bc bb06 03bd
00000240: dbe7 3cbd 8eae 2ebe 8e4d b33d 18ad 5bbb
00000250: 0ae3 8dbd f675 ac3c dba6 8b3d 306b 3c3c
00000260: c7ea d83d 899c 633d 02be 3f3d f664 cc3d
00000270: 25d0 85bd 7523 c03d 92de a83d 211f 8c3d
00000280: 1b30 523e 85ce 4dbe b02a 4ebe 44f0 703e
00000290: 0d8c 2f3e ad40 15be f462 5abe 7ae5 2d3e
000002a0: 6fab 1cbe f164 25be 3698 27be 67da 6dbe
000002b0: 9388 163e 2ec7 67be 30b3 0ebe 77ec 41be
000002c0: aef0 6a3e 4cf7 4ebe 6f34 6ebe 1f43 433e
000002d0: 5a0c 1d3e a618 5bbe d702 0bbe 6434 0c3e
000002e0: 2a79 18be fc65 2fbe bcd8 26be 1189 41be
000002f0: 9a27 333e 662e 5ebe 7c04 7abe b7c0 18be
00000300: 5763 543e 5fd0 2bbe dd79 7ebe 21f2 6c3e
00000310: bfb0 423e 1663 20be daaf 28be dfff 273e
00000320: 317e 41be f426 3cbe 5baf 5fbe 25dc 77be
00000330: d1cb 813e fe23 36be ab92 4ebe 31f8 2fbe
00000340: e240 19be 6e3a 4bbe 1935 4b3e eb1f dfbd
00000350: f707 06be ccbb 003e 1a00 283e 6376 05be
00000360: 6086 0b3e 77c6 453e ba20 5a3e 1432 3f3e
00000370: 879d 26be 7d0d 133e 4d0f 123e c8a4 ec3d
00000380: 1140 183e d651 64be f161 f1bd d313 583e
00000390: 85ea 523e 7f05 efbd 7de7 3fbe bfac 0b3e
000003a0: 76d2 08be bc63 23be 39e7 0fbe 6bde 58be
000003b0: 7461 0a3e be47 55be 8d18 15be 51d4 3fbe
000003c0: a8a6 ffbc 311a 2ebe 4b34 e7bb 6193 b13a
000003d0: 6c4e 74bc 5f7a efbc 38dc 3abd acd4 6b3c
000003e0: 7e8c 57bc 11bc 313d e780 52bc ccf9 84bc
000003f0: 824f 66bd c739 233d 21a0 583d b5da 4b3d
-0.017503364 -0.012829615 0.043818843 0.02792202 0.04476058 0.006816145 -0.04063206 -0.023630423
0.030049827 -0.0050692894 -0.051281977 -0.052534413 -0.029794605 -0.04967204 -0.038716085 0.003934149
0.09742412 -0.1889636 -0.008549217 0.05731898 -0.013421534 -0.08096898 -0.065702006 0.12746194
-0.025851041 -0.017198628 0.003687618 -0.030060297 0.010757151 0.00045762063 0.024407443 -0.0727019
0.2405317 -0.18963358 -0.1369866 0.1758083 0.1788271 -0.18506433 -0.18904273 0.18977474
-0.16153583 -0.13763455 -0.18690501 -0.15250205 0.11585358 -0.11604379 -0.13485417 -0.17139573
0.23810257 -0.19340123 -0.22442806 0.17720485 0.204033 -0.16753338 -0.13270348 0.19449952
-0.2031204 -0.20366289 -0.14824755 -0.21853828 0.15274687 -0.14215358 -0.13780324 -0.21581061
-0.14012793 -0.23268557 0.12836912 -0.01875137 -0.116679676 0.09542893 0.10628751 -0.058071896
0.14732887 0.16317046 0.12589127 0.12659442 -0.1236487 0.11904958 0.0922084 0.117176205
-0.22171062 -0.17368293 0.2004374 -0.24201502 -0.18033037 0.15031724 0.18903416 -0.18228403
0.1703029 0.2295914 0.1971564 0.24561983 -0.22211464 0.17543611 0.20632502 0.15874445
-0.12105453 -0.18295445 0.19691135 -0.11753323 -0.17233856 0.13175258 0.14285298 -0.10681759
0.16951856 0.19319057 0.14100334 0.12921727 -0.21354155 0.1907215 0.16433136 0.11389711
0.08501455 -0.22053309 -0.090545826 0.0626791 0.038357053 -0.057312336 -0.12691753 0.06730742
-0.10698039 -0.1063225 -0.09778385 -0.10167471 0.06841332 -0.05463686 -0.051885467 -0.10490504
0.010547997 -0.20790164 0.00076781795 0.10691126 0.026507154 -0.07145197 -0.047065236 0.060701933
0.0026274107 0.014263381 -0.013095776 -0.0200859 0.028249511 0.029099349 -0.029574584 -0.03198884
-0.046119552 -0.17058775 0.08755027 -0.003351992 -0.0692807 0.021052342 0.068189345 0.011500165
0.10591655 0.055569205 0.046812065 0.09980194 -0.06533841 0.09381763 0.08245577 0.06841875
0.20526163 -0.20098312 -0.20133471 0.23529154 0.17143269 -0.14575453 -0.2132681 0.1698207
-0.15299772 -0.16151787 -0.16366658 -0.23227845 0.14700536 -0.22634575 -0.13935542 -0.1893786
0.22943375 -0.20211524 -0.2326219 0.19068573 0.15336743 -0.21396121 -0.13575302 0.1369186
-0.1488997 -0.17128748 -0.16293615 -0.18899943 0.17495576 -0.21697387 -0.24415773 -0.14917265
0.2074102 -0.16778706 -0.24851175 0.2313924 0.19012736 -0.15662798 -0.16473332 0.16406201
-0.18895794 -0.18374234 -0.21844237 -0.24205072 0.25350812 -0.17787167 -0.20173137 -0.17184521
-0.14966157 -0.19846508 0.19844474 -0.1089476 -0.13088976 0.12571639 0.16406289 -0.13033442
0.13625479 0.1931399 0.21301547 0.18671447 -0.1627103 0.14360614 0.1426365 0.11554867
0.1486819 -0.22296843 -0.11786259 0.21101312 0.20597275 -0.1167097 -0.1874065 0.13640116
-0.13361534 -0.15956014 -0.14053048 -0.21178596 0.13513738 -0.20828149 -0.14560147 -0.18733336
-0.031207398 -0.17002179 -0.0070557944 0.0013547951 -0.014911275 -0.029233156 -0.045620173 0.014393967
-0.013156055 0.043392245 -0.0128481155 -0.016232394 -0.05622817 0.039850023 0.052887086 0.049769122

sequential_1/dense_3/BiasAdd/ReadVariableOp f4 [32]
00000000: 8974 1b3e 7b13 283e 190b c5bc 8bce f23d
00000010: 6de2 193e af4d 313e 5d7a 2c3e 7eec 54bd
00000020: 547e 1b3e c6cd 0e3e da56 a1bc c415 263e
00000030: d3cc e23d 72d2 113e 63a7 163e 3146 eb3d
00000040: 4069 fe3d 1f24 283e 05d5 1d3e ecf8 223e
00000050: 0ec0 253e 1b3b 193e 06e5 303e 8cba 223e
00000060: 0c74 4f3e 5cd7 143e 8ae6 173e 6f9d 1c3e
00000070: f712 053e e210 183e 3e62 153e dd54 febc
0.15181173 0.16413681 -0.024053143 0.11855801 0.15027781 0.1731479 0.16843553 -0.05198335
0.15184909 0.13945684 -0.019694734 0.1621924 0.11074223 0.14240435 0.1471229 0.11487997
0.124224186 0.16420029 0.15413292 0.15915269 0.16186544 0.14963953 0.17274866 0.15891474
0.20259112 0.14535278 0.14834037 0.15294431 0.12995516 0.1485019 0.14588258 -0.031046325

sequential_1/dense_3/MatMul f4 [32, 16]
00000000: 2c71 cf3e 9a9b d7be 0369 d5be 543d 69bb
00000010: 3ea9 ef3e 400b d7be 2556 a7be a1c5 cd3e
00000020: 27f2 66be 2401 33bc 8259 1bbe ffdc 9cbc
00000030: 5e12 7d3e fa0a 0cbf 6d50 b0bc 74a1 eebe
00000040: cbf7 f93d b9f4 e6be 3681 97be dad4 013f
00000050: 52c8 9b3e a645 4bbd a369 d9be 202f ba3e
00000060: c88d 0dbf 3ebf 1dbe 6397 9fbe cc57 10bf
00000070: 59e6 7a3e aa41 b0be 93ec c5be eea8 7fbe
00000080: 7d6a 413d 0da4 8a3e 107d 69be 7c0d 423e
00000090: 31c6 a6be 900c 7dbe 715a f4bd d303 f23d
000000a0: c49b 573e efcd 19be ef22 86be 079f 553e
000000b0: edf9 9abc 9cdb 11be bf98 533d f35e b43d
000000c0: fba2 973e a64e e3be b506 aebe 6950 713e
000000d0: 5e39 dfbd 2b16 65bd 3803 10be eba2 aa3e
000000e0: cb9e c8be 45f8 12bf 894a f33b d093 17be
000000f0: bcea 3d3e 0e3d 10bf c80f 8fbb 4369 46be
00000100: 6e46 2dbe d9ed f5be 9781 0c3f 86f6 8abe
00000110: 6253 46be e5cb d03c 5451 fe3e 5064 adbe
00000120: 139d 833e be6e 073f bb58 0d3f aa92 e43e
00000130: 505c 00bf e0bd d63e 9843 503d 2293 d93e
00000140: e375 34be b3a9 8ebe 683d 823d 1a68 ebbe
00000150: d1e0 86be 5c53 123f f665 853e aff9 f1be
00000160: c2fd ba3e a5ad de3e c1b6 b23e 1c50 b93e
00000170: 9ace 17bf e881 573e b602 903d e913 11bd
00000180: 7788 713d f9d7 5c3d ebda 2dbe d8c0 e33e
00000190: 67ff 0c3f 4123 48be 0703 ddbe 6029 093f
000001a0: 38c4 a03c 694d f2be 9697 6bbe a008 90be
000001b0: 2c22 b13d 34ed a33b fa19 8dbe d5eb 99bd
000001c0: dda2 51bd 509f f1bd 8d16 dfbd 507c 813e
000001d0: 8b0b 5b3e 8730 df3e 0a9c 8bbd 6d05 28be
000001e0: 9c94 c23e ee56 413e 9487 44be 5043 8dbe
000001f0: 3875 a2be 1055 91be 0954 4ebe 6dbd 80be
00000200: bd56 f03e fa42 0cbf 1fcb 84bd d1a3 ca3e
00000210: f357 d2bd 441e e8be 4bd8 0bbf adfe c03e
00000220: d633 07bf f817 9f3d d313 04bf 6214 10bf
00000230: b6dd b23e 8f84 00bf c36f 12be 73d8 0fbf
00000240: cb29 123f 1527 dfbe fdbc 08bd 7c43 0c3e
00000250: 4aca 123f f49d d7bd 66fe 19bf c8ae 243e
00000260: f6ea bdbe 7c33 56be 1c1b cbbe 8a13 b33d
00000270: eb78 e33d 2331 68be c065 3abc d35c adbe
00000280: 2d4a 113e 5609 1f3d 4c31 173e 9f6e 293e
00000290: d7ff 0b3e 3f0b 52bd 6f0f d3bd 7ebc 60be
000002a0: d2c9 c33e b9ce 123d d1bc 4bbe 4180 2f3e
000002b0: 44bd 8f3e 83d0 2b3e 7c84 8dbe f9a4 e6bc
000002c0: 8c85 ebbe 6857 813d d716 8abd 691c 70bd
000002d0: ca5e d5bc b06f d53d 4310 003e 5a42 b1be
000002e0: 81bf b93e 55db 053f cd45 0b3f 9e96 113f
000002f0: 8748 b9be e863 0f3f 0652 0a3f d07a f9bd
00000300: aa80 0cbe d4bd b6be 9986 ee3d 8e6e e73d
00000310: 6b1f b3be 5121 fa3e 5f65 793e dd27 a83d
00000320: a362 153f 9d6e de3d 8a0a 8c3e bf31 393e
00000330: 07ea 0cbf edf4 aabc 74c8 123f 0ba8 23bd
00000340: 7001 76be 2652 ccbe c773 923e a71a 29be
00000350: aaaa ddbe 274f 173e 1697 843e 614b 9dbe
00000360: 75b3 d23e fc9c aa3e 01f0 a13e 95e3 ca3d
00000370: 4683 e4be 8d11 c83e 5a77 db3e d167 b23e
00000380: b30f d33e 467c 07bf 6b87 aabe c967 1b3f
00000390: 0ebe 153f 671e 99be 19de 9dbe ba72 613d
000003a0: c332 673c e0d1 b5bd 2ad4 83be 39c1 99be
000003b0: 2b8c a13e 5943 cabe 9802 1abd ca76 3cbe
000003c0: afe2 563e e72a 02bf d412 aebd f753 763e
000003d0: d7f7 e83e 6e70 dabe 981e 7dbe 61ad ee3e
000003e0: f1c1 a7be 0c80 be3c 6439 a5bd 4420 b3bd
000003f0: 0ce7 8a3e 0b0b 26be 9880 14be 1092 d5be
0.4051603 -0.42110902 -0.4168168 -0.0035589533 0.4680881 -0.4200077 -0.3268291 0.4018984
-0.22553311 -0.010925565 -0.15170863 -0.019148348 0.24714038 -0.5470425 -0.021522725 -0.46607554
0.12205466 -0.45108584 -0.29590768 0.5071541 0.3042627 -0.04962697 -0.42463407 0.3636408
-0.55294466 -0.15404984 -0.31170186 -0.5638397 0.24501933 -0.34425098 -0.38657054 -0.24966785
0.047220696 0.27078286 -0.22801614 0.18950456 -0.32573083 -0.24711823 -0.11931313 0.11817136
0.21055514 -0.15019964 -0.26198527 0.20861445 -0.018918002 -0.1424393 0.051659342 0.088071726
0.29616532 -0.44395941 -0.33989492 0.2356583 -0.10899614 -0.055929344 -0.14063728 0.33327422
-0.3918365 -0.5741008 0.007424657 -0.1480248 0.18546575 -0.5634316 -0.004365895 -0.19376092
-0.16921398 -0.48033026 0.5488524 -0.27141207 -0.19367746 0.02548785 0.49671423 -0.33865595
0.25705776 0.52903354 0.55213517 0.44643146 -0.5014086 0.41941738 0.050845712 0.42495066
-0.17623095 -0.27863845 0.063593686 -0.4597786 -0.26343396 0.57158446 0.26054353 -0.47260806
0.36521727 0.43491855 0.34905055 0.3619393 -0.59299624 0.21045649 0.07031767 -0.03541938
0.058968034 0.053916905 -0.16978042 0.44483066 0.55077213 -0.19544698 -0.43166372 0.5357876
0.019624814 -0.47324684 -0.23007044 -0.2813158 0.08649096 0.005002642 -0.2755888 -0.075156845
-0.05118071 -0.117979646 -0.10892973 0.25290155 0.21391122 0.4359171 -0.068168715 -0.1640832
0.38004005 0.18880817 -0.19192344 -0.27590418 -0.31730056 -0.2838521 -0.20149244 -0.2514452
0.46941176 -0.547897 -0.06484055 0.39578107 -0.10270681 -0.4533559 -0.5462691 0.37694302
-0.5281347 0.077682436 -0.5159275 -0.562811 0.34934777 -0.5020227 -0.14300446 -0.5618965
0.5709502 -0.43584505 -0.03338336 0.13697618 0.5733992 -0.10528174 -0.60153806 0.16082299
-0.37093323 -0.20918077 -0.3966912 0.08743961 0.11107048 -0.22674994 -0.011376798 -0.33859882
0.14188452 0.038827263 0.14764899 0.16546105 0.13671814 -0.051280256 -0.10305678 -0.21946904
0.38239914 0.035841677 -0.19896246 0.17138769 0.28074086 0.1677876 -0.2764014 -0.028154837
-0.46000326 0.063154995 -0.067426376 -0.058620844 -0.026046176 0.10421693 0.12506203 -0.34620935
0.36278918 0.522878 0.5440338 0.5687045 -0.36188146 0.5601182 0.5403141 -0.12181628
-0.13720956 -0.35691702 0.11646766 0.113003835 -0.34984908 0.48853543 0.24355076 0.08210728
0.5835363 0.108609416 0.2735179 0.18085383 -0.550446 -0.020868743 0.5733712 -0.03995518
-0.24023986 -0.39906424 0.28603956 -0.16514073 -0.4329427 0.14776288 0.2589652 -0.30721572
0.4115254 0.33322895 0.3162842 0.09906689 -0.44631404 0.3907589 0.42864496 0.3484483
0.41222915 -0.52924 -0.3330644 0.6070524 0.58493125 -0.29906008 -0.3083351 0.055041052
0.014111224 -0.08877921 -0.25747806 -0.3003023 0.31552252 -0.39504507 -0.03760013 -0.1840469
0.2098491 -0.50846714 -0.08499685 0.24055468 0.45501587 -0.42663902 -0.24718702 0.46616653
-0.32765153 0.023254417 -0.08067587 -0.087463886 0.271294 -0.1621515 -0.1450218 -0.41713

sequential_1/dense_4/MatMul f4 [1, 32]
00000000: dd98 943e 2b9d bc3e ec4f 6abd d05c 013f
00000010: 9d96 2bbf af34 9cbe 5720 913e a347 cbbe
00000020: deed ff3e 39f3 963e 7d4b f0bd bc33 0bbf
00000030: 1862 06bf 2e52 14bf af8e 8f3e 48af 123f
00000040: 3bea 233f 23ef c1be faed 07bf 3a60 c2be
00000050: 6e4c b93e a378 1ebf 702a 923e 57ab db3e
00000060: aafc 91be 22a3 d6be 5b92 d2be 2c85 0ebf
00000070: e779 2c3f 6595 dd3e 1f9d b13e bbcb b33e
0.29022875 0.3683866 -0.057205126 0.50532246 -0.6702669 -0.30508944 0.28344986 -0.39703092
0.49986166 0.2948244 -0.11733148 -0.54375815 -0.5249343 -0.57937896 0.28038546 0.5729871
0.6402928 -0.3787776 -0.530975 -0.3796404 0.36191124 -0.6190283 0.28548002 0.4290416
-0.2851308 -0.41921335 -0.41127285 -0.55671954 0.6737351 0.4327804 0.34690186 0.35116372
