model/hoax_detection_A1.tflite (tflite, 645368 bytes, 6 tensors)

sequential/embedding/embedding_lookup f4 [10000, 16]
000000 26 0a 1a bd 32 d6 c6 bb 17 71 28 3c 03 37 a7 3c
       -0.037607335 -0.0060680145 0.010280869 0.020411974
000010 72 37 f1 3b de 9e 35 3d 1f d5 90 bd aa 0e 16 bc
       0.007361346 0.04434096 -0.070718996 -0.00915877
000020 c4 80 10 3c ea b6 38 bd 30 98 06 bd 52 0a dd 3b
       0.008819763 -0.045096315 -0.03285998 0.006745615
000030 f6 41 70 ba eb b9 60 3c f4 41 c9 bb 0f c2 ea bc
       -0.00091651024 0.013716201 -0.0061418954 -0.028656987
000040 2c c8 d8 3b 98 1b ab bd 6d c2 00 bd 34 62 8e 3c
       0.006615659 -0.083548725 -0.03143542 0.017380811
000050 4d b4 28 bd 3e e3 c6 3c c9 c3 32 3e 32 dc 51 3d
       -0.041187573 0.02427828 0.17457499 0.051235385
000060 88 8f e2 bd 85 80 8b 3d 64 64 b3 bd d2 97 ea bd
       -0.11062533 0.068116225 -0.08759382 -0.11454739
000070 a0 9f e8 bc 1e 1f 42 bd 96 16 07 3d 4b 9a 10 be
       -0.028396428 -0.047392957 0.032980524 -0.14121358
000080 77 0b 60 3d 70 88 bf bd ff 40 50 3d 51 97 14 3d
       0.054698434 -0.09352195 0.050843235 0.03627712
000090 96 c2 cf bd 91 41 ca 3d ae ec 1a 3e 03 5e 9a 3d
       -0.10144536 0.09875787 0.15129349 0.075374626
0000a0 ae 19 18 be 47 34 c5 3c cc bd 20 be 0a 7c 43 be
       -0.14853546 0.02407278 -0.15697402 -0.19090286
0000b0 24 64 00 be 14 d2 13 be 88 8f 81 bd 89 cf 17 be
       -0.125382 -0.14435607 -0.063262045 -0.14825262
0000c0 f9 fb 30 3d f2 e0 17 bd 4e 31 d9 3d 33 61 86 3d
       0.04320905 -0.03707976 0.10605107 0.06561508
0000d0 93 3d db bd 29 91 b3 3d 7b 6b fd 3d 62 43 a1 3d
       -0.10705104 0.087679215 0.12374016 0.078741804
0000e0 20 1d 1b be 37 f5 98 bc cf 96 2b bd ab ba 65 bd
       -0.15147829 -0.018671615 -0.04189187 -0.056086224
0000f0 29 f2 cb bd c7 f8 ab 3b 81 cd 64 3c ca a7 af bd
       -0.09958298 0.0052481624 0.013965012 -0.08576925
000100 c9 48 75 3c b5 ee 80 3d a4 0f 40 bd df a9 0f bd
       0.014970967 0.0629553 -0.046889916 -0.03507411
000110 94 85 c7 bc af a9 68 bd 19 91 3a 3e 79 df 44 3c
       -0.024355687 -0.056802448 0.18219413 0.012016171
000120 17 23 86 bd 02 1c 6e 3d 4f c5 73 bc 87 a3 43 be
       -0.065496616 0.05813218 -0.014878585 -0.1910535
000130 0c 70 bb 3b c4 cf 6c bb 77 a8 a6 3d 66 dd 4b 3b
       0.005720144 -0.003613458 0.08137601 0.0031107306
000140 bc 30 5a be 82 33 69 3e 42 e5 67 be 17 ec 1f be
       -0.21307653 0.22773555 -0.22646049 -0.15617405
000150 72 a8 7d 3e 28 f3 4f be 45 d3 2d 3e fd 68 31 be
       0.24771288 -0.203076 0.16975124 -0.17325206
000160 c5 1b 88 be 55 fc 6a 3e d3 3d 23 3e 8b 4c bf bd
       -0.26583686 0.2294782 0.15941553 -0.09340771
000170 3a c5 44 3e 5a 03 0d 3e 70 be 5a 3e fe fc 68 3e
       0.19215861 0.1377081 0.21361709 0.22752759
000180 ad df ab bd e2 50 95 3d 4c cb 23 be 8f d7 d8 bd
       -0.08392272 0.07290818 -0.1599552 -0.105879895
000190 2f f7 e1 3d 13 3e 1f be f1 7c 7b 3e 73 e9 ab bd
       0.11033475 -0.15551023 0.2455938 -0.08394136
0001a0 65 c6 36 be f0 e2 25 3e d7 e4 b3 3d 99 3f 05 be
       -0.17849119 0.16199851 0.08783882 -0.13012542
0001b0 eb dc b1 3d 53 58 31 3d 87 38 34 3e 9e 4b ab 3c
       0.08684715 0.043297123 0.17599688 0.02091008
0001c0 08 ca 95 3d aa b3 97 bd b1 47 aa 3d 81 89 a0 3d
       0.07313925 -0.07407315 0.08314455 0.07838727
0001d0 99 4a e8 bd 05 84 b8 3d b3 93 72 3e 6e 6f 17 3e
       -0.113423534 0.09009556 0.23689155 0.14788601
0001e0 5e e8 c7 bd 63 03 4a 3c 4d 0a 0e be c6 2b c5 bd
       -0.097611174 0.012329909 -0.13871117 -0.0962749
0001f0 e1 7d 50 bd 65 f9 03 be 34 4e 34 bd 9d 43 2d be
       -0.050901297 -0.12888105 -0.044019893 -0.16920324
000200 fc eb 65 3d 68 c1 40 bd b1 ba 2e bc 99 f5 9e bc
       0.056133255 -0.047059447 -0.010664628 -0.01940422
000210 ea 04 c7 3a 7f 27 b0 3d e9 88 22 3e f8 50 8f 3d
       0.001518396 0.08601283 0.1587254 0.069978654
000220 39 42 8e bd 32 50 85 3d 3f 87 59 bd c7 21 c2 bd
       -0.06946225 0.06509437 -0.053107496 -0.09479099
000230 84 66 80 3c 5d 5c 8b bd 99 90 81 3d 79 a7 24 bd
       0.015673883 -0.06804726 0.06326408 -0.040198777
000240 ee 71 4a bc ec 60 ff 3c c0 18 19 bd ab 65 5b bd
       -0.0123562645 0.031174146 -0.03737712 -0.053563755
000250 93 4f 32 ba df 33 3c bc 75 36 42 3e 03 48 7d bc
       -0.00068020186 -0.011486976 0.18966086 -0.015459063
000260 7c 07 a4 bd da 20 78 3d e5 ea ff bc 67 7a 93 bd
       -0.0800924 0.060578205 -0.031239936 -0.07201081
000270 b0 8b 9a 3d a9 b5 56 3c cc 4d ac 3d d2 83 49 3a
       0.075461745 0.013104835 0.08413276 0.0007687184
000280 d1 91 1d 3e 12 40 e7 bd 5d 67 44 3e 6b 8c e5 3d
       0.15387656 -0.11291517 0.19180055 0.11208423
000290 c4 1c 59 be b5 4b 02 3e 57 44 44 3e cf ff 29 3e
       -0.2120238 0.12724192 0.19166695 0.1660149
0002a0 c2 03 bc bd 8a cf 16 be a2 a5 2c be 03 49 2c be
       -0.09180404 -0.14727607 -0.16860059 -0.16824727
0002b0 99 1d f7 bd 4f 63 0b be ac 4c 33 be 7d 80 ff bd
       -0.12066192 -0.13612102 -0.17509717 -0.12475679
0002c0 fd 25 3b 3e be 44 66 be 78 1e 3a 3e 15 11 60 3e
       0.1827621 -0.2248716 0.18175685 0.21881516
0002d0 73 76 1d be 14 de 50 3e 69 c9 cc 3d ae d3 07 3e
       -0.15377216 0.20397216 0.099993534 0.13264343
0002e0 90 c5 cf 3c 8e 95 4b be 19 79 5d be 57 35 43 be
       0.02536276 -0.1988127 -0.21628226 -0.19063316
0002f0 c2 0b 1d be 17 b3 2b be 50 9f 68 be 08 ce 31 be
       -0.15336516 -0.16767536 -0.22717023 -0.17363751
000300 93 e9 7a 3e cc 9c 78 be da 65 8c 3e b2 6a 88 3e
       0.24503164 -0.24278563 0.27421457 0.26643902
000310 d3 f0 8f be 08 51 92 3e b7 96 65 3e 67 85 9a 3e
       -0.28113422 0.28577447 0.22420774 0.30179903
000320 17 21 eb bc 57 a2 73 be 6e eb a6 be 20 3a a1 be
       -0.028702302 -0.23792396 -0.32601494 -0.31489658
000330 f8 63 83 be 02 c1 9d be 49 fe 9c be 65 0d 79 be
       -0.25662208 -0.30811316 -0.30662754 -0.24321516
000340 36 5b 19 be ee 67 7e 3d 4d 00 fc bd fb 3b aa bd
       -0.149762 0.062110834 -0.12304745 -0.083122216
000350 b9 ef f0 3d 84 d2 ed bd 63 02 7d 3e 2a f4 47 bd
       0.117644735 -0.11612418 0.24707942 -0.048816837
000360 9c b2 3d be 44 61 04 3e d7 08 f1 3d 2e be ed bd
       -0.18525165 0.12927729 0.11769264 -0.116085395
000370 44 d8 07 3e 2d c3 58 3d fb e9 10 3e 89 bc e5 3c
       0.13266093 0.05292051 0.14151756 0.028044002
000380 5b a4 3d 3d 68 47 84 bd ae 9a 9e 3a ff 01 ae 3c
       0.04629932 -0.06458932 0.0012100541 0.021241186
000390 14 17 b9 3c 41 54 05 3d d7 ae 8a 3d bd 50 3a 3d
       0.022594012 0.032551054 0.06771629 0.045487154
0003a0 b0 e7 36 be 96 5a 8c bb f1 cf 8b bd 5b 10 22 bc
       -0.1786182 -0.0042832596 -0.06826771 -0.009891595
0003b0 20 5e bc 3b fd ba ee 3b bc cd 31 3d b6 59 b7 bc
       0.0057485253 0.0072854743 0.043409094 -0.022381645
0003c0 77 a0 b3 3c b2 cd fa 3a c8 2c 97 bc 91 cf 2f bd
       0.021927102 0.0019134788 -0.01845397 -0.04292256
0003d0 59 5f 73 bd e6 dd 8d ba 83 b5 65 3e be 03 98 3d
       -0.059417102 -0.0010823577 0.22432522 0.07422589
0003e0 d5 08 bd bd 15 b3 b0 3d ed da ab bd 35 ec a3 bd
       -0.092302 0.08627907 -0.08391366 -0.08004037
0003f0 e5 52 0b 3d e1 61 85 bd 62 5b 3f bc 7d 6f dc bc
       0.0340146 -0.065128095 -0.011679502 -0.02690863

sequential/dense/BiasAdd/ReadVariableOp f4 [24]
000000 c1 c6 26 3e 75 f0 3b 3e 06 b8 6d 3e d2 43 bc 3d
       0.16286756 0.18353446 0.2321473 0.09192623
000010 e4 9c c7 3d 1f 3a 22 3e 64 5d d9 3d a4 98 22 3e
       0.097467214 0.15842484 0.10613516 0.1587854
000020 7e 43 2e 3e 98 b8 0e 3e f3 8b 0c 3e 58 f9 0d 3e
       0.17017934 0.13937604 0.13725261 0.13864648
000030 a2 a9 3b 3e fe 01 e9 3d b0 a5 46 3e 38 73 1e 3e
       0.18326429 0.11377333 0.19399142 0.1547364
000040 2b 21 25 3e 90 0f ba bc d4 41 03 3e 85 d4 21 3e
       0.16125934 -0.022712499 0.1281808 0.15803726
000050 d7 fe ab bc e5 16 a9 bc ad b8 34 3e 33 b0 b9 bc
       -0.02099554 -0.0206408 0.17648573 -0.022667026

sequential/dense_1/BiasAdd/ReadVariableOp f4 [8]
000000 5e c9 df 3d d1 56 42 3e fd 10 82 3e 1d 16 75 3e
       0.109270796 0.1897843 0.25403586 0.23934217
000010 c2 be 72 3e ba 76 30 3e 03 5d 40 3e 62 d9 81 3e
       0.23705581 0.1723279 0.18785481 0.25361162

sequential/dense/MatMul f4 [24, 16]
000000 df 82 44 bf 65 39 52 3e cb 12 05 bf da c6 45 bf
       -0.76762193 0.20529707 -0.519818 -0.7725655
000010 9d ce 0e 3f 3f 91 34 bf 1c bc 12 be 82 49 20 bf
       0.55784017 -0.7053413 -0.1432957 -0.62612164
000020 62 1a c2 be 8d f4 44 3f 83 d3 d1 3d 2d aa 95 3d
       -0.37910753 0.76935655 0.10245421 0.07307849
000030 7b a6 20 3f d2 a6 11 3f 2c fb d0 3e c5 7e 3b 3f
       0.6275403 0.5689517 0.4081663 0.7324031
000040 a4 fc 53 bf 96 3f 2c 3f d0 32 d7 be 36 35 22 bf
       -0.82807374 0.67284524 -0.42030954 -0.63362443
000050 51 ef 15 3f 93 90 a2 be 3b 4a 68 bd 1a 12 2d be
       0.5856829 -0.31750926 -0.056711417 -0.16901436
000060 df 9f c1 bd 36 7c 13 3f 5f 32 09 3f 45 f3 8a 3c
       -0.09454321 0.57611406 0.53592485 0.016961703
000070 02 02 3f 3f 16 5f 50 3f ae 03 16 3f 83 60 19 3f
       0.7461244 0.8139509 0.58599365 0.5991289
000080 f4 9e 22 be e0 4e 6b be f5 3a 88 be d2 7f f2 3d
       -0.15880948 -0.22979307 -0.2660748 0.11840786
000090 ba a1 b4 3d 32 5b fa 3d df 05 35 3f 06 bd dd 3e
       0.088199094 0.122244254 0.70712084 0.43308276
0000a0 a7 65 61 be 53 56 dd 3e 69 05 2a be 64 6f d2 be
       -0.22011434 0.43229923 -0.16603626 -0.4110061
0000b0 5a 21 9c 3d 52 ec f6 be a9 c1 bb 3e 25 ee 0e bf
       0.07623549 -0.48227173 0.36671188 -0.5583213
0000c0 1b 71 16 bf 0f f8 bc 3e a4 46 05 bf 29 7a da be
       -0.58766335 0.36908004 -0.52060914 -0.42671326
0000d0 44 b5 1a 3e f9 38 59 be c6 7d 9f 3d 3e 3a 07 bf
       0.1510821 -0.2121314 0.07787661 -0.52823246
0000e0 f1 32 1e bf 8d 1a 0a 3f 2e 55 63 bc c8 1d fa 3e
       -0.6179648 0.53946763 -0.013875289 0.48850846
0000f0 46 19 4c 3e f8 a4 45 3f 2d 65 4a 3f 91 66 46 ba
       0.19931516 0.7720485 0.7906063 -0.0007568384
000100 f1 bb 05 bf 83 61 35 3f a6 e8 06 bf fd a5 24 bf
       -0.522399 0.70851916 -0.52698743 -0.6431578
000110 63 4d f8 3e ee 4f 9e be b8 1e f0 bc 3a 33 e3 be
       0.4849654 -0.30920357 -0.029311523 -0.4437502
000120 cc b8 af be 47 4c d6 3e 83 5c e1 3d 47 62 b9 bd
       -0.34320676 0.4185507 0.11003973 -0.09051948
000130 05 6e 09 3e 83 72 05 3e ff 6c 46 3f 17 01 03 3f
       0.13420875 0.13031964 0.77510065 0.5117354
000140 67 00 16 3d ff 56 8b bd 81 55 0d bf 1c e8 66 3d
       0.036621477 -0.068037026 -0.55208594 0.0563737
000150 d5 23 c3 3e 2b e3 02 bf c2 3f de 3e 2f 26 26 be
       0.38113275 -0.5112788 0.43408018 -0.16225503
000160 93 02 10 bf 6f 76 11 3f 90 61 d5 bd e6 33 b1 be
       -0.5625393 0.5682134 -0.10418999 -0.34609908
000170 46 aa db 3e 34 ac 2f be 5d 58 14 3f bf 39 10 3d
       0.42903346 -0.17155534 0.5794733 0.03521132
000180 61 a7 2d 3f 3b 71 14 bf c8 50 32 3f be 23 b9 3e
       0.67833525 -0.57985276 0.6965451 0.36160082
000190 c0 cd be be b5 23 cc 3e 26 df 19 3f 22 fc f4 3e
       -0.3726635 0.39870992 0.6010612 0.47848612
0001a0 14 07 0e 3e ca ff 06 bf 4e 1d 01 bf e7 bd 31 bf
       0.13869888 -0.52734053 -0.5043534 -0.69430393
0001b0 05 97 29 bf 41 5f 22 bf 7e 78 a1 be ee 6e 20 bf
       -0.6624606 -0.63426596 -0.3153724 -0.62669265
0001c0 9e 82 1e 3f da 4a 07 be bc 4b ea 3e 56 a7 80 3e
       0.61918056 -0.13212147 0.45760906 0.25127667
0001d0 d4 5e 3f bf 3d 05 18 3f 43 4f bb 3e 4f 47 08 3f
       -0.7475407 0.59382993 0.3658391 0.5323381
0001e0 91 98 9c be a5 38 28 bf 58 e7 bf be e2 05 26 bd
       -0.3058515 -0.6571143 -0.3748119 -0.040532954
0001f0 87 02 61 be 09 b5 e6 be c2 a9 e3 be 39 81 33 bf
       -0.2197362 -0.45059994 -0.44465452 -0.70119053
000200 38 0f 94 bd a7 d4 b1 3e e3 3a 33 bf 6f 4a 54 be
       -0.07229465 0.34732553 -0.7001173 -0.20731519
000210 06 e7 4b 3e e6 fb 0a bf 94 10 f6 bd a6 9c 45 bf
       0.19912347 -0.54290617 -0.12014881 -0.7719215
000220 5f c3 97 be 5f 18 03 3f d0 79 fc 3e 0e 71 d8 3e
       -0.29641244 0.5120906 0.49311686 0.42273754
000230 4a 42 18 3f c7 23 27 3f 07 72 da 3e 09 0e e8 3e
       0.5947615 0.65288967 0.4266512 0.45323208
000240 3c c2 f8 be 40 dc c7 3e 47 23 61 be 91 ac 4e bf
       -0.4858569 0.39035225 -0.21986113 -0.80732065
000250 2a c5 97 3e a3 0a e6 be f3 f4 8f 3d 9a 92 12 bf
       0.29642612 -0.4492999 0.07029142 -0.57254946
000260 1e c2 83 bd 79 c8 b6 3e e0 fd 35 3f a7 9e cf bc
       -0.06433509 0.35699823 0.7109051 -0.025344206
000270 a4 0c dc 3e 06 0f a5 3e d9 ae 63 3e 4c dc c5 3e
       0.42978394 0.32238024 0.22234668 0.38644636
000280 63 a1 3c 3e c3 ba 08 bf c3 eb 3a 3f a4 f1 79 3e
       0.18420939 -0.53409976 0.73015994 0.24408585
000290 da 2f e9 be a2 5f 1f 3f ba 9e cc 3d e4 54 30 3f
       -0.4554432 0.622553 0.09991212 0.6887953
0002a0 e8 28 32 be ea 0a 82 be ce 12 09 bf 56 ea 25 bf
       -0.17398417 -0.25398952 -0.5354432 -0.64810693
0002b0 72 df 46 be 44 6d 91 be 17 e6 19 be 5d 68 34 bf
       -0.19421175 -0.28403676 -0.15029179 -0.70471746
0002c0 71 66 0f 3e 4a a2 43 bf 74 6e ea 3e c7 99 07 3f
       0.14003922 -0.7641951 0.45787394 0.5296902
0002d0 a9 56 2b bf 6a 68 2b 3f bb 0a 08 3f 4f 82 25 3f
       -0.6692911 0.669562 0.53141373 0.6465196
0002e0 48 e0 3b 3e c7 ed b0 be 75 79 33 bf a1 19 12 bf
       0.18347275 -0.3455641 -0.70107204 -0.57070357
0002f0 01 f8 42 bf ca f4 da be 1f 50 2a bf 78 65 cf be
       -0.76159674 -0.42764884 -0.66528505 -0.40507102
000300 23 3b b9 be 5e 4c 40 3f 98 d0 0a bf e9 54 ce be
       -0.3617793 0.7511653 -0.5422454 -0.40299156
000310 d3 3e 2c 3f 0c dd 18 bf 8e 58 94 3d 59 b1 51 bf
       0.6728336 -0.5971229 0.07243453 -0.81911236
000320 b7 27 f6 be 6e aa 4b 3f f5 80 3d 3f 48 ea 4a 3d
       -0.48077175 0.7955693 0.740249 0.049539834
000330 50 a0 33 3e 8c 26 3e 3f 4d de 28 3f b2 0e 2f 3f
       0.17541623 0.7427757 0.65964204 0.683818
000340 82 e7 13 3f a2 a4 01 bf d0 b1 3c 3e 00 40 1d 3e
       0.5777513 -0.50641835 0.18427205 0.15356445
000350 cf 4e 73 be 6c b0 30 3f e0 23 83 3e 76 ae 03 3f
       -0.23760532 0.690192 0.25613308 0.5143808
000360 dc 83 61 be a2 69 2a be 59 47 ac be f5 d2 aa be
       -0.22022957 -0.16641858 -0.33648184 -0.33364072
000370 54 ff 49 bf b5 d9 19 be 32 a8 b9 be 5e cf 2d bf
       -0.78905225 -0.15024455 -0.36261135 -0.6789454
000380 50 39 e8 bd ab d3 33 3f bc bb 40 bf b7 9c 05 bf
       -0.113390565 0.70244855 -0.7528646 -0.5219225
000390 63 fd 39 3f 70 59 2b bf d2 4e b0 3e 7a 38 cf be
       0.7265226 -0.66933346 0.34435135 -0.40472776
0003a0 9f 10 a2 be 0e 7c 1d 3f ec 49 a9 3e 6b 4d 40 be
       -0.31653306 0.6151742 0.3306421 -0.18779533
0003b0 86 46 34 3f 8a b3 6a 3e 9b 5f 93 3e 72 ff 24 3f
       0.7042011 0.22920051 0.2878388 0.6445228
0003c0 b8 b4 41 be ca a8 2c 3f d8 bf 5f bf f5 c3 30 bf
       -0.18916595 0.6744505 -0.87402105 -0.69049007
0003d0 cb 66 21 3f fe ef dd be 31 60 2c 3e 0f 08 2c bf
       0.63047475 -0.43347162 0.16833569 -0.67199796
0003e0 c8 78 d4 be 1b a0 38 3f 81 f5 f7 3c 7a 19 e1 3e
       -0.414984 0.721193 0.030268433 0.4396475
0003f0 26 e9 af 3e 47 f7 9a 3e a2 c0 48 3f 53 c1 2f 3f
       0.34357566 0.30266783 0.78418934 0.68654364

sequential/dense_1/MatMul f4 [8, 24]
000000 14 cf 0b 3f b8 2d fc 3e f8 5c 89 3e 3a 5b 1c 3f
       0.5461285 0.4925363 0.26828742 0.610767
000010 95 7c 17 3f d9 77 07 3f 79 10 25 bf 04 d5 07 3e
       0.5917447 0.5291725 -0.6447826 0.13264853
000020 89 b7 f1 3e 51 28 32 3f 94 fb ee be 10 ba f5 be
       0.4721034 0.6959277 -0.46676314 -0.47993517
000030 e8 3d f3 3e d4 54 22 bf 1f ae fa 3e 52 c9 bf 3e
       0.47508168 -0.6341069 0.4896097 0.37458283
000040 f2 0b 9f be 9b aa 1e be fa 03 ee bc 4b e8 e7 3e
       -0.310638 -0.15494768 -0.02905463 0.45294413
000050 28 68 c0 be 30 1b c5 3c c8 b5 f6 3e 1d bf d5 3e
       -0.37579465 0.024060816 0.48185563 0.4174737
000060 6a 3d 12 bf ac f4 af be 01 38 04 3f 18 c1 f3 be
       -0.5712496 -0.34366357 0.51647955 -0.47608256
000070 6b 22 14 bf 88 57 05 3d a1 5f 2d 3f c1 46 1f 3f
       -0.5786502 0.03255418 0.67724043 0.62217337
000080 4e 5c 1e bf 4f 91 74 be 4c f5 a7 3e 35 bc 15 3f
       -0.61859596 -0.23883556 0.32804334 0.58490306
000090 c9 39 a3 be 40 0d 97 3e 2c f1 46 3e 68 97 7f be
       -0.31880024 0.29502296 0.19427937 -0.249601
0000a0 cf 06 06 3f 52 81 90 3c da f6 15 3e 03 f0 a5 be
       0.5235414 0.01763979 0.14644948 -0.32409677
0000b0 f2 1a 65 3d c0 8d 9a 3e 3e b1 ae be b1 78 61 bd
       0.0559339 0.30186272 -0.341196 -0.05504674
0000c0 8b 44 8c 3e 65 5d 34 3f aa 26 cf 3e 67 dc 0c 3f
       0.27396044 0.7045501 0.40459186 0.5502381
0000d0 55 5f 43 3e f5 40 b4 3d ee b0 1b bf d9 98 9d be
       0.19079335 0.08801452 -0.6081685 -0.30780676
0000e0 9b 9c 53 3f d1 33 68 3f 07 64 11 be f7 31 d4 be
       0.82660836 0.90704066 -0.14198314 -0.4144437
0000f0 55 de 57 3f 90 9e 54 bd dd 6d 1e 3f a4 8a 0f 3f
       0.84323627 -0.05190903 0.6188639 0.56070924
000100 46 fb 32 3d a9 bd 90 be fb 82 35 bf 43 f2 64 3f
       0.043696664 -0.282697 -0.70902985 0.8943216
000110 a9 cd d7 bd 7b 4d 7b be 12 c9 06 3e a4 27 13 3e
       -0.105372734 -0.24541275 0.1316264 0.1437059
000120 89 c2 6a 3f 9c 4e 19 3f 39 19 08 3f 7d 03 3d 3e
       0.9170309 0.59885573 0.53163487 0.18458362
000130 a1 78 0a 3f 98 3c 03 3f 15 ce 11 bf 0b 98 da be
       0.54090315 0.51264334 -0.5695508 -0.42694125
000140 43 53 a9 3e f5 ea a9 3e cb 51 18 be 8f c9 dd be
       0.33071336 0.3318707 -0.14874952 -0.4331784
000150 ee d7 ff 3e 80 4b f3 be 54 e6 2f 3f 6b 4b b9 3e
       0.4996943 -0.4751854 0.6871083 0.36190352
000160 9c db db be d3 01 b1 be e1 6f 02 3d 28 23 ba 3e
       -0.42940986 -0.34571704 0.031844977 0.36354947
000170 62 f8 d7 3e 79 b3 35 bd fd 3d e3 3e 2a 5b 94 bd
       0.4218169 -0.04436061 0.4438323 -0.07243951
000180 52 3f 19 bf 28 21 21 bf d1 52 25 3f 71 4c 6c 3d
       -0.59862244 -0.6294122 0.6457949 0.057690088
000190 aa a8 cf be c4 2a 9d 3e 3f 4e 2b bd 48 fa e3 3e
       -0.40558368 0.3069669 -0.04182267 0.44526887
0001a0 e9 00 0b bf 36 55 07 bf e6 45 09 3f 66 2f b1 3e
       -0.54298264 -0.52864397 0.5362228 0.34606475
0001b0 67 59 0c 3d 53 68 3b 3f ab 32 9d bd 7e e5 d3 be
       0.03426495 0.7320606 -0.0767568 -0.41386026
0001c0 73 7f b2 3d e4 81 74 be 63 f6 2e 3f 43 9d 85 be
       0.08715715 -0.23877674 0.68344706 -0.26096544
0001d0 8d dd 9c 3d fa c1 45 3e a4 4c 19 bf 12 b0 4e be
       0.07659445 0.19312277 -0.5988257 -0.20184353
0001e0 20 ad e1 3a 38 02 60 3e cf 69 a0 be 81 de 7d bd
       0.0017217733 0.21875846 -0.31330726 -0.061979774
0001f0 84 c6 e5 bc ee fb 4b be 7c 43 78 bd a8 c2 a5 be
       -0.028048761 -0.19920322 -0.060611233 -0.32375073
000200 9b 5d 43 be 03 15 a9 be 70 6f a4 3c 0e 4d b6 3e
       -0.19078676 -0.33023843 0.020072669 0.35605663
000210 cf ab 86 be 78 22 33 3d 12 db 1b be 54 6a b4 be
       -0.26302955 0.043734044 -0.15220287 -0.35237372
000220 f1 6f ce 3e 1f 13 96 be c3 c8 8f bd 91 31 eb 3d
       0.4031978 -0.29311463 -0.07020714 0.114840634
000230 6c a3 a2 3e 47 92 12 bc 5e 81 46 bd 90 eb 6c 3e
       0.31765306 -0.008946008 -0.048463218 0.23136735
000240 85 d6 ee bd 1f d0 ca bd cc 0b 12 3f d5 d4 d8 be
       -0.1166201 -0.09902977 0.5704925 -0.42349878
000250 d1 00 30 bf 8c 35 bb 3e 00 66 c4 3e b9 d8 c2 3e
       -0.68751246 0.3656429 0.3835907 0.3805597
000260 b1 57 46 be 70 9c ac be 09 d1 3a 3f 82 60 5b 3e
       -0.19369389 -0.33713102 0.7297521 0.21423534
000270 2b 93 1b bf c3 07 fd 3d 00 1b 49 3e a4 fa 0d bf
       -0.60771435 0.12354996 0.19639206 -0.5546057
000280 e6 3d 04 3e e6 99 bd bd a1 e4 08 3e 69 26 1c 3d
       0.12914237 -0.092578694 0.13368465 0.03812257
000290 61 69 41 3d 99 90 79 3e ad e2 23 be 96 6e 94 3d
       0.047219638 0.24371566 -0.16004439 0.07247655
0002a0 7c 30 90 be 85 d8 e3 bc f4 bb 2f 3e d9 65 0f bf
       -0.2816199 -0.027813205 0.17161542 -0.5601478
0002b0 00 e8 dc be cc 02 64 3e 7c 20 95 3e e0 8d 2b 3f
       -0.43145752 0.22266692 0.29126346 0.6701336
0002c0 b2 74 9a bd a3 5a 2a be f6 04 df 3e aa cc 34 3f
       -0.07541789 -0.16636138 0.43558472 0.7062479
0002d0 ea 62 bc bd 1e 65 39 3f de 1f 21 bd ac 71 89 bd
       -0.09198554 0.7241992 -0.03933703 -0.06711134
0002e0 ed 4d 3b 3f 7b 78 a1 bd fd 90 ea 3e 35 cc 2e bf
       0.7316578 -0.07884308 0.45813742 -0.68280345
0002f0 19 25 ae bd 5d c8 b4 3e 90 7a 0d bf a3 54 be be
       -0.085031696 0.35309115 -0.5526514 -0.37173948

sequential/dense_2/MatMul f4 [1, 8]
000000 fd e4 56 bf ed 22 4a 3f 1a 02 02 bf 02 6f 0f bf
       -0.8394316 0.7895954 -0.50784457 -0.5602876
000010 fd 10 38 3f 25 c0 89 3e 5e a3 02 3f 7d 32 fb 3e
       0.7190092 0.26904407 0.5103053 0.49061957
