model/hoax_detection_B2.tflite (tflite, 698016 bytes, 18 tensors)

sequential_4/embedding_4/embedding_lookup f4 [10000, 16]
0.022707874 0.012753957 0.021308562 -0.01888855 -0.017132655 0.007245039 0.04383491 0.046489917
-0.021105422 -0.013216505 0.033761073 -0.024064222 0.012777261 0.012249283 0.01586751 0.044329755
0.015698409 -0.023291726 -0.012799052 -0.007048634 -0.05677721 -0.012409676 0.011271248 0.048551213
0.0438758 -0.042520452 0.034102034 -0.041177627 0.022919046 0.031550255 -0.029723914 0.052694943
0.0555601 0.0443178 -0.068349056 -0.018590333 0.0050539854 0.01330772 0.030703587 0.048524294
0.013563827 -0.009435244 0.020781267 -0.0076458477 -0.0052153924 -0.00894398 0.0033895986 0.002063194
0.0636259 -0.043339144 -0.04504909 0.04779729 -0.049896423 -0.023942668 0.04014264 0.060366
0.035230286 -0.0006270062 -0.010695347 -0.011440506 0.019576693 0.026697261 0.006075776 0.02146509
0.005126341 0.008329571 -0.014898084 0.012772684 0.0092170155 3.531109e-05 -0.012274851 -0.043536205
-0.016670763 0.010188748 -0.028226187 0.013988611 -0.03431089 -0.022812417 0.011763664 0.012366843
-0.07733334 0.046865147 0.030478219 -0.02889127 0.045150083 0.015005853 -0.01779055 -0.07016181
0.04943052 0.025920954 -0.030956153 -0.0064057624 -0.012284939 -0.05251563 0.033729758 0.014477593
-0.034002546 0.044842936 0.0371299 0.0065725655 -0.04203032 -0.03558339 0.039648514 -0.04648431
0.020545049 -0.01142978 0.02853614 0.002529392 -0.013350871 0.029874047 -0.028293325 -0.011689135
0.048207525 0.01661523 0.0085006775 0.029395325 0.01514244 0.030026533 -0.054647837 -0.0059512034
0.0077021075 -0.013233235 0.011102512 0.026904328 0.010618586 -0.02802182 0.044922788 -0.034262307
0.0016432119 -0.008695741 0.029034762 -0.032331992 -0.051797595 0.027078917 -0.005989744 -0.014381475
0.036957406 0.011314304 -0.015698114 0.033994026 0.012636505 -0.026565898 -0.057025615 0.015339636
-0.0016496299 0.014963093 0.024949716 0.02593512 -0.018285606 0.019727964 0.004403969 -0.058175106
-0.025833376 0.022212507 -0.023458973 -0.010275134 -0.024928693 -0.037209503 -0.01142651 0.00730847
0.001415566 0.00059889315 -0.05454381 0.01132376 -0.052574176 0.04376033 -0.0029065334 0.047366206
-0.006028947 -0.058670763 0.062450256 0.029081644 0.04177667 0.011760246 -0.023922691 -0.0037259182
0.050449625 -0.022229295 0.0046636215 -0.0064438945 -0.053006914 0.048690323 -0.01310823 0.048411254
-0.015286213 -0.05884915 0.051471207 0.04721891 0.04624633 -0.034425624 -0.01626286 -0.002833762
0.068788834 -0.039277866 -0.060345184 0.024240147 0.006374386 0.08877096 -0.049552448 0.09042464
-0.07862426 -0.064743064 0.02764814 0.051499605 0.07708136 -0.03427149 -0.018938627 -0.04246099
-0.01827539 -0.025351092 0.033550803 -0.031167576 -0.022649711 -0.05353309 -0.020332724 0.009598587
-0.0060118446 0.007491681 -0.00027929866 -0.029532608 -0.02410723 -0.034233384 -0.014666974 0.03970661
0.053856645 -0.04488696 -0.022825893 0.041101955 -0.012380222 -0.046532623 0.045342993 -0.03002159
0.030767383 -0.016575297 -0.0076386044 0.015661275 -0.029057324 0.062565476 -0.0066269487 -0.0038692474
-0.028737864 -0.03746546 0.017382255 -0.03183749 -0.03460848 -0.019745134 0.0031967585 0.029439598
0.012809597 -0.010578547 0.06274607 0.028337618 -0.021862008 -0.030543687 -0.052404433 -0.047749564
00000000: dd05 ba3c f9f5 503c 4b8f ae3c 29bc 9abc
00000010: c859 8cbc cb67 ed3b 3c8c 333d 366c 3e3d
00000020: 47e5 acbc 0a8a 58bc 0d49 0a3d 5522 c5bc
00000030: b857 513c 37b1 483c 95fc 813c 1e93 353d
00000040: f399 803c 4ace bebc 1db3 51bc 3af8 e6bb
00000050: 388f 68bd f451 4bbc 0aab 383c a3dd 463d
00000060: 1cb7 333d ed29 2ebd 93ae 0b3d dfa9 28bd
00000070: b9c0 bb3c d73a 013d 917f f3bc a7d6 573d
00000080: fd92 633d 9586 353d 97fa 8bbd c14a 98bc
00000090: e79b a53b a008 5a3c 1786 fb3c 69c1 463d
000000a0: d03a 5e3c 4896 1abc 7a3d aa3c 058a fabb
000000b0: e2e5 aabb c589 12bc 0724 5e3b a736 073b
000000c0: 4c4e 823d 6384 31bd 6585 38bd 17c7 433d
000000d0: 3160 4cbd 6a23 c4bc 9c6c 243d 5742 773d
000000e0: a24d 103d ac5d 24ba 893b 2fbc f670 3bbc
000000f0: 4d5f a03c 37b4 da3c 4e17 c73b 8ed7 af3c
00000100: ddfa a73b c178 083c 1817 74bc 8544 513c
00000110: f702 173c ff1a 1438 751c 49bc 0553 32bd
00000120: 2091 88bc b5ee 263c 9b3a e7bc 7d30 653c
00000130: 9389 0cbd 1be1 babc 62bc 403c 4d9e 4a3c
00000140: f160 9ebd abf5 3f3d 75ad f93c 62ad ecbc
00000150: 4bef 383d 1cdb 753c 7dbd 91bc ffb0 8fbd
00000160: a877 4a3d 2e58 d43c c297 fdbc 6ee7 d1bb
00000170: c546 49bc a11a 57bd 3728 0a3d 6d33 6d3c
00000180: 4146 0bbd 3aad 373d 8615 183d ad5e d73b
00000190: fc27 2cbd e4bf 11bd 7b66 223d 5566 3ebd
000001a0: 174e a83c f943 3bbc a0c4 e93c 28c4 253b
000001b0: 9dbd 5abc 6bba f43c 67c7 e7bc c983 3fbc
000001c0: 4175 453d aa1c 883c 6d46 0b3c 77ce f03c
000001d0: ff17 783c 34fa f53c 69d6 5fbd 5002 c3bb
000001e0: f661 fc3b 36d0 58bc 4fe7 353c 7766 dc3c
000001f0: 94f9 2d3c 048e e5bc f500 383d a256 0cbd
00000200: 0b61 d73a 9578 0ebc 4fda ed3c 8d6e 04bd
00000210: b729 54bd 9bd4 dd3c 9d45 c4bb 47a0 6bbc
00000220: a660 173d a15f 393c 5599 80bc 523d 0b3d
00000230: 5809 4f3c baa0 d9bc b193 69bd 1953 7b3c
00000240: 6538 d8ba c327 753c 5963 cc3c e475 d43c
00000250: b2cb 95bc 8a9c a13c 2b4f 903b 0549 6ebd
00000260: 84a0 d3bc 01f7 b53c 082d c0bc 0959 28bc
00000270: 4237 ccbc fe68 18bd 4236 3bbc e47b ef3b
00000280: 838a b93a 0aff 1c3a 5569 5fbd 4b87 393c
00000290: 0558 57bd 083e 333d 8a7b 3ebb 1103 423d
000002a0: 798e c5bb c150 70bd d7cb 7f3d a13c ee3c
000002b0: 031e 2b3d 0cae 403c 85f9 c3bc 892e 74bb
000002c0: 44a4 4e3d 361a b6bc 4bd1 983b 4e27 d3bb
000002d0: c71d 59bd 816f 473d e7c3 56bc e14a 463d
000002e0: 0673 7abc ce0b 71bd 79d3 523d 9e68 413d
000002f0: cb6c 3d3d e201 0dbd b039 85bc a3b6 39bb
00000300: 29e1 8c3d d4e1 20bd 832c 77bd 4693 c63c
00000310: 3ae0 d03b 8dcd b53d 82f7 4abd 8e30 b93d
00000320: c205 a1bd 0398 84bd 5a7e e23c 40f1 523d
00000330: d5dc 9d3d 4360 0cbd 2e25 9bbc 93eb 2dbd
00000340: 45b6 95bc 18ad cfbc 916c 093d 2553 ffbc
00000350: e38b b9bc 8345 5bbd d090 a6bc 6443 1d3c
00000360: 02ff c4bb c67c f53b d56e 92b9 5eee f1bc
00000370: 877c c5bc 4e38 0cbd bf4d 70bc 66a3 223d
00000380: c998 5c3d 64db 37bd 5efd babc 865a 283d
00000390: 6ad6 4abc fe98 3ebd 93b9 393d d6ef f5bc
000003a0: e10b fc3c ebc8 87bc 424d fabb 134c 803c
000003b0: a009 eebc 5422 803d e026 d9bb 3393 7dbb
000003c0: ab6b ebbc 6275 19bd 3b65 8e3c 0768 02bd
000003d0: 9fc1 0dbd 8cc0 a1bc b580 513b 502b f13c
000003e0: 58df 513c a451 2dbc 0381 803d 4b24 e83c
000003f0: f417 b3bc c136 fabc 08a6 56bd 0c95 43bd

sequential_4/bidirectional_2/forward_lstm_2/Read_2/ReadVariableOp f4 [32]
0.16277137 0.10133992 0.072304115 0.078381054 0.16305932 0.122240074 0.1720982 0.17408067
1.1695064 1.1059647 1.0669993 1.0747399 1.1678855 1.1229333 1.1702644 1.1807061
0.043736957 0.013988036 0.0064313263 -0.02574328 -0.041673765 -0.017288843 0.03761744 0.099717475
0.21244113 0.15856749 0.14419428 0.1158598 0.22400355 0.18874228 0.22065832 0.21840389
00000000: 8aad 263e 4e8b cf3d 2e14 943d 3f86 a03d
00000010: 06f9 263e 0159 fa3d 833a 303e 3442 323e
00000020: 63b2 953f 4090 8d3f 6f93 883f 1491 893f
00000030: 467d 953f 47bc 8f3f 39cb 953f 6121 973f
00000040: 8625 333d 132e 653c e0bd d23b 92e3 d2bc
00000050: 1cb2 2abd 55a1 8dbc bf14 1a3d ad38 cc3d
00000060: 2b8a 593e 845f 223e aaa7 133e e747 ed3d
00000070: 3061 653e a845 413e 41f4 613e 45a5 5f3e

sequential_4/bidirectional_2/backward_lstm_2/Read_2/ReadVariableOp f4 [32]
0.11328089 0.14364167 0.12999697 0.10002632 0.12751585 0.07711381 0.16561581 0.18019038
1.1530796 1.1489987 1.1209104 1.1109651 1.1338009 1.0801736 1.1732802 1.1803225
0.022642937 0.023216724 -0.029501773 0.015969127 0.0120282555 0.009251432 -0.047590796 0.04862651
0.17180097 0.22947061 0.21059181 0.19338755 0.21084999 0.16968265 0.24578662 0.25662133
00000000: d0ff e73d cd16 133e ed1d 053e 99da cc3d
00000010: 8493 023e d8ed 9d3d 3197 293e d483 383e
00000020: 1d98 933f 6412 933f fe79 8f3f 1b34 8e3f
00000030: 6320 913f 2143 8a3f 0c2e 963f cf14 973f
00000040: ae7d b93c 0031 be3c b4ad f1bc b0d1 823c
00000050: 2912 453c 5193 173c 91ee 42bd 972c 473d
00000060: 98ec 2f3e 58fa 6a3e 61a5 573e 6307 463e
00000070: 0fe9 573e 4ac1 2d3e 7daf 7b3e df63 833e

sequential_4/bidirectional_1/forward_lstm_1/Read_2/ReadVariableOp f4 [64]
0.015304028 0.07210675 0.07453951 0.001042919 0.0255169 0.069273226 0.0622681 0.07680153
0.07877173 0.05810553 0.034276206 0.04613581 0.02856637 0.06288921 0.051867623 0.019301152
1.0210196 1.0747285 1.0784919 1.0010225 1.0306766 1.0705631 1.0739305 1.0774949
1.0812232 1.0553521 1.0346954 1.0496341 1.0301337 1.064086 1.0558882 1.0195562
0.00485942 0.014227723 0.0049357363 0.0024308718 0.011434626 -0.005061552 -0.0020864552 -0.0047266018
0.0032252546 0.0103132995 -0.021784255 -0.0079138875 0.0062357616 -0.004383489 0.008430589 -0.01219096
0.038227137 0.08381737 0.07957003 0.024894735 0.028764505 0.07228436 0.07416908 0.08824741
0.08137706 0.06026204 0.035963614 0.056961726 0.028324494 0.06395568 0.059887208 0.023489555
00000000: bfbd 7a3c b4ac 933d 2ca8 983d 8eb2 883a
00000010: d108 d13c 1fdf 8d3d d60c 7f3d 1f4a 9d3d
00000020: 1353 a13d 1000 6e3d 3565 0c3d e7f8 3c3d
00000030: 0504 ea3c 0fcc 803d 2573 543d 731d 9e3c
00000040: c5b0 823f b490 893f 060c 8a3f 8121 803f
00000050: 36ed 833f 3608 893f 8e76 893f 5aeb 893f
00000060: 8665 8a3f c715 873f e670 843f 695a 863f
00000070: 6cdb 833f f833 883f 5827 873f d180 823f
00000080: c53b 9f3b 651b 693c f5bb a13b 434f 1f3b
00000090: 4c58 3b3c 60db a5bb e9bc 08bb 9ce1 9abb
000000a0: cb5e 533b 1df9 283c e574 b2bc 40a9 01bc
000000b0: 5c55 cc3b 5fa3 8fbb 7420 0a3c 98bc 47bc
000000c0: 0f94 1c3d 71a8 ab3d 9df5 a23d 0bf0 cb3c
000000d0: 8aa3 eb3c d309 943d f5e5 973d 0fbb b43d
000000e0: 04a9 a63d 54d5 763d 954e 133d b350 693d
000000f0: c508 e83c 32fb 823d 4a4c 753d 2b6d c03c

sequential_4/bidirectional_1/backward_lstm_1/Read_2/ReadVariableOp f4 [64]
0.019932797 0.047796313 0.07945775 0.047162954 0.057849362 0.04417743 0.085734196 0.04675108
0.059881438 0.07531501 0.067032576 -0.0138441175 0.061439145 0.068842664 0.037393846 0.055164814
1.0212868 1.0516948 1.0787317 1.05748 1.054946 1.0501206 1.0814037 1.0427895
1.054616 1.0761496 1.0653933 0.9885761 1.0618103 1.0704615 1.0459387 1.0498052
0.014939522 0.007666632 0.0031568755 -0.033062704 0.00053886056 -0.0006772743 -0.008786116 -0.010362236
-0.009715418 0.0024059399 -0.0027633556 0.015343248 -0.009656932 0.00081539684 0.010031305 -3.86417e-07
0.018977575 0.060402784 0.08743204 0.049000114 0.058315683 0.05941743 0.120348565 0.052337255
0.06407875 0.082537554 0.07435518 -0.012983164 0.070441365 0.07302314 0.055194825 0.06366971
00000000: 1b4a a33c 11c6 433d bfba a23d f12d 413d
00000010: 74f3 6c3d 65f3 343d 6995 af3d 0f7e 3f3d
00000020: 3d46 753d c23e 9a3d 6048 893d 70d2 62bc
00000030: 9da7 7b3d 62fd 8c3d 4a2a 193d 80f4 613d
00000040: 87b9 823f ef9d 863f e113 8a3f 815b 873f
00000050: 7808 873f 5a6a 863f 706b 8a3f 207a 853f
00000060: a8fd 863f 45bf 893f cf5e 883f 5313 7d3f
00000070: 66e9 873f e204 893f 52e1 853f 0460 863f
00000080: e6c4 743c 5f38 fb3b 95e3 4e3b c26c 07bd
00000090: 5242 0d3a 1c8b 31ba a4f3 0fbc 5ec6 29bc
000000a0: 6b2d 1fbc f9ac 1d3b 6a19 35bb 3f62 7b3c
000000b0: 1c38 1ebc 5bc0 553a 585a 243c c074 cfb4
000000c0: dc76 9b3c e968 773d 920f b33d 58b4 483d
000000d0: 6ddc 6e3d b15f 733d 4f79 f63d 975f 563d
000000e0: b83b 833d 7309 a93d 8747 983d 56b7 54bc
000000f0: 9043 903d 288d 953d f813 623d 4465 823d

sequential_4/dense_9/MatMul f4 [1, 16]
0.46173158 0.4114673 0.45403105 -0.23116075 -0.44288853 -0.75472045 0.67257464 0.62100554
-0.11916317 -0.74369556 0.3486159 -0.7272775 -0.72006494 -0.7729522 0.4513689 -0.59590304
00000000: 1568 ec3e d8ab d23e c276 e83e 67b5 6cbe
00000010: 49c2 e2be 5c35 41bf da2d 2c3f 38fa 1e3f
00000020: d20b f4bd d562 3ebf c97d b23e dc2e 3abf
00000030: 2d56 38bf 32e0 45bf d319 e73e 1a8d 18bf

sequential_4/bidirectional_1/backward_lstm_1/Read_2/ReadVariableOp1 f4 [64]
0.019932797 0.047796313 0.07945775 0.047162954 0.057849362 0.04417743 0.085734196 0.04675108
0.059881438 0.07531501 0.067032576 -0.0138441175 0.061439145 0.068842664 0.037393846 0.055164814
1.0212868 1.0516948 1.0787317 1.05748 1.054946 1.0501206 1.0814037 1.0427895
1.054616 1.0761496 1.0653933 0.9885761 1.0618103 1.0704615 1.0459387 1.0498052
0.014939522 0.007666632 0.0031568755 -0.033062704 0.00053886056 -0.0006772743 -0.008786116 -0.010362236
-0.009715418 0.0024059399 -0.0027633556 0.015343248 -0.009656932 0.00081539684 0.010031305 -3.86417e-07
0.018977575 0.060402784 0.08743204 0.049000114 0.058315683 0.05941743 0.120348565 0.052337255
0.06407875 0.082537554 0.07435518 -0.012983164 0.070441365 0.07302314 0.055194825 0.06366971
00000000: 1b4a a33c 11c6 433d bfba a23d f12d 413d
00000010: 74f3 6c3d 65f3 343d 6995 af3d 0f7e 3f3d
00000020: 3d46 753d c23e 9a3d 6048 893d 70d2 62bc
00000030: 9da7 7b3d 62fd 8c3d 4a2a 193d 80f4 613d
00000040: 87b9 823f ef9d 863f e113 8a3f 815b 873f
00000050: 7808 873f 5a6a 863f 706b 8a3f 207a 853f
00000060: a8fd 863f 45bf 893f cf5e 883f 5313 7d3f
00000070: 66e9 873f e204 893f 52e1 853f 0460 863f
00000080: e6c4 743c 5f38 fb3b 95e3 4e3b c26c 07bd
00000090: 5242 0d3a 1c8b 31ba a4f3 0fbc 5ec6 29bc
000000a0: 6b2d 1fbc f9ac 1d3b 6a19 35bb 3f62 7b3c
000000b0: 1c38 1ebc 5bc0 553a 585a 243c c074 cfb4
000000c0: dc76 9b3c e968 773d 920f b33d 58b4 483d
000000d0: 6ddc 6e3d b15f 733d 4f79 f63d 975f 563d
000000e0: b83b 833d 7309 a93d 8747 983d 56b7 54bc
000000f0: 9043 903d 288d 953d f813 623d 4465 823d

while/MatMul_11 f4 [64, 16]
-0.057118375 -0.14456435 0.023149094 -0.0049887747 -0.10724093 -0.0867681 -0.4024798 -0.12850267
0.21674383 -0.2684923 -0.07254459 -0.2720536 -0.1401438 0.17260134 0.16912496 -0.064438574
-0.10918986 -0.0002316767 -0.2747373 0.099337116 0.14283629 0.018725261 0.055896804 -0.0106191905
0.022572994 0.19506995 -0.031995755 0.20337051 0.09255738 0.09564638 -0.081433095 0.33485532
0.0073833494 0.01867917 -0.28758278 -0.059094075 -0.11101301 -0.06759623 0.2894149 0.0037130842
-0.20735729 0.024204973 -0.12329409 -0.013144787 0.17146239 0.15789837 -0.11164157 0.19070145
-0.06622966 -0.09274188 0.18810247 0.005919956 -0.13003013 -0.0599189 -0.3010492 0.03952062
0.1295015 -0.13026771 0.08828822 0.04790878 -0.16379607 -0.033115536 0.3331918 -0.11706177
0.09742032 0.10521222 -0.08550302 -0.20766506 -0.0030145154 0.22830212 -0.14438535 0.23348008
-0.07911312 -0.07648274 0.040447164 0.021144558 0.0007640267 0.17171037 -0.14765173 0.21251178
-0.05135832 0.09723697 -0.26402268 0.073321596 -0.1784035 0.0503285 -0.07063205 0.112471625
-0.02897495 0.3116679 -0.1736657 0.17294699 0.0538714 0.09184419 -0.17930613 0.3112524
0.13001998 0.21752837 -0.3182492 0.008772167 -0.03296243 0.3094539 0.028417412 0.02608776
-0.09680907 -0.13273433 0.06028463 -0.027337443 0.068220876 -0.068666525 0.20114863 0.06360264
-0.053615116 0.026710607 0.15089855 -0.16367911 -0.07053444 -0.02031384 0.050996963 -0.047160957
0.108734645 0.14227235 -0.10828267 -0.2376767 -0.2702561 0.0005041107 0.106325455 0.012893639
-0.06323249 -0.059498247 -0.13246909 0.03153027 -0.06115075 0.07845927 0.095812306 -0.0018415841
-0.059294622 0.07214761 -0.14212604 0.05403819 -0.027958164 0.058289316 -0.14149179 -0.034134094
0.14036281 0.100162685 -0.28253093 -0.08809241 -0.1011331 -0.010123647 0.12709562 0.050027907
-0.05194599 0.009461037 -0.15722239 0.014519918 0.10949959 0.08039239 -0.21266001 0.4142792
-0.09764267 -0.1084047 0.021464018 -0.0074757435 0.008611158 0.1708936 -0.1071047 -0.011499716
-0.3701113 0.0063320175 -0.03889781 0.22723499 0.03266878 0.19918905 0.015718743 0.047183942
-0.17694089 0.005213838 0.2290201 0.1158835 0.058799457 -0.26314047 -0.019867068 -0.2682662
-0.06588993 -0.10216974 0.20210573 0.061588492 -0.025756607 -0.091909625 0.03079265 -0.08877647
0.0037349851 -0.14390029 -0.114788204 -0.050428737 -0.05799765 0.06540752 0.007968009 0.23573206
-0.04749955 -0.116890796 0.05192038 -0.2024155 -0.07862701 -0.021115735 -0.113730155 -0.022087883
0.15686232 0.11118607 -0.060187645 0.00075503974 -0.08583212 0.1664573 0.034374334 -0.11306429
-0.004194382 0.023488622 -0.11619305 0.062596075 -0.055415556 -0.12152134 -0.06500888 -0.013230513
-0.4200215 0.117445335 -0.14280058 0.012797872 0.0016356695 0.2788748 -0.04995176 0.06813953
-0.061912026 0.059177935 0.086183436 0.014822119 -0.09188968 -0.06491541 -0.2142899 0.16992363
0.08027081 0.16276868 -0.03518545 0.050434247 0.17198138 0.085739985 0.07599751 0.13509537
0.0795781 0.1425796 -0.053728722 -0.009281639 -0.038195465 0.27162904 0.051020898 0.11340279
00000000: f5f4 69bd ad08 14be 2ba3 bd3c e078 a3bb
00000010: 22a1 dbbd 79b3 b1bd d511 cebe 3496 03be
00000020: 18f2 5d3e d377 89be 4292 94bd 9c4a 8bbe
00000030: db81 0fbe 68be 303e 182f 2d3e 5ff8 83bd
00000040: ef9e dfbd 3eee 72b9 5eaa 8cbe 4271 cb3d
00000050: ad43 123e b865 993c 0cf4 643d 1dfc 2dbc
00000060: 00eb b83c 6bc0 473e fb0d 03bd 5c40 503e
00000070: b98e bd3d 40e2 c33d 65c6 a6bd 2872 ab3e
00000080: 06f0 f13b 0f05 993c 0d3e 93be a10c 72bd
00000090: ca5a e3bd e46f 8abd 312e 943e 3757 733b
000000a0: 7855 54be 8249 c63c 9d81 fcbd 3c5d 57bc
000000b0: d693 2f3e 1cb0 213e 56a4 e4bd 3e47 433e
000000c0: 6aa3 87bd 74ef bdbd ef9d 403e 31fc c13b
000000d0: 9e26 05be 856d 75bd 1f23 9abe 60e0 213d
000000e0: 0b9c 043e e664 05be 74d0 b43d ff3b 443d
000000f0: 28ba 27be 28a4 07bd 1e98 aa3e 15be efbd
00000100: 4e84 c73d 8179 d73d 351c afbd 26a6 54be
00000110: 2d8f 45bb 08c8 693e c1d9 13be 6715 6f3e
00000120: 0f06 a2bd fca2 9cbd edab 253d 5a37 ad3c
00000130: f748 483a d8d4 2f3e 0432 17be b09c 593e
00000140: 1a5d 52bd 2d24 c73d fb2d 87be a229 963d
00000150: 68af 36be 4225 4e3d 89a7 90bd 8657 e63d
00000160: e05c edbc ef92 9f3e 6cd5 31be 0419 313e
00000170: 42a8 5c3d cf18 bc3d 079c 37be 795c 9f3e
00000180: f523 053e c2bf 5e3e 8ff1 a2be 23b9 0f3c
00000190: 9d03 07bd be70 9e3e a2cb e83c 00b6 d53c
000001a0: d543 c6bd 82eb 07be 04ed 763d c6f2 dfbc
000001b0: 63b7 8b3d 09a1 8cbd e8f9 4d3e 1a42 823d
000001c0: 869b 5bbd 34d0 da3c 2685 1a3e 7f9b 27be
000001d0: 5c74 90bd 3669 a6bc 31e2 503d d92b 41bd
000001e0: 45b0 de3d d8af 113e 4ec3 ddbd 8561 73be
000001f0: 025f 8abe 4c26 043a 29c1 d93d d73f 533c
00000200: 0980 81bd 6fb4 73bd faa5 07be e225 013d
00000210: 3579 7abd 41af a03d 3e39 c43d 4f61 f1ba
00000220: ebde 72bd 20c2 933d 7d89 11be 2657 5d3d
00000230: 8508 e5bc c7c0 6e3d 39e3 10be 31d0 0bbd
00000240: 45bb 0f3e 1822 cd3d e5a7 90be cb69 b4bd
00000250: df1e cfbd a7dd 25bc 5b25 023e 10ea 4c3d
00000260: 52c5 54bd 7702 1b3c e8fe 20be f3e4 6d3c
00000270: 5241 e03d c4a4 a43d 8cc3 59be 671c d43e
00000280: e1f8 c7bd 4903 debd 4fd5 af3c 15f7 f4bb
00000290: d015 0d3c bbfe 2e3e b559 dbbd 4e69 3cbc
000002a0: 3a7f bdbe d07c cf3b 4f53 1fbd 4ab0 683e
000002b0: b3cf 053d 37f8 4b3e 98c4 803c f343 413d
000002c0: fe2f 35be d8d8 aa3b 3f84 6a3e 5454 ed3d
000002d0: b3d7 703d 59ba 86be 43c0 a2bc 305a 89be
000002e0: 4df1 86bd 5e3e d1bd cef4 4e3e 3744 7c3d
000002f0: 85ff d2bc 1d3b bcbd de40 fc3c 70d0 b5bd
00000300: a7c6 743b 995a 13be 1416 ebbd 5d8e 4ebd
00000310: f28e 6dbd 61f4 853d 418c 023c bf63 713e
00000320: e38e 42bd 7164 efbd 77aa 543d 0246 4fbe
00000330: 3307 a1bd e8fa acbc 5beb e8bd a6f1 b4bc
00000340: 84a0 203e 86b5 e33d 5287 76bd dced 453a
00000350: c0c8 afbd c873 2a3e 1acc 0c3d 408e e7bd
00000360: 0771 89bb 366b c03c 9ff6 edbd 5f32 803d
00000370: 6cfb 62bd 2ee0 f8bd 6023 85bd cbc4 58bc
00000380: 0f0d d7be 2e87 f03d 513a 12be 2aae 513c
00000390: f663 d63a aec8 8e3e 379a 4cbd bd8c 8b3d
000003a0: 7797 7dbd 9064 723d f180 b03d 79d8 723c
000003b0: a830 bcbd 5ff2 84bd d06e 5bbe 7600 2e3e
000003c0: 0665 a43d d5ac 263e 9e1e 10bd 2494 4e3d
000003d0: e31b 303e 7298 af3d 95a4 9b3d 7156 0a3e
000003e0: d8f9 a23d 6300 123e a612 5cbd 0412 18bc
000003f0: d972 1cbd f612 8b3e 4afb 503d b93f e83d

while/MatMul f4 [64, 16]
-0.008322371 0.0001300542 0.005853861 -0.011815028 -5.4126627e-05 2.0165426e-06 9.135201e-07 -0.013556244
9.0589936e-05 0.0033100094 0.0041522416 8.947284e-05 6.2232226e-05 0.0074405656 0.00018616108 0.0058104573
-2.5305591e-05 -0.00010003039 -0.012305251 0.00037706364 -0.00020409266 -0.00023800044 -0.00062184734 -0.00056983426
0.00019954529 -0.005641565 -0.000186827 0.00017019894 0.00011724652 -0.000184209 -0.00069458084 -0.0009077438
-0.00074086984 -0.004465472 -0.0007275178 2.696061e-05 0.00033133093 -0.00068219693 -0.002109868 0.003829929
0.0006107062 0.000615114 -0.0005744791 0.00011426699 0.011354032 -0.00036152112 -0.00029041743 -0.005070769
-0.0004037468 -0.00029622923 -0.00041680445 -0.006665941 0.00017460871 -5.4798515e-05 -0.0005585258 -0.00051274506
0.011092691 0.00027825515 -0.00048280225 0.00039380204 -0.0001707752 -0.00023604812 -0.008114539 -0.00056836056
-0.00084108487 -0.01327163 0.0002648239 -0.0006661631 0.00035551228 -0.00076377305 0.00033865203 0.0046389936
0.0007566717 0.00058866123 -0.0005041672 -0.00023779753 -0.0036514876 -0.0052370545 0.00028633166 9.47365e-05
-0.00012678737 0.00033491995 0.0007267766 -0.00030404958 0.00014866536 0.00021580655 0.0005143564 0.0002520146
3.0785468e-05 -0.013131907 0.00019875824 -0.00014262139 -0.0001522257 -0.015398343 0.00052767375 0.00081634586
-3.860019e-06 -7.720098e-06 -7.837235e-05 0.00011435907 -0.004069448 3.838011e-05 -0.00014047294 -0.00010183449
-1.8231112e-06 -1.6410324e-05 -2.106205e-05 3.655004e-05 0.0001200074 0.0023808042 -0.0007111083 -0.00024040256
-0.0162986 -0.0007362051 -0.0006356492 0.0005637778 -0.0033781738 0.0035435772 -0.0054521793 -0.0011679515
0.00036400385 0.00047078365 -0.01555217 -0.0038538978 -0.00017821122 0.011382949 0.0005650541 -0.0015774561
-0.00094389037 -0.00037896066 -0.001047383 0.0017373456 0.00030784524 -0.0009766105 0.01988562 -0.0011239196
0.0012084042 0.0006620447 -0.0011248284 -0.012059302 -0.010713461 -0.00038268324 -0.00047086098 0.015249311
-0.0010259857 -0.00046445415 -0.0009420054 0.017980607 0.0052508493 -0.001089442 -0.0061749355 -0.0010445844
0.008351066 0.00070580083 -0.0011656332 0.00023409359 -0.0004473061 0.0052835303 -0.0001463851 -0.0010337291
-0.0012134332 0.00025976013 -0.0017055094 0.00013438496 0.00035024894 -0.002731368 -0.0013504514 -0.0017016956
0.0008345916 0.0010533023 -0.0035578916 0.011986617 -0.0005354145 -0.00028365187 -0.000712756 -0.0017382356
-8.15011e-05 -0.00016278254 0.004761948 -0.00893251 0.00026733574 -2.4116047e-05 -0.006008594 -0.014379701
0.0001637243 -0.0062704803 -0.00014936585 7.4470026e-06 -0.00011185555 0.009793173 0.001094649 -0.003603214
-0.00012816477 -0.0004784552 -0.00054028834 0.0015406896 -0.014756896 -0.00030485122 -0.00049972755 -0.00052244106
0.00014987594 0.00024052565 -0.004555389 0.00032868885 -0.0001298246 -0.00014294087 0.00081236986 -0.00071755785
0.00077185646 -0.00047133645 -0.0008108526 -0.00011732599 8.5089254e-05 0.001202731 -0.0005366417 -0.00046075022
0.00037655057 0.00041816756 -0.0009767291 0.00019697414 -7.8004035e-05 0.013671944 0.011769656 -0.00092209486
-6.414939e-05 -0.00024803594 0.00014654367 0.00025057097 -0.00013673485 1.6144964e-05 0.009929899 -0.00614287
0.0011727896 6.216814e-05 -0.0001309207 0.00017444536 5.963862e-05 -0.00014166378 -0.0036969755 -0.006126251
-0.00018724227 -0.0005270506 -0.002352367 0.0004497355 7.3381794e-05 -0.0009752129 -0.0008923609 -0.00036668766
0.00040953833 0.000198059 0.0073553347 0.00027560006 -5.460036e-05 -0.0001932068 -0.0069318432 -0.0022690971
00000000: 8e5a 08bc 295f 0839 bfd1 bf3b d293 41bc
00000010: 0606 63b8 f053 0736 a038 7535 021b 5ebc
00000020: 1afb bd38 beec 583b 870f 883b 5da3 bb38
00000030: ac82 8238 fdcf f33b 3c34 4339 a665 be3b
00000040: 5847 d4b7 68c7 d1b8 f79b 49bc a0b0 c539
00000050: b501 56b9 c28f 79b9 7803 23ba ee60 15ba
00000060: 083d 5139 e1dc b8bb fee6 43b9 6e77 3239
00000070: 3fe2 f538 3a28 41b9 8814 36ba a8f5 6dba
00000080: ef36 42ba 1853 92bb e5b6 3eba 7829 e237
00000090: 7cb6 ad39 76d5 32ba b645 0abb 8cff 7a3b
000000a0: cd17 203a 9a3f 213a a498 16ba a0a2 ef38
000000b0: 4306 3a3c 8b8a bdb9 2b43 98b9 b228 a6bb
000000c0: faad d3b9 374f 9bb9 8c86 dab9 f76d dabb
000000d0: 2b17 3739 75d7 65b8 086a 12ba bd69 06ba
000000e0: 1ebe 353c c6e2 9139 9f20 fdb9 3777 ce39
000000f0: 1e12 33b9 af83 77b9 d8f2 04bc 08fe 14ba
00000100: 407c 5cba 4071 59bc 10d8 8a39 73a1 2eba
00000110: 0d64 ba39 f137 48ba 1b8d b139 b302 983b
00000120: 615b 463a 6350 1a3a 172a 04ba 4a59 79b9
00000130: cc4d 6fbb 999b abbb c91e 9639 45ad c638
00000140: 3af2 04b9 3298 af39 2785 3e3a d868 9fb9
00000150: 0ee3 1b39 214a 6239 e0d5 063a d420 8439
00000160: a51f 0138 3627 57bc c269 5039 a38c 15b9
00000170: c69e 1fb9 5549 7cbc 9653 0a3a 0b00 563a
00000180: 5085 81b6 9285 01b7 d65b a4b8 0fd4 ef38
00000190: 0159 85bb 54fa 2038 eb4b 13b9 fa8f d5b8
000001a0: a0b1 f4b5 e7a8 89b7 68ae b0b7 4e4d 1938
000001b0: 7bac fb38 4407 1c3b ac69 3aba 9214 7cb9
000001c0: a484 85bc e3fd 40ba b2a1 26ba 7dca 133a
000001d0: 5a64 5dbb 5c3b 683b 32a8 b2bb f315 99ba
000001e0: c5d7 be39 83d3 f639 87ce 7ebc ad91 7cbb
000001f0: 36de 3ab9 8c7f 3a3c 2420 143a a5c2 ceba
00000200: 696f 77ba 3daf c6b9 5748 89ba a5b7 e33a
00000210: 4a66 a139 9c01 80ba 2be7 a23c 7c50 93ba
00000220: 5163 9e3a 118d 2d3a fa6e 93ba 6194 45bc
00000230: 8387 2fbc e0a2 c8b9 e4dd f6b9 3fd8 793c
00000240: 5e7a 86ba fb81 f3b9 eaf0 76ba 114c 933c
00000250: 510f ac3b 9ccb 8eba 1d57 cabb 70ea 88ba
00000260: e9d2 083c 7e05 393a 29c8 98ba 0577 7539
00000270: 6984 eab9 7721 ad3b f37e 19b9 317e 87ba
00000280: 100c 9fba 6a30 8839 668b dfba b0e9 0c39
00000290: 9ea1 b739 c000 33bb a101 b1ba 6e0b dfba
000002a0: 7fc8 5a3a f60e 8a3a 842b 69bb 8463 443c
000002b0: 0f5b 0cba 1cb7 94b9 3fd8 3aba 82d5 e3ba
000002c0: 92eb aab8 9bb0 2ab9 1d0a 9c3b aa59 12bc
000002d0: 3229 8c39 d14c cab7 bde3 c4bb d698 6bbc
000002e0: 68ad 2b39 9a78 cdbb 179f 1cb9 44e1 f936
000002f0: fe93 eab8 8b73 203c 537a 8f3a e623 6cbb
00000300: f863 06b9 2bd9 fab9 23a2 0dba f7f0 c93a
00000310: e8c6 71bc 70d4 9fb9 2600 03ba 6df4 08ba
00000320: 0428 1d39 9d35 7c39 5f45 95bb df53 ac39
00000330: 8721 08b9 66e2 15b9 38f5 543a 7e1a 3cba
00000340: 6956 4a3a b51d f7b9 668f 54ba e90c f6b8
00000350: f271 b238 f5a4 9d3a 6aad 0cba d990 f1b9
00000360: c36b c539 803d db39 9705 80ba d88a 4e39
00000370: 1996 a3b8 4a00 603c 84d5 403c bdb8 71ba
00000380: f187 86b8 d20a 82b9 84a9 1939 115f 8339
00000390: 7b60 0fb9 0c6f 8737 04b1 223c 214a c9bb
000003a0: 4ab8 993a 4460 8238 c247 09b9 52eb 3639
000003b0: 7b24 7a38 958b 14b9 f548 72bb b8be c8bb
000003c0: 7756 44b9 c429 0aba 2b2a 1abb 7aca eb39
000003d0: 8de4 9938 6ea5 7fba 54ed 69ba fc3f c0b9
000003e0: 4eb7 d639 0fae 4f39 0505 f13b 6a7e 9039
000003f0: b102 65b8 8e97 4ab9 8424 e3bb 22b5 14bb

sequential_4/bidirectional_1/forward_lstm_1/Read_2/ReadVariableOp1 f4 [64]
0.015304028 0.07210675 0.07453951 0.001042919 0.0255169 0.069273226 0.0622681 0.07680153
0.07877173 0.05810553 0.034276206 0.04613581 0.02856637 0.06288921 0.051867623 0.019301152
1.0210196 1.0747285 1.0784919 1.0010225 1.0306766 1.0705631 1.0739305 1.0774949
1.0812232 1.0553521 1.0346954 1.0496341 1.0301337 1.064086 1.0558882 1.0195562
0.00485942 0.014227723 0.0049357363 0.0024308718 0.011434626 -0.005061552 -0.0020864552 -0.0047266018
0.0032252546 0.0103132995 -0.021784255 -0.0079138875 0.0062357616 -0.004383489 0.008430589 -0.01219096
0.038227137 0.08381737 0.07957003 0.024894735 0.028764505 0.07228436 0.07416908 0.08824741
0.08137706 0.06026204 0.035963614 0.056961726 0.028324494 0.06395568 0.059887208 0.023489555
00000000: bfbd 7a3c b4ac 933d 2ca8 983d 8eb2 883a
00000010: d108 d13c 1fdf 8d3d d60c 7f3d 1f4a 9d3d
00000020: 1353 a13d 1000 6e3d 3565 0c3d e7f8 3c3d
00000030: 0504 ea3c 0fcc 803d 2573 543d 731d 9e3c
00000040: c5b0 823f b490 893f 060c 8a3f 8121 803f
00000050: 36ed 833f 3608 893f 8e76 893f 5aeb 893f
00000060: 8665 8a3f c715 873f e670 843f 695a 863f
00000070: 6cdb 833f f833 883f 5827 873f d180 823f
00000080: c53b 9f3b 651b 693c f5bb a13b 434f 1f3b
00000090: 4c58 3b3c 60db a5bb e9bc 08bb 9ce1 9abb
000000a0: cb5e 533b 1df9 283c e574 b2bc 40a9 01bc
000000b0: 5c55 cc3b 5fa3 8fbb 7420 0a3c 98bc 47bc
000000c0: 0f94 1c3d 71a8 ab3d 9df5 a23d 0bf0 cb3c
000000d0: 8aa3 eb3c d309 943d f5e5 973d 0fbb b43d
000000e0: 04a9 a63d 54d5 763d 954e 133d b350 693d
000000f0: c508 e83c 32fb 823d 4a4c 753d 2b6d c03c

while/MatMul_14 f4 [64, 16]
0.20824587 -0.12212846 -0.013067051 -0.022740327 0.132906 0.18507072 0.21178451 0.2852949
-0.120703295 0.1682905 0.18832016 0.07243556 0.17673568 0.009584987 -0.10590758 -0.13560383
-0.13474016 0.058320127 -0.24575958 0.1687155 0.1471004 -0.101923324 0.17136516 0.1493222
-0.0494534 0.15734655 -0.0799313 0.05883823 -0.051811043 -0.019029127 -0.23613353 -0.18764709
0.11389755 0.023183897 -0.04480309 0.036411505 0.21102335 -0.06885969 0.07878353 -0.030656522
0.05114618 -0.06805119 0.034857545 0.08265279 0.12828775 -0.047553267 0.075424924 0.0040302295
0.083130896 -0.16874252 0.22139315 0.3577863 0.12791441 -0.04984685 -0.00045769583 0.10279561
-0.018504508 0.048364975 -0.049956154 0.058273263 0.25877956 -0.17681496 -0.1402008 -0.07135127
0.18433373 0.079207376 0.010356453 0.20056 -0.024013147 -0.16314285 -0.014521802 -0.118962556
0.13593854 -0.02072345 0.032307897 0.07721662 0.23977171 -0.17238359 -0.048361238 -0.068206266
-0.036914013 -0.09971609 -0.084858984 0.078633055 -0.046034098 0.07666321 0.029828731 0.037289884
0.027654292 0.11064816 0.078500494 -0.026951663 0.12631916 -0.14603153 0.26447102 -0.18052419
0.2136851 0.019794483 0.22190236 -0.064325064 0.038556106 0.042488363 0.36435828 0.08505043
0.02001961 0.045077354 -0.0040027304 0.25889713 0.11206492 0.19503377 -0.02102633 -0.15785685
0.11069159 0.26031297 -0.0049738386 -0.19194563 0.01070684 -0.29867813 -0.05448681 0.16629225
0.037427034 -0.03148558 -0.1396071 0.014495101 -0.09140209 -0.15011539 0.02739131 -0.20363784
0.053483598 -0.08007446 0.24456413 0.23267388 -0.0760883 -0.059892602 -0.009473338 -0.034106705
0.10646083 -0.004081629 -0.08668998 0.05673762 -0.011926116 0.16995083 -0.131037 -0.008165297
0.061207473 0.024932787 0.15161648 -0.14099412 -0.032482162 0.014367229 -0.12943001 -0.016413819
0.026162624 -0.099412635 0.12117822 0.20784973 0.0047540255 0.1681924 -0.059752803 -0.044111915
0.23459084 -0.17161858 0.003995963 -0.011860759 0.07524852 -0.17222734 0.1630485 0.036922153
0.21524395 -0.06801259 0.05900057 0.2336497 -0.030859144 0.055184484 0.02655337 -0.015505233
0.09994498 -0.19286342 -0.11452459 0.20446275 -0.019078322 0.06863119 -0.14488207 -0.13029626
-0.21721168 0.17347185 -0.05275176 0.22365282 0.037974168 -0.22111928 -0.003850518 -0.034127697
0.114466846 -0.2087816 0.06635843 0.05132987 0.057899028 -0.073852435 -0.032880012 0.1382241
0.0019765839 0.12580706 0.16875404 -0.009678839 -0.10660641 -0.060793635 -0.13671744 -0.11348765
0.009072596 0.08873203 0.29300946 -0.07625106 0.03618959 -0.08864525 -0.13552542 0.17451982
-0.036719676 0.11665981 0.15318567 -0.16829208 -0.036471296 0.03209204 0.03265112 -0.013579316
0.07481681 0.04093788 0.055348147 0.09506735 -0.07293636 -0.10871678 -0.013490971 0.03826202
-0.061473306 -0.022900917 0.041226696 0.30521956 0.08065011 0.33069107 0.050423313 0.115750104
0.19925843 -0.27900782 0.16169244 0.01695718 0.031656854 0.057698727 0.101194896 0.0925183
-0.3504948 -0.011090828 0.03408103 0.111575626 0.14968932 -0.15985134 -0.12346622 -0.002757857
00000000: 683e 553e 7c1e fabd 2f17 56bc ec49 babc
00000010: 8318 083e 2e83 3d3e 0ade 583e 2c12 923e
00000020: 4a33 f7bd 5854 2c3e 00d7 403e 1859 943d
00000030: 33fa 343e 590a 1d3c 13e6 d8bd bbdb 0abe
00000040: 53f9 09be 16e1 6e3d 66a8 7bbe c2c3 2c3e
00000050: 7da1 163e 2dbd d0bd 597a 2f3e ebe7 183e
00000060: a68f 4abd 741f 213e 05b3 a3bd 5b00 713d
00000070: d137 54bd f9e2 9bbc fdcc 71be 8f26 40be
00000080: 1e43 e93d 28ec bd3c 7283 37bd 3b24 153d
00000090: 8116 583e 4f06 8dbd 4259 a13d 6323 fbbc
000000a0: a87e 513d 6c5e 8bbd c9c6 0e3d de45 a93d
000000b0: dd5d 033e 37c7 42bd 6278 9a3d 0410 843b
000000c0: 8840 aa3d d7ca 2cbe e3b4 623e c42f b73e
000000d0: fffb 023e 362c 4cbd e5f6 efb9 8186 d23d
000000e0: c496 97bc 5a1a 463d d39e 4cbd f2af 6e3d
000000f0: c17e 843e fb0e 35be cc90 0fbe 9d20 92bd
00000100: fbc1 3c3e 7a37 a23d 1dae 293c 9a5f 4d3e
00000110: 38b7 c4bc eb0e 27be daec 6dbc a4a2 f3bd
00000120: 7933 0b3e 3ac4 a9bc 4955 043d bf23 9e3d
00000130: b786 753e 5385 30be 6f16 46bd baaf 8bbd
00000140: 2633 17bd f337 ccbd 8cca adbd 5e0a a13d
00000150: 408e 3cbd 9a01 9d3d 625b f43c 47bd 183d
00000160: 418b e23c 819b e23d dec4 a03d bcc9 dcbc
00000170: cf59 013e 4a89 15be bf68 873e 55db 38be
00000180: 44d0 5a3e 0a28 a23c 5f3a 633e dcbc 83bd
00000190: 02ed 1d3d 4708 2e3d 2b8d ba3e eb2e ae3d
000001a0: 2a00 a43c 08a3 383d 5629 83bb 2a8e 843e
000001b0: 4b82 e53d efb6 473e 693f acbc 3aa5 21be
000001c0: 46b2 e23d be47 853e 95fb a2bb 658d 44be
000001d0: be6b 2f3c 57ec 98be 902d 5fbd 8448 2a3e
000001e0: 174d 193d 06f7 00bd 2af5 0ebe dc7c 6d3c
000001f0: 0531 bbbd d9b7 19be be63 e03c 7086 50be
00000200: 9e11 5b3d 14fe a3bd 056f 7a3e 1042 6e3e
00000210: 2fd4 9bbd f251 75bd 0f36 1bbc 79b3 0bbd
00000220: 2308 da3d 30bf 85bb 848a b1bd b565 683d
00000230: c265 43bc 9707 2e3e 902e 06be bdc7 05bc
00000240: b0b4 7a3d d83f cc3c 5a41 1b3e c360 10be
00000250: 040c 05bd 8764 6b3c 4d89 04be 4676 86bc
00000260: 0053 d63c da98 cbbd 492c f83d 8fd6 543e
00000270: a8c7 9b3b a13a 2c3e 5bbf 74bd b2ae 34bd
00000280: 9538 703e c8bc 2fbe 91f0 823b a153 42bc
00000290: e51b 9a3d 5d5c 30be 30f6 263e af3b 173d
000002a0: e968 5c3e 2f4a 8bbd 95aa 713d de41 6f3e
000002b0: 51cc fcbc 2009 623d 7486 d93c a909 7ebc
000002c0: f4af cc3d fd7d 45be de8b eabd af5e 513e
000002d0: 244a 9cbc 828e 8c3d f75b 14be 626c 05be
000002e0: bd6c 5ebe 9ba2 313e 3b12 58bd 3f05 653e
000002f0: cd8a 1b3d 186d 62be f958 7cbb 7cc9 0bbd
00000300: 986d ea3d d8ca 55be eee6 873d 453f 523d
00000310: 8827 6d3d f23f 97bd 31ad 06bd 9e8a 0d3e
00000320: 9389 013b 91d3 003e dccd 2c3e fe93 1ebc
00000330: 7654 dabd bf02 79bd a8ff 0bbe 376c e8bd
00000340: 3aa5 143c 23b9 b53d 5605 963e 8429 9cbd
00000350: 893b 143d a48b b5bd 2dc7 0abe 53b5 323e
00000360: 5f67 16bd 57eb ee3d b4dc 1c3e c254 2cbe
00000370: ed62 15bd f172 033d 2ebd 053d c87b 5ebc
00000380: 8e39 993d 7aae 273d bdb4 623d acb2 c23d
00000390: a95f 95bd e7a6 debd 3c09 5dbc a3b8 1c3d
000003a0: 6fcb 7bbd b49a bbbc 53dd 283d bd45 9c3e
000003b0: e32b a53d 5750 a93e ad88 4e3d 640e ed3d
000003c0: 670a 4c3e 1dda 8ebe b492 253e c9e9 8a3c
000003d0: 9eaa 013d 8055 6c3d 453f cf3d 3c7a bd3d
000003e0: 0e74 b3be 4eb6 35bc 8d98 0b3d c381 e43d
000003f0: 2848 193e 12b0 23be dcdb fcbd 2abd 34bb

while/MatMul2 f4 [64, 16]
-0.0002605163 0.00021781602 0.0001508323 -0.0001575695 0.00016652324 -0.00014194967 1.0173449e-05 -0.00019480426
-0.010899939 0.00050215464 -0.002457898 -0.010682226 -0.0007536517 -2.1081925e-05 0.00043137226 -0.0014570272
2.9964078e-05 0.00031235773 0.0004659544 -0.00016265597 0.0036961178 -0.0029771733 -0.00063872535 0.0041285697
0.0026438388 -0.00015076503 0.000328571 0.00050581753 0.010412214 0.00035506353 0.00017036061 8.986554e-05
-0.0014469421 0.00018685273 0.00031418126 -0.0011171864 0.0012226112 -0.0054513165 -0.004144772 -0.00058854866
0.001093969 0.0011349983 -0.009499768 -0.0067888047 0.0051043723 0.00018399082 0.0005871613 0.014368121
-5.186266e-05 0.00018444823 0.00015834003 -0.0001278183 -0.0002520698 -4.725017e-05 0.00010887735 -0.013660233
-6.689631e-05 9.89092e-05 1.4267103e-05 0.003984873 0.0010382873 5.261201e-05 -2.0429148e-05 -0.009661781
-0.00047472422 0.012499336 0.010616776 -0.00036610023 0.0005600226 -0.00036665017 -0.0010852605 -0.001681635
0.0005467815 0.0007823548 0.013527416 0.014847761 -0.0008529016 0.00017730228 0.00018071907 0.0015799797
-0.0015763745 0.000798029 0.0033920507 0.002577112 0.016124144 -0.0017796014 0.003424888 -0.0001536511
0.0075141587 -0.0011987825 -0.00082299416 -0.0010941273 -0.0011584614 -0.0013302302 0.0012157486 0.00037479916
-3.3641095e-06 0.00023940862 0.0004839141 -0.00037711798 0.00011279488 -0.012613432 0.00036263664 -0.007598305
0.0009087836 -0.013477606 0.00014746611 -7.9481055e-05 -1.1995414e-05 0.007173182 0.0002630144 0.00028379317
0.008264423 0.0011211126 -0.008630898 -0.0014639804 0.000549023 -0.0005401007 -0.010700871 0.00011914106
0.00012570762 -4.363074e-05 -0.00014580134 -0.00090271904 -0.0004366836 0.0004302608 0.00092168554 0.0018240368
-0.0016504086 0.0022843773 0.002431405 0.006729771 0.0012419862 -0.0030419063 0.0023473678 -0.00065314054
0.00089263293 0.0009808447 -0.0004608429 -0.013996493 0.0013143746 0.00040586974 0.016194217 0.00026140845
-0.00093032426 -0.0048458274 0.0013795237 0.0033997511 0.00075966906 -0.0007020758 0.00039514815 0.00370877
0.0004491257 0.00065876864 -0.00022740767 -0.0009451169 -0.00024546552 0.00038209299 0.0007806318 0.0011598932
0.000687518 -0.0007762306 0.0026555131 0.013737486 5.7126093e-05 -2.648304e-05 0.0003320879 0.00011950622
-7.128523e-05 -0.00019761245 -9.488764e-06 -0.00041779605 0.0067892848 0.00010983623 0.00025989764 0.00039916707
0.0021666894 0.00026796493 0.0012139458 -0.0004313795 0.0001227979 -0.00041384957 -0.006757591 0.0028429276
0.0001516864 9.380643e-05 0.010134895 -0.00043191077 0.003666374 -3.905954e-05 0.0012974504 -9.872267e-06
-0.0013854313 0.002630146 0.005728169 -0.000717201 -0.00016418476 -0.0010505045 0.0012892069 -0.00071909145
0.001247223 0.008180859 -0.00061005534 -0.0008466242 0.012959221 0.00033131204 0.0005639386 0.0011496972
-0.0045849397 0.0006995055 0.0012491542 -0.00069743773 0.0002991317 -0.015953904 0.0070405444 -4.1428386e-05
0.00011848418 0.0002338633 -0.00015117771 -0.000764123 0.0011131115 0.0003636122 0.00053287996 0.0012371726
0.0009383608 0.002841942 0.0008255781 -0.00024898225 0.0071814368 0.000191199 0.0004422806 0.00024299156
-0.00041002757 -0.001550488 7.823579e-05 -0.00023805004 -0.014143547 0.00021111935 0.00047033117 0.00058137975
-0.00022478813 0.00021214398 9.468639e-06 -4.70269e-05 0.00015803274 -0.0001087049 0.010190127 -0.00031523695
0.000103654354 0.0002821685 -0.00015326482 0.00012924585 8.649086e-05 -0.0020220014 0.0005961416 -0.00016759973
00000000: e895 88b9 8b65 6439 bd28 1e39 3e39 25b9
00000010: be9c 2e39 53d8 14b9 a1ae 2a37 5f44 4cb9
00000020: a895 32bc 07a3 033a b014 21bb 8104 2fbc
00000030: b690 45ba 17d9 b0b7 ce29 e239 b8f9 beba
00000040: 5e5b fb37 f2c3 a339 574b f439 a18e 2ab9
00000050: 913a 723b ae1c 43bb 2270 27ba f448 873b
00000060: 4144 2d3b ae16 1eb9 0e44 ac39 d798 043a
00000070: fe97 2a3c d227 ba39 d4a2 3239 3276 bc38
00000080: 52a7 bdba e6ed 4339 b2b8 a439 8e6e 92ba
00000090: 0640 a03a f5a0 b2bb ded0 87bb d548 1aba
000000a0: 8263 8f3a 39c4 943a eaa4 1bbc 9f74 debb
000000b0: 9442 a73b a9ed 4039 baeb 193a 4468 6b3c
000000c0: 1b87 59b8 7268 4139 1408 2639 f706 06b9
000000d0: 3c28 84b9 7c2e 46b8 1555 e438 2bcf 5fbc
000000e0: af4a 8cb8 796d cf38 be5c 6f37 8a93 823b
000000f0: 2417 883a b7ab 5c38 435f abb7 724c 1ebc
00000100: 68e4 f8b9 04ca 4c3c fcf1 2d3c 24f1 bfb9
00000110: 7bce 123a f43a c0b9 4d3f 8eba 4f6a dcba
00000120: e355 0f3a f116 4d3a 18a2 5d3c 0644 733c
00000130: 4295 5fba 38ea 3939 687f 3d39 5217 cf3a
00000140: 5a9e ceba d232 513a 2b4d 5e3b c4e4 283b
00000150: c816 843c 8441 e9ba 1674 603b 671d 21b9
00000160: 5539 f63b 7720 9dba 34be 57ba d268 8fba
00000170: 84d7 97ba 1e5b aeba c159 9f3a b180 c439
00000180: f6c2 61b6 c309 7b39 dab5 fd39 ebb7 c5b9
00000190: 4a8c ec38 91a8 4ebc 4420 be39 34fb f8bb
000001a0: 6f3b 6e3a 2dd1 5cbc 22a1 1a39 11af a6b8
000001b0: e93f 49b7 030d eb3b 32e5 8939 13ca 9439
000001c0: 8167 073c 4cf2 923a 9c68 0dbc 08e3 bfba
000001d0: 4fec 0f3a 8b95 0dba b552 2fbc 5fdb f938
000001e0: 62d0 0339 2600 37b8 40e2 18b9 73a4 6cba
000001f0: aef2 e4b9 a194 e139 459d 713a 8514 ef3a
00000200: 8652 d8ba 7eb5 153b 3558 1f3b 6985 dc3b
00000210: 24ca a23a b85a 47bb 4cd6 193b 8537 2bba
00000220: 95ff 693a b08f 803a 499d f1b9 8c51 65bc
00000230: 1847 ac3a eaca d439 bca9 843c a60d 8939
00000240: 01e1 73ba bfc9 9ebb 22d1 b43a 5cce 5e3b
00000250: 8724 473a 820b 38ba e32b cf39 d60e 733b
00000260: a278 eb39 37b1 2c3a 4874 6eb9 b9c1 77ba
00000270: d3b1 80b9 a753 c839 50a3 4c3a 8f07 983a
00000280: 8d3a 343a f47b 4bba 1e08 2e3b 3113 613c
00000290: ad9a 6f38 e527 deb7 151c ae39 6a9f fa38
000002a0: f77e 95b8 3036 4fb9 ee31 1fb7 a30b dbb9
000002b0: a678 de3b e157 e638 df42 8839 4c47 d139
000002c0: 04ff 0d3b a57d 8c39 431d 9f3a c72a e2b9
000002d0: 4fc3 0039 f3f9 d8b9 c86e ddbb 6950 3a3b
000002e0: 020e 1f39 f2b9 c438 d50c 263c 1572 e2b9
000002f0: 8c47 703b ddd3 23b8 360f aa3a 10a1 25b7
00000300: 5c97 b5ba 875e 2c3b 5db3 bb3b 8b02 3cba
00000310: 0329 2cb9 15b1 89ba 9bfa a83a 6981 3cba
00000320: dc79 a33a 0209 063c 1fec 1fba fdef 5dba
00000330: ea52 543c f3b3 ad39 47d5 133a 70b1 963a
00000340: 433d 96bb 055f 373a a9ba a33a 41d4 36ba
00000350: c7d4 9c39 c3b1 82bc 5eb4 e63b 64c3 2db8
00000360: b67a f838 3439 7539 7585 1eb9 6d4f 48ba
00000370: d3e5 913a 34a3 be39 f8b0 0b3a a028 a23a
00000380: 54fc 753a e03f 3a3b 9c6b 583a d589 82b9
00000390: 4252 eb3b 977c 4839 e6e1 e739 8dcb 7e39
000003a0: f8f8 d6b9 bf39 cbba 8512 a438 129d 79b9
000003b0: 56ba 67bc eb5f 5d39 c896 f639 bc67 183a
000003c0: 1bb5 6bb9 f772 5e39 7fdb 1e37 c03e 45b8
000003d0: 97b5 2539 80f8 e3b8 7ef4 263c 6346 a5b9
000003e0: 0261 d938 04f0 9339 b6b5 20b9 2b86 0739
000003f0: 6d62 b538 8e83 04bb 6346 1c3a b6bd 2fb9

sequential_4/bidirectional_2/backward_lstm_2/Read_2/ReadVariableOp1 f4 [32]
0.11328089 0.14364167 0.12999697 0.10002632 0.12751585 0.07711381 0.16561581 0.18019038
1.1530796 1.1489987 1.1209104 1.1109651 1.1338009 1.0801736 1.1732802 1.1803225
0.022642937 0.023216724 -0.029501773 0.015969127 0.0120282555 0.009251432 -0.047590796 0.04862651
0.17180097 0.22947061 0.21059181 0.19338755 0.21084999 0.16968265 0.24578662 0.25662133
00000000: d0ff e73d cd16 133e ed1d 053e 99da cc3d
00000010: 8493 023e d8ed 9d3d 3197 293e d483 383e
00000020: 1d98 933f 6412 933f fe79 8f3f 1b34 8e3f
00000030: 6320 913f 2143 8a3f 0c2e 963f cf14 973f
00000040: ae7d b93c 0031 be3c b4ad f1bc b0d1 823c
00000050: 2912 453c 5193 173c 91ee 42bd 972c 473d
00000060: 98ec 2f3e 58fa 6a3e 61a5 573e 6307 463e
00000070: 0fe9 573e 4ac1 2d3e 7daf 7b3e df63 833e

while/MatMul_17 f4 [32, 8]
0.024446633 0.11870799 0.24750221 0.5305102 -0.018962877 0.23037533 0.20047367 0.33963472
0.0073670284 0.09525094 0.084865876 0.014854858 0.3839485 -0.32350087 0.06826491 -0.084916815
0.20135583 0.16595945 0.104679994 0.24393426 -0.29400805 0.13550682 -0.19403446 -0.11195847
0.1791704 0.05104201 0.49208182 -0.3219912 0.24873699 0.018215625 -0.37138414 -0.24104677
0.38788792 -0.14163925 0.035171192 0.33232933 0.19833322 -0.0861568 0.2288882 0.15990809
0.45931447 -0.057039253 -0.28090158 0.1109637 0.010909256 0.05523895 -0.041002892 -0.20001604
-0.07840192 -0.11625466 0.010156129 0.081023514 0.20180114 0.111178525 -0.10560882 0.19369088
0.24527752 0.0883065 0.109274365 -0.09278409 -0.009728954 0.14957522 -0.054843187 0.11407229
0.0777054 0.13088533 -0.0788304 0.60850036 0.3981201 0.14500275 -0.55464673 -0.13493438
0.7093265 -0.0674613 0.44173226 0.072053395 0.1765426 0.011146723 -0.048380442 -0.012188471
0.012143872 -0.32519102 -0.09008231 -0.2876925 -0.29345158 0.025852108 -0.08017426 -0.09332873
0.14463979 0.15554877 -0.0753068 -0.07636677 0.051755365 0.3044246 -0.0027078197 -0.03825188
0.19729176 0.14045225 -0.03266275 0.0012730757 -0.0051712883 -0.14202414 -0.023868263 0.0476691
0.0938324 0.07014581 0.11482979 -0.18253635 0.1715462 0.11282954 0.3984972 -0.18568984
0.23636694 -0.25221148 0.20833072 0.00052644033 0.07012008 -0.165837 -0.23238015 0.28752786
0.10697003 0.04845119 0.19676875 0.09817832 0.07504375 -0.2050008 -0.037231997 0.23410718
-0.015752124 0.08116597 0.13220572 0.06355753 0.20378341 0.11371155 0.11091941 -0.024547966
0.2985636 0.029390179 0.014232507 0.33248907 -0.088359356 -0.015211325 -0.16729893 -0.10459197
-0.24734253 -0.29521987 0.20412171 -0.0996667 0.0409994 -0.012421378 0.17139243 0.07334324
0.11211248 0.046164423 0.029893707 -0.026953874 0.3525732 0.3526374 -0.11707721 0.14362079
0.335259 0.15275605 -0.1355513 0.071077734 0.018296171 0.030270793 0.0197402 -0.008060982
0.1205412 0.3309201 -0.18815415 0.07598533 0.4839801 0.059986398 0.0019098264 0.15380959
0.124836646 -0.11996016 0.120725736 -0.14272526 -0.17408003 -0.3445923 0.16075954 -0.069097474
0.22674969 0.19362219 -0.40047002 0.2746468 0.29112774 -0.07886628 -0.035536103 -0.06740136
0.41723302 -0.031034589 -0.18824118 0.2999474 0.61339515 0.3482471 -0.16250688 0.3379692
0.17491513 -0.0102162445 -0.00053761865 -0.016126493 0.045339897 -0.46330163 -0.121844836 0.17207041
0.24415633 0.08353456 0.25745365 -0.22316104 -0.24068278 -0.278203 0.24952586 -0.27525726
0.15183277 -0.05012792 -0.09483976 -0.04468534 -0.07563604 -0.08692129 0.10849453 0.06863536
0.3331453 -0.2531513 -0.029942947 0.23730269 0.043503713 0.27686217 -0.069170825 0.01777197
0.3622947 0.37185603 0.22759175 -0.010518284 -0.067272656 0.018002925 0.0012763919 0.35785905
0.40286756 -0.11186883 0.13160184 -0.20387034 -0.16574106 0.004101603 -0.07561928 0.19038318
0.49689457 -0.31993696 -0.029602138 -0.18895997 0.07385798 0.04410307 0.10590353 0.103625625
00000000: 4e44 c83c 2d1d f33d 3871 7d3e 84cf 073f
00000010: 0958 9bbc 83e7 6b3e f848 4d3e 9ae4 ad3e
00000020: 1d67 f13b ed12 c33d 29ce ad3d ca61 733c
00000030: e694 c43e e8a1 a5be 79ce 8b3d dee8 adbd
00000040: 3930 4e3e 46f1 293e 7762 d63d e7c9 793e
00000050: 3988 96be 4dc2 0a3e f8b0 46be 7b4a e5bd
00000060: 7278 373e 6d11 513d 26f2 fb3e 08dc a4be
00000070: e9b4 7e3e ef38 953c 1026 bebe f7d4 76be
00000080: 3f99 c63e e109 11be ab0f 103d 1227 aa3e
00000090: dd17 4b3e fa72 b0bd ab61 6a3e f2be 233e
000000a0: 442b eb3e fea1 69bd 55d2 8fbe f040 e33d
000000b0: bcbc 323c 3d42 623d a6f2 27bd 01d1 4cbe
000000c0: 3091 a0bd ec16 eebd e465 263c a8ef a53d
000000d0: f5a4 4e3e 91b1 e33d 7049 d8bd e756 463e
000000e0: 082a 7b3e 0ada b43d 3dcb df3d 9605 bebd
000000f0: 3166 1fbc 3f2a 193e 40a3 60bd bc9e e93d
00000100: 0224 9f3d ce06 063e d571 a1bd aec6 1b3f
00000110: 66d6 cb3e 9a7b 143e 54fd 0dbf 3d2c 0abe
00000120: 6c96 353f 2629 8abd bb2a e23e bb90 933d
00000130: 95c7 343e bfa0 363c 922a 46bd 27b2 47bc
00000140: 17f7 463c 707f a6be 137d b8bd 6e4c 93be
00000150: 493f 96be cdc7 d33c 6732 a4bd 2223 bfbd
00000160: 741c 143e 2d48 1f3e 743a 9abd 2e66 9cbd
00000170: 6ffd 533d 8bdd 9b3e ad75 31bb 01ae 1cbd
00000180: da06 4a3e b7d2 0f3e 60c9 05bd 55dd a63a
00000190: e973 a9bb c76e 11be 6087 c3bc ad40 433d
000001a0: 342b c03d 9ba8 8f3d e22b eb3d cfea 3abe
000001b0: cfa9 2f3e 2d13 e73d d307 cc3e 7a25 3ebe
000001c0: 2d0a 723e dd21 81be a654 553e d000 0a3a
000001d0: 1e9b 8f3d 2dd1 29be 10f5 6dbe da36 933e
000001e0: 1a13 db3d c174 463d bf7d 493e b711 c93d
000001f0: 8ab0 993d bbeb 51be 9480 18bd cbb9 6f3e
00000200: 990a 81bc 583a a63d f060 073e 732a 823d
00000210: 99ac 503e 9ae1 e83d b729 e33d d118 c9bc
00000220: 54dd 983e acc3 f03c 762f 693c 023c aa3e
00000230: c0f5 b4bd ec38 79bc 6950 2bbe 5134 d6bd
00000240: 5c47 7dbe 0f27 97be 4805 513e 0e1e ccbd
00000250: fdee 273d 0983 4bbc 7f81 2f3e fb34 963d
00000260: 3a9b e53d e816 3d3d a6e3 f43c 5fce dcbc
00000270: 7984 b43e e48c b43e 2dc6 efbd 5411 133e
00000280: 11a7 ab3e 156c 1c3e f6cd 0abe 3491 913d
00000290: dae1 953c 74fa f73c 33b6 a13c 3612 04bc
000002a0: 4ede f63d 5c6e a93e 7bab 40be 329e 9b3d
000002b0: 3dcc f73e 4cb4 753d 2453 fa3a 4380 1d3e
000002c0: 5baa ff3d acad f5bd 0e3f f73d 9226 12be
000002d0: 0942 32be 676e b0be 269e 243e fa82 8dbd
000002e0: 1231 683e e544 463e 680a cdbe 819e 8c3e
000002f0: b20e 953e a584 a1bd 4e8e 11bd b909 8abd
00000300: 919f d53e 403c febc 4cc2 40be b592 993e
00000310: 7707 1d3f 724d b23e 3468 26be 4d0a ad3e
00000320: f41c 333e 0962 27bc faee 0cba b51b 84bc
00000330: 54b6 393d df35 edbe c989 f9bd 3a33 303e
00000340: 1e04 7a3e 2b14 ab3d f7d0 833e 5484 64be
00000350: 8c75 76be a070 8ebe b583 7f3e 85ee 8cbe
00000360: 0d7a 1b3e ef52 4dbd 593b c2bd fa07 37bd
00000370: 11e7 9abd ca03 b2bd 6132 de3d b290 8c3d
00000380: 0592 aa3e 0c9d 81be e94a f5bc 7aff 723e
00000390: f330 323d e1c0 8d3e 6fa9 8dbd 8696 913c
000003a0: b17e b93e ea63 be3e d00d 693e e154 2cbc
000003b0: 3fc6 89bd df7a 933c 9b4c a73a 4d39 b73e
000003c0: a844 ce3e 7c1b e5bd a2c2 063e 63c3 50be
000003d0: 06b8 29be bd66 863b 48de 9abd cff3 423e
000003e0: f768 fe3e c7ce a3be 2f80 f2bc b97e 41be
000003f0: da42 973d 6ca5 343d f3e3 d83d ac39 d43d
