model/hoax_detection_B3.tflite (tflite, 712856 bytes, 18 tensors)

sequential_5/embedding_5/embedding_lookup f4 [10000, 16]
00000000: 392f 243d f2f5 df3c b640 d0bb a6d0 583c
00000010: f602 37bd c92b 32bd 9929 053d 3eee 5f3d
00000020: ea79 0bbc b491 60bd e2af ffbc e462 43bd
00000030: fa98 e63c a99f aa3c 22f5 70bc dee4 343d
00000040: e9a7 debc f4fc b0bc 9412 83bc 7057 2ebd
00000050: 7a50 ca3c 17e2 d13c a68e 91bc d80d 1abd
00000060: 92fe d93c a20a 803c ff9d d7bb f8f7 babc
00000070: ddd2 f53c 3f6d 403d 22c9 0f3d 2c90 0cbc
00000080: bbe8 9dbc fbc9 7e3c b505 67bc 8b68 38bc
00000090: 1c90 203d 01c4 70b9 746d f63b eb55 b93c
000000a0: 804c ac3d 044a 25bc 6d3f f5bb 79fb a7bd
000000b0: cfd3 9dbc ac48 963d 501a dfbc 1252 3d3d
000000c0: dad5 0d3d a3b5 4c3d ef65 d13d 1c76 823d
000000d0: 5d29 2abd bf50 933d e535 e6bc c6a2 f93b
000000e0: 47dd 4f3b c9d2 0d3d 6213 4fbd 4467 c3bc
000000f0: 81bf 3c3d e45f 563b 7e67 463d 301b 83ba
00000100: 18bc 0d3d 57a3 0f3c 3664 353d b86a 2b3d
00000110: 667e f5bc 682e 0c3d 0d49 ee3c 5896 24bd
00000120: 0b97 0e3d eacd f53b 838a e6bc a729 e53c
00000130: 856c 22bd 7201 19bd fef7 013d bcb1 6f3c
00000140: 997b 5cbd c6f0 96bc 42f1 943d 6e52 9cbd
00000150: aeaa b7bc 27a7 353d 73b8 5a3d 07a3 683d
00000160: eaa1 78bd f63c 31ba 0b5c 083d 01b4 c53c
00000170: 32d0 6dbc 8deb dabc 34b0 99bd b441 a1bc
00000180: 7bf6 2a3d 8a51 38bd 7f2b 5abd 55a8 a9bc
00000190: 8a2d 68bc 0b9b 303d f01a 253d f677 acbc
000001a0: 4f5d 51bc c75d bebb 37cf 4c3c 377d 6a3d
000001b0: e89e 2d3c ba26 8fbc f970 9cbb 1ef2 b2bb
000001c0: 6925 e5bb 215f 5b3c 2645 9dba 0946 b8bb
000001d0: 4548 93bc 46ea 91bc 218f 84bc 057f 98bd
000001e0: 20a3 413d 4ac0 583d 2628 25bd 6832 37bd
000001f0: ad97 823c c9b5 083d 9375 21bb 29c2 1bbc
00000200: 4c78 babc 279e 653d e701 1c3d 6a19 e1bc
00000210: 020b f6bb 9da8 22bd 86e1 59bd 6f57 ddbc
00000220: 3c7a bfbb b58c bdbc 28c1 80bd 854c 2d3c
00000230: 318c 29bc e1ec 71bc a934 7ebc 43fb 73ba
00000240: e928 0c3d 5615 db3c 7ba1 a3bc 5c79 8bbc
00000250: 5fc3 b33c 5e9d dcbc a812 11bd 4ef6 b73c
00000260: 9fc5 88bc eac8 ec3a 4f8d 343c bb3b 8b3c
00000270: 3533 ff3b 951e f6bc 9a15 a83c 734c b13c
00000280: b8ee cd3d 91b3 f73c aa15 9abc 29fc 803d
00000290: 6b55 04bd b8aa 013d cf5b 54bd c24f 41bd
000002a0: 21d4 0e3d 851a 9a3c ecf4 79bd b831 a0bd
000002b0: 0f74 e4bc 52bd 443d b562 c33c 5e96 07bd
000002c0: 7fbc ac3d e1c5 633d 975f 81bd fab8 f03d
000002d0: 948a efbc 933b 883c c2bd 6bbd 44ab b5bc
000002e0: 5a41 ff3d e25a e53d 4e1f 13bd 29f4 d8bc
000002f0: 3cb6 e23c b76c 633d 079c 293d 38aa ee3c
00000300: 51cf a13d 451c bf3d 15d9 173c 6aeb f53d
00000310: dcf3 0abd de74 813d b735 fdbd 6e8a cebd
00000320: 58cc 553d 6c57 0b3e 85b1 b4bd 5926 89bd
00000330: c3db b33d 769b c43d 25bc 093e 94ff 3fbc
00000340: 5915 4abc 268f e3bc 9903 9bbc 832d 09bd
00000350: f43e b83c 12d2 47bd 13ce 963c 7f2c c9bc
00000360: 7b40 bfbb 3907 0cbd 18dc 533d e2d5 793c
00000370: 3fd4 183d f5cd cf3a be91 ea3b b991 f83c
00000380: 1ba2 13bc a85c 213c 3adf 8bbb 1954 713d
00000390: 94b3 57bc d194 aa3c 0cb6 123d 7ef0 633a
000003a0: 0cae 26bc 1b46 293d 4cd2 043c 1fa7 dcbc
000003b0: 3882 333d 01b2 2fbc 9a6a 6bbd 7bf0 143d
000003c0: e469 033d 8d9a de3c 266a 83bc 653d 82bc
000003d0: 838a a6bc 4c52 89bc 41ce 5d3c 5236 1bbd
000003e0: 7f3e 1fbd 1b0d 703b 4e16 b33c 292c 5f3a
000003f0: 20a8 e63c 37a1 0cbd 79e4 583b 73b8 bc3c
0.040084098 0.027338956 -0.0063553704 0.013233339 -0.04468056 -0.043498788 0.032510374 0.054670565
-0.008512953 -0.054826453 -0.031211797 -0.04770173 0.028149117 0.020828085 -0.014706882 0.044163577
-0.027179675 -0.021604992 -0.01600007 -0.042563856 0.024696577 0.025620503 -0.017768215 -0.03761086
0.026610646 0.01563007 -0.006580114 -0.022823319 0.030007774 0.046979185 0.035103925 -0.008579295
-0.019276014 0.015551086 -0.014100482 -0.011255394 0.039199933 -0.00022961201 0.007520372 0.022623977
0.08413029 -0.0100884475 -0.0074843676 -0.082022615 -0.019266037 0.0733808 -0.027234226 0.046220846
0.034627773 0.04997791 0.102245204 0.06370184 -0.041543353 0.071931355 -0.02810187 0.007618281
0.0031717585 0.03462485 -0.050555594 -0.023852952 0.04608107 0.0032710964 0.04843854 -0.0010002609
0.03460321 0.008766971 0.04428502 0.04184982 -0.029967498 0.034223944 0.029087568 -0.04018244
0.034812015 0.0075013535 -0.02814222 0.027973963 -0.039654274 -0.037354894 0.031730644 0.0146297775
-0.05382881 -0.018425357 0.07272579 -0.0763291 -0.022420254 0.044348862 0.05339856 0.0567961
-0.06070129 -0.0006761098 0.033290904 0.024133684 -0.01451497 -0.026723647 -0.07504311 -0.01968465
0.04173897 -0.044999637 -0.053264137 -0.02071015 -0.014171014 0.04311661 0.040308893 -0.021053296
-0.012778594 -0.005809519 0.012500576 0.05724832 0.010596968 -0.017474521 -0.0047742096 -0.0054609915
-0.006992985 0.01338938 -0.0011998757 -0.005623583 -0.017978797 -0.017811906 -0.01618153 -0.07446102
0.04727471 0.052917756 -0.04032149 -0.044725806 0.015941465 0.03337649 -0.002463673 -0.009506741
-0.02276244 0.05605903 0.03808775 -0.027477939 -0.0075086365 -0.039711583 -0.05319359 -0.02701923
-0.005843429 -0.023138383 -0.06286842 0.010577326 -0.010348366 -0.014765949 -0.015515485 -0.0009307155
0.034218702 0.026743572 -0.01997446 -0.017025642 0.021943746 -0.026930507 -0.035418183 0.022456314
-0.016695796 0.0018065248 0.011020019 0.016996255 0.007788087 -0.03004388 0.020518113 0.0216429
0.100552976 0.030236991 -0.018809158 0.06298096 -0.032308023 0.03165695 -0.051845368 -0.047195204
0.03487027 0.018811474 -0.06102459 -0.07821983 -0.027887372 0.048032112 0.023850778 -0.033102386
0.0843439 0.055608634 -0.063170604 0.117540315 -0.029240884 0.01662997 -0.057554014 -0.022176392
0.12463637 0.11198975 -0.035918526 -0.026483612 0.027674787 0.0555236 0.041408565 0.029133901
0.079008706 0.09331564 0.009268065 0.12007792 -0.03392397 0.06321119 -0.12363761 -0.10084997
0.05219683 0.13607568 -0.08822922 -0.06696767 0.087821506 0.09599964 0.13450678 -0.011718649
-0.012334191 -0.02777822 -0.018922614 -0.03349067 0.022490956 -0.048784323 0.01840881 -0.02455735
-0.005836544 -0.034186576 0.05172357 0.015248748 0.03731179 0.0015854227 0.007158487 0.030342923
-0.009010817 0.009848751 -0.004268554 0.058918092 -0.013165373 0.020822914 0.035818145 0.0008695199
-0.010173332 0.041326623 0.008106779 -0.026935158 0.04382536 -0.010723592 -0.05747471 0.036362153
0.032083407 0.027173305 -0.016041826 -0.015898416 -0.02032972 -0.016762875 0.013537944 -0.0378936
-0.03887796 0.0036628905 0.021861222 0.0008513355 0.02815634 -0.034333434 0.0033095165 0.023037171

sequential_5/bidirectional_4/forward_lstm_4/Read_2/ReadVariableOp f4 [24]
00000000: 966c 0f3e 63e2 163e 8167 183e 7978 2e3e
00000010: 508d 393e adbd 2a3e f4c2 933f 20aa 943f
00000020: 3579 933f 1fb5 963f 41f7 9a3f 8460 993f
00000030: 6416 a23a 58f6 f23a 5e50 8bbb d3ee aa3b
00000040: cb82 2d3c 8d50 1c3d 3a0c 4b3e b1f3 613e
00000050: d15f 6d3e c156 5f3e 4aab 673e a349 633e
0.14006266 0.14734797 0.14883234 0.17038144 0.18120313 0.16673918 1.154387 1.1614418
1.1521364 1.1774024 1.2106706 1.1982579 0.0012366292 0.0018536551 -0.004251524 0.0052164583
0.0105902655 0.038162757 0.19828883 0.22065617 0.23181082 0.21810438 0.22623935 0.22196059

sequential_5/bidirectional_4/backward_lstm_4/Read_2/ReadVariableOp f4 [24]
00000000: fbc9 163e 0aee 0f3e 7eae 1f3e c7f8 2a3e
00000010: 6ec1 0e3e 3669 113e 2c8b 933f aa98 923f
00000020: f395 943f 4ef1 943f 462e 923f 8d9d 923f
00000030: 0425 84bc 2198 8d3c 64af 4a3c 8187 73bd
00000040: 6e3c 4f3c 6918 f43b 72a2 813e 0ccc 753e
00000050: eb7c 793e 9f0e 7b3e 5918 6b3e 3c53 6d3e
0.14725487 0.14055648 0.15593907 0.16696464 0.13940975 0.14200291 1.1526847 1.1452839
1.1608261 1.163614 1.1420372 1.1454331 -0.016130932 0.017284455 0.012370918 -0.0594554
0.012648685 0.007449199 0.25319248 0.24003619 0.24364059 0.24517296 0.22958507 0.23176283

sequential_5/bidirectional_3/forward_lstm_3/Read_2/ReadVariableOp f4 [96]
00000000: 47f2 b13c 9d54 973c e645 e33c 8dd7 db3c
00000010: 780e e13c a0e5 343c 80d8 253d 4631 ba3c
00000020: c32e 363c 7314 193d 6886 643d a77b 0c3d
00000030: 512d fb3c 4a2a 2b3c bc95 b13c c0d6 913c
00000040: da94 ae3d 253d f03c 4e66 083d 8746 2c3d
00000050: c417 dd3c b44d 2c3d 7e40 173b 462f 243d
00000060: 1f19 833f c382 823f 00a6 833f 9ed8 833f
00000070: 86f9 833f 8885 823f f500 863f af50 833f
00000080: 1a71 813f b5a2 853f b5d5 873f 6e70 853f
00000090: e290 833f 147c 813f 56d0 823f 6276 823f
000000a0: 77dc 8b3f 61c3 843f 7080 843f 9a7c 863f
000000b0: 98cc 833f 3793 863f 421a 813f c485 853f
000000c0: 1c2e ac3b 9b90 06bd e052 79bb d4b5 a4bb
000000d0: fb76 0c3c c334 40bc 26b6 123c 1996 11bc
000000e0: 94af 503b d993 8cbb 340d e2bb f6b4 b0bb
000000f0: 60ac 7c3c 8c6c 35bc 35ab 483c 2cd2 91bc
00000100: 9196 1bbc cc17 293c 8d13 96bc c31d c33a
00000110: 1c1d 1a3c 32ee a0ba caee 8dbc 6392 5e3c
00000120: 8f83 ba3c 4132 993c 1876 e73c c96f f23c
00000130: b117 f63c c445 763c ef78 293d 171c bf3c
00000140: f1fa 2f3c 837e 2f3d 23e1 723d 2a31 123d
00000150: 95f5 f83c c4ea 2b3c 5aa0 b73c 1b0a 9a3c
00000160: 5735 bd3d e8dc 023d e376 103d c8ee 453d
00000170: 28a4 e33c 520d 3e3d 09a6 273b fc00 2e3d
0.021721972 0.018472964 0.027743291 0.026836181 0.02747272 0.011041075 0.040489674 0.022728574
0.011119547 0.037373018 0.055792242 0.03429761 0.030661257 0.010447094 0.021677844 0.017802596
0.08524485 0.029326031 0.03330069 0.042059448 0.026988871 0.04206629 0.0023079212 0.040084146
1.0242041 1.0196155 1.0285034 1.0300481 1.0310524 1.0197 1.0469042 1.0258998
1.0112641 1.0440279 1.0612093 1.0424936 1.027859 1.0115991 1.0219829 1.0192378
1.0926656 1.0372125 1.0351696 1.0506775 1.0296812 1.0513676 1.0086138 1.0431447
0.00525452 -0.03285275 -0.0038043782 -0.0050265584 0.008573289 -0.011731329 0.00895456 -0.008885884
0.0031842934 -0.0042900858 -0.0068985466 -0.005392666 0.015421957 -0.011073243 0.01224785 -0.017800413
-0.009496347 0.010320615 -0.01831987 0.0014886189 0.009406354 -0.0012278019 -0.017325778 0.013584706
0.02276781 0.01870072 0.028254554 0.029594319 0.030040594 0.015031282 0.041375097 0.023328824
0.010740981 0.04284526 0.05929674 0.035691418 0.03039054 0.010492984 0.022415329 0.018803647
0.092386894 0.031948954 0.03526963 0.048323423 0.027788237 0.046399422 0.0025581142 0.042481408

sequential_5/bidirectional_3/backward_lstm_3/Read_2/ReadVariableOp f4 [96]
00000000: d175 013d 19fb 303d b06a d63c 9e8b e03c
00000010: 0634 153d b15e c43d d8f3 1c3d 5d82 563d
00000020: 5e55 aabb c481 2b3d 90e1 323d fe72 103d
00000030: bd04 033c 85f0 6a3d 3d3a 203c f3e2 323d
00000040: 81f0 5e3d 9353 4a3d fce2 333d 8fc5 5e3d
00000050: 1d77 a23d be59 f63c 743f 743d 8705 2b3d
00000060: 8c68 843f 42ec 863f df61 833f 65ea 833f
00000070: 1130 853f bd12 8e3f 43e0 843f 95b1 863f
00000080: 325f 7e3f a7b4 853f e888 853f e481 843f
00000090: ec00 813f d159 873f dda0 813f 5fbe 853f
000000a0: c453 873f be9a 863f 6bac 853f 551b 873f
000000b0: e634 8a3f 11dc 843f 74e6 873f 17b0 853f
000000c0: 022a 97bb 5992 05bc 8c1c 93b9 dddd bdbb
000000d0: 5ffe 49bb e223 3d38 19ad c9ba 90ba 50bb
000000e0: 2cd3 50bc 5aff c23a 52ed 0f39 34e4 6dba
000000f0: d591 c63a 5699 6f39 ec86 493b 1ab7 94b9
00000100: 24c9 9bbb c41f 64bb c158 9239 7441 34ba
00000110: da15 34b9 3678 9bbb 3c25 4c3a 9cc2 50ba
00000120: 9a5a 1e3d 1540 973d 1ff3 153d 6f73 113d
00000130: 9bea 633d bee9 013e 2cae 2a3d 951b 803d
00000140: 4a46 adbb dd3c 4a3d 9807 463d 299a 423d
00000150: c702 9a3c be42 753d 7c34 243c 3d75 4b3d
00000160: d892 9a3d 7902 7c3d 21c2 7a3d 901e 823d
00000170: 17a2 b23d 64d2 103d e308 983d 19b2 773d
0.0316065 0.043208215 0.02617392 0.027410325 0.036426567 0.095883735 0.038318485 0.052370418
-0.005198165 0.0418718 0.043672144 0.035265915 0.007996735 0.057358284 0.00977951 0.043673467
0.05442858 0.04939611 0.04391764 0.054387625 0.07932875 0.03007209 0.059630826 0.04175332
1.0344405 1.054085 1.0264243 1.0305907 1.0405294 1.1099468 1.0380939 1.0522944
0.99364007 1.0445756 1.0432405 1.035214 1.0078406 1.0574285 1.0127217 1.0448722
1.0572438 1.0515974 1.0443243 1.0555216 1.0797393 1.0379659 1.0617204 1.0444363
-0.004613162 -0.008152568 -0.00028059294 -0.0057942704 -0.0030821783 4.509453e-05 -0.001538667 -0.0031849481
-0.01274566 0.0014877126 0.00013725951 -0.00090748374 0.0015149663 0.00022849938 0.0030750586 -0.0002836518
-0.0047542024 -0.0034808973 0.00027913417 -0.00068762084 -0.00017174278 -0.004744555 0.0007787531 -0.00079635694
0.038660623 0.073852696 0.03660881 0.035510477 0.05564366 0.12686822 0.04167001 0.06255261
-0.00528792 0.04937445 0.048347086 0.0475103 0.018800152 0.059878103 0.010022279 0.049672354
0.075475395 0.061525796 0.061220292 0.063534856 0.087223224 0.035356894 0.0742357 0.06047258

sequential_5/dense_10/MatMul f4 [1, 12]
00000000: 125f 493f 52c7 a73e 177f 01bf 7928 bfbe
00000010: 5ecb 8dbe 447a 1abf 4227 1fbf eeba 3c3f
00000020: 88a3 5e3f ee8f d7be e9f4 00bf d604 f0be
0.7866069 0.32769257 -0.5058455 -0.37335566 -0.2769422 -0.6034281 -0.6216928 0.7372273
0.8696828 -0.42101997 -0.50373703 -0.4687869

sequential_5/bidirectional_3/backward_lstm_3/Read_2/ReadVariableOp1 f4 [96]
00000000: d175 013d 19fb 303d b06a d63c 9e8b e03c
00000010: 0634 153d b15e c43d d8f3 1c3d 5d82 563d
00000020: 5e55 aabb c481 2b3d 90e1 323d fe72 103d
00000030: bd04 033c 85f0 6a3d 3d3a 203c f3e2 323d
00000040: 81f0 5e3d 9353 4a3d fce2 333d 8fc5 5e3d
00000050: 1d77 a23d be59 f63c 743f 743d 8705 2b3d
00000060: 8c68 843f 42ec 863f df61 833f 65ea 833f
00000070: 1130 853f bd12 8e3f 43e0 843f 95b1 863f
00000080: 325f 7e3f a7b4 853f e888 853f e481 843f
00000090: ec00 813f d159 873f dda0 813f 5fbe 853f
000000a0: c453 873f be9a 863f 6bac 853f 551b 873f
000000b0: e634 8a3f 11dc 843f 74e6 873f 17b0 853f
000000c0: 022a 97bb 5992 05bc 8c1c 93b9 dddd bdbb
000000d0: 5ffe 49bb e223 3d38 19ad c9ba 90ba 50bb
000000e0: 2cd3 50bc 5aff c23a 52ed 0f39 34e4 6dba
000000f0: d591 c63a 5699 6f39 ec86 493b 1ab7 94b9
00000100: 24c9 9bbb c41f 64bb c158 9239 7441 34ba
00000110: da15 34b9 3678 9bbb 3c25 4c3a 9cc2 50ba
00000120: 9a5a 1e3d 1540 973d 1ff3 153d 6f73 113d
00000130: 9bea 633d bee9 013e 2cae 2a3d 951b 803d
00000140: 4a46 adbb dd3c 4a3d 9807 463d 299a 423d
00000150: c702 9a3c be42 753d 7c34 243c 3d75 4b3d
00000160: d892 9a3d 7902 7c3d 21c2 7a3d 901e 823d
00000170: 17a2 b23d 64d2 103d e308 983d 19b2 773d
0.0316065 0.043208215 0.02617392 0.027410325 0.036426567 0.095883735 0.038318485 0.052370418
-0.005198165 0.0418718 0.043672144 0.035265915 0.007996735 0.057358284 0.00977951 0.043673467
0.05442858 0.04939611 0.04391764 0.054387625 0.07932875 0.03007209 0.059630826 0.04175332
1.0344405 1.054085 1.0264243 1.0305907 1.0405294 1.1099468 1.0380939 1.0522944
0.99364007 1.0445756 1.0432405 1.035214 1.0078406 1.0574285 1.0127217 1.0448722
1.0572438 1.0515974 1.0443243 1.0555216 1.0797393 1.0379659 1.0617204 1.0444363
-0.004613162 -0.008152568 -0.00028059294 -0.0057942704 -0.0030821783 4.509453e-05 -0.001538667 -0.0031849481
-0.01274566 0.0014877126 0.00013725951 -0.00090748374 0.0015149663 0.00022849938 0.0030750586 -0.0002836518
-0.0047542024 -0.0034808973 0.00027913417 -0.00068762084 -0.00017174278 -0.004744555 0.0007787531 -0.00079635694
0.038660623 0.073852696 0.03660881 0.035510477 0.05564366 0.12686822 0.04167001 0.06255261
-0.00528792 0.04937445 0.048347086 0.0475103 0.018800152 0.059878103 0.010022279 0.049672354
0.075475395 0.061525796 0.061220292 0.063534856 0.087223224 0.035356894 0.0742357 0.06047258

while/MatMul_11 f4 [96, 24]
00000000: 1250 75bd f8a9 2cbd fc45 09be 26cd 2cbe
00000010: b83a d4bd f574 9fbd 6c2d 47bc e208 143c
00000020: 95ab 27be b51e da3d 60cb 8b3b 3f6f 1abe
00000030: f35e 173d 8507 303e cb59 503d d144 1e3e
00000040: b828 98bc 160b 69bd 615e 1e3e 3893 51be
00000050: 1e43 a7be ea75 023e f4fa 343e 68d0 343d
00000060: 254b 823e 1fb1 4dbe d304 b6bd 41bd 9dbe
00000070: adad 453c fbaa b83d 10b6 7e3e 7590 ca3d
00000080: df70 edbc 8b88 76be 1b1a 9dbd e1ed 0d3e
00000090: 8292 87bc 2827 c5bd 298e 44bd 5034 82bd
000000a0: f37e 46be 9ec8 8d3e f860 a5be 4e2b 2a3e
000000b0: b7d9 693e 7cc2 54be 4891 06be 78b0 08be
000000c0: b938 913d 136d 12be eebb b93d dafd 2abe
000000d0: ca00 8ebd 8340 bdbc 85a5 943d ee82 23be
000000e0: 4993 89bd bbc1 bebd 706a d13a 3262 363d
000000f0: b646 9d3d 918c 9fbd 7b9a 4ebe e56f 14be
00000100: 2868 14be b95c b3bd d95d b5bd 61f6 bc3d
00000110: d3f4 d2bd b2d0 bfbd fd20 abbc e08f 483d
00000120: d154 e43d cdb4 88be ea72 fcbd 6cf2 6abd
00000130: 3495 f83c 6268 443e f7b2 1f3e ad2e aebe
00000140: 4440 f2bd 37ff f3bd a431 043c 5cb1 9f3d
00000150: 13cb b0bd 0219 28be 40c0 db3d f886 82bd
00000160: 5956 9ebc 5bd0 933d 77fb 95bd 3f57 d1bd
00000170: b61d 5c3d 52bb 8ebe c583 bebc e05d f9bd
00000180: 5bba 01bd 488c ee3c a2bf 013e 7ed8 593b
00000190: 8e5c 883d bba3 f1bd 72ba 8d3d 20c0 d03d
000001a0: c299 2bbd 39fe 953e 62ee e7bd ef5c 8bbd
000001b0: f4be 093e 0e90 c93c 2394 a53c 8ef9 3f3e
000001c0: 7f35 0c3e 25b2 fcbd a186 563e 3585 1dbe
000001d0: 85e6 e3bd df50 953d 0671 873c ee53 153e
000001e0: 7ff6 de3d a3a7 acbd 98d0 19be 2939 50be
000001f0: 218f 263e 5de6 1fbd e82e 5fbd 3de1 57be
00000200: a4c3 80bc 95cf 65be 41ab 07be 1f21 1e3e
00000210: 93e4 febd 2b88 38bd a5f1 193d 7311 c43d
00000220: 553d 5abd ff13 133e 20d7 40be 7080 753e
00000230: 9e50 2a3d dbb2 8bbd b500 16be 71d3 edbd
00000240: 598d 02bd 15b6 14be fcc0 4b3e e77c 07be
00000250: 6629 b5bd ad6e f63d 2d91 40be 7df5 253e
00000260: 4e46 d0bc 8edc 8e3b 7935 d63c 4cff 563d
00000270: 963b 8ebd cc10 1b3e 8ac8 4bbd c7e9 9a3d
00000280: 715d edbd b3c6 8e3d bb25 2a3e 727a 673d
00000290: c8ec 2bbe 8563 123e 6fbf 5b3d 13ae cb3d
000002a0: ff4d 3e3e c4ee aabd bc45 77bd fe82 aebc
000002b0: c0fd 2e3d 71ea dc3d 693c 203b e501 01be
000002c0: ac55 dfbd 6ee8 953d e282 893e 865f cfbc
000002d0: d86c a43d 4d34 a03d 8956 d13d 61ae 0abd
000002e0: 5d80 6bbd f317 153c 5c7a 22be 55ae d23d
000002f0: 9388 0ebe 9e25 3cbd 4f3a 14bd 15e2 43bd
00000300: 7d8d b43d 0f49 d5bd 7c8b b8bd d2cb 19be
00000310: 1787 8b3c b48b 5c3d 4d5a f1bd 90b8 85bb
00000320: 4412 fdb9 652a f33d e3d1 5abd 6bd3 0cbd
00000330: 0c6e fd3d 79b1 febc d218 523e fa0a 8f3d
00000340: 6067 383d 4da5 6b3d 0b9b a03d 1fa8 17be
00000350: 9183 b63d d444 cf3c 9952 62bc 7437 1dbe
00000360: 7b2a b1bd 8d09 dbbd d1a9 1fbd 9c04 4cbe
00000370: c150 0bbe 9060 45bd 7576 b8bd 49b5 f6bd
00000380: 3806 b13d f338 81bd 9f5d d23d c11c 4abd
00000390: 8da4 503d 6a4c 853e d87f 313d 02ff 973c
000003a0: 375a db3d 951d 05bd ff69 093e 6221 893d
000003b0: e7c4 bcbd 81e2 15be d961 83bd 5d07 0b3e
000003c0: e9b0 143d ef8c 03be 301e 7dbd e3bd a5bd
000003d0: d0cc 09be 74ce 213e 4f98 1cbe 980d 4d3d
000003e0: 6da1 27be 4b53 8e3c c75f 8ebd 8162 783c
000003f0: 4e2b 75bd 9548 9e3d 7237 373e 2904 7b3c
-0.059890814 -0.042154282 -0.13405603 -0.16875133 -0.10362762 -0.0778598 -0.0121568255 0.009035321
-0.16374047 0.10650388 0.0042661875 -0.150815 0.036955785 0.17190368 0.050866883 0.15455939
-0.018574104 -0.056895338 0.1546569 -0.20466316 -0.32668394 0.12740293 0.17673856 0.044144064
0.25447956 -0.20087098 -0.08887639 -0.30808452 0.012065333 0.09016987 0.24874139 0.09890834
-0.028984485 -0.24075525 -0.07670995 0.13860275 -0.016549353 -0.09626609 -0.047987137 -0.06357634
-0.19384365 0.2769212 -0.32300544 0.16618082 0.22836958 -0.20777315 -0.13141358 -0.13348567
0.07090897 -0.14299421 0.09069048 -0.16698399 -0.06933744 -0.02310205 0.07258133 -0.15967914
-0.067175455 -0.09314295 0.0015977155 0.04452724 0.07679503 -0.07790483 -0.20176117 -0.1449581
-0.14492857 -0.0875792 -0.08855791 0.092266805 -0.10300603 -0.09365977 -0.020889753 0.048965335
0.1114899 -0.2670044 -0.123266056 -0.057360098 0.030344583 0.19180444 0.15595613 -0.34019986
-0.11828664 -0.11913913 0.008068476 0.077975005 -0.08632483 -0.1641579 0.10730028 -0.063733995
-0.019328283 0.07217475 -0.07323354 -0.10221719 0.053739272 -0.2787729 -0.023256192 -0.12176108
-0.031671863 0.029119626 0.12670758 0.0033240612 0.066582784 -0.11798807 0.06920327 0.10192895
-0.04189468 0.2929552 -0.11324765 -0.06804835 0.13451749 0.024604823 0.020212239 0.18747541
0.13692282 -0.12338666 0.20949794 -0.15382846 -0.111279525 0.072908156 0.016533386 0.14582798
0.10886859 -0.08430412 -0.15020978 -0.20334305 0.16265537 -0.03903805 -0.054488093 -0.21082015
-0.015718289 -0.22442468 -0.13248922 0.15442322 -0.12445941 -0.045051735 0.037583966 0.09573641
-0.053281147 0.14363097 -0.18832064 0.23974776 0.04158079 -0.06821223 -0.14648707 -0.11612595
-0.03187308 -0.14522584 0.19897836 -0.1323124 -0.08845787 0.120328285 -0.1880538 0.16206928
-0.025424149 0.0043597883 0.026148545 0.052489564 -0.06944959 0.15143126 -0.049751796 0.07564121
-0.11590088 0.069714926 0.16615956 0.056513257 -0.16789544 0.14295776 0.053649362 0.099453114
0.1858444 -0.08346322 -0.06036924 -0.021302696 0.042722464 0.10786904 0.002445007 -0.12598379
-0.109050125 0.07319723 0.26857668 -0.025314104 0.08028573 0.078224756 0.102215834 -0.033857707
-0.057495464 0.009099948 -0.15866989 0.102871574 -0.13919286 -0.045934312 -0.03618842 -0.04782303
0.08816049 -0.104143254 -0.090109795 -0.15019158 0.01703219 0.05384417 -0.11784802 -0.0040808395
-0.0004826953 0.118733205 -0.05342282 -0.03438131 0.123745054 -0.031090485 0.2051728 0.069845155
0.04502046 0.05753069 0.07842072 -0.14810227 0.08911813 0.025301374 -0.013813638 -0.15353185
-0.08650681 -0.10695181 -0.03898031 -0.19923633 -0.13605024 -0.048187792 -0.09006969 -0.12046296
0.08643764 -0.0630969 0.10271763 -0.049343828 0.050938178 0.26034862 0.043334812 0.018554214
0.107105665 -0.032498915 0.1341934 0.066958204 -0.09217244 -0.14637186 -0.06415147 0.13577028
0.036301527 -0.1284673 -0.061796367 -0.08092859 -0.13457036 0.15801412 -0.15292476 0.050061792
-0.16370173 0.017373702 -0.06951862 0.015160204 -0.05985575 0.07728688 0.17892244 0.015320816

while/MatMul f4 [96, 16]
00000000: 0833 1d37 7d7a abb8 006d c937 3c56 ff37
00000010: 0ae3 1d38 263c 43b8 2622 65b8 6283 b938
00000020: 8118 9538 9007 1938 b0db 2c37 a0a5 aab6
00000030: 1db5 adb8 e960 c238 16a2 0b38 0aed 92b8
00000040: 9625 c238 7d24 afb8 faf8 5db8 d031 1eb8
00000050: 8dbf a438 6409 a3b8 c545 a9b8 3499 7738
00000060: 382c 8fb8 5aa0 6f38 f928 8ab8 a046 d437
00000070: c283 3db8 aff0 bdb8 00f1 2bb8 602f 6b36
00000080: a463 d738 d93f 9938 847f 10b8 8040 edb7
00000090: 8c35 6b38 c95e c538 82db 8ab8 5173 8338
000000a0: 108c fb36 9224 8b38 1f1c 97b8 b144 91b8
000000b0: 1814 a238 6440 beb7 e843 d9b7 ddbe 8cb8
000000c0: 9050 a037 b2c6 8938 4004 14b8 e2bc 1cb8
000000d0: 1839 e8b7 dc8c 33b8 2786 ae38 587f 4337
000000e0: fc0f 2cb8 d91b a738 be4c 43b8 f0c6 dbb6
000000f0: e002 85b6 402b 95b8 b97e 91b8 3abd 2838
00000100: 08ea ef37 af13 a638 ec12 4db8 72f2 8cb8
00000110: f835 b3b8 ec16 9db7 8cce c238 b016 6b37
00000120: c878 0537 f082 af38 0850 43b7 c80f 51b8
00000130: 449a 7cb8 ccd5 da37 35eb c2b8 ad42 80b8
00000140: f6ec ceb8 03ef 8a38 0655 43b8 4dbf d1b8
00000150: a4da ce38 aa00 a2b8 cab2 b438 ca77 3838
00000160: b421 b837 58bf 72b8 0ed2 b938 70e3 3438
00000170: 70d6 8137 0037 d0b7 1405 3ab8 a1bc ad38
00000180: 99a6 b738 4457 83b8 247a 8e38 68c0 21b7
00000190: 809b 8238 f7dd b1b8 8a0c 8238 a8e8 0f37
000001a0: 7349 a5b8 307c b7b7 3816 17b8 a00c 1037
000001b0: b0d7 7cb8 e80e 63b7 a010 71b8 f005 b6b8
000001c0: 0049 4db6 c8e4 9ab7 10f2 72b7 d251 0438
000001d0: d414 31b8 e7cb bb38 c0a6 8db7 f1d2 aab8
000001e0: e036 58b7 4c83 a3b8 8ec3 c5b8 108f 3538
000001f0: 32f7 7db8 c0e0 f735 76f8 33b8 987b 0b37
00000200: 564f 6d38 5a59 1738 dc55 ab38 cf19 cfb8
00000210: fce3 b3b8 2aa7 2238 3b72 8eb8 24e5 dab8
00000220: e642 9db8 fa14 7538 768a 9eb8 59e4 8038
00000230: d81a 8f38 f072 69b7 90e2 a1b6 0453 bd38
00000240: 2770 c738 e8ce 1c38 4483 c137 74c2 2c38
00000250: 4013 f8b5 cec0 5838 b1f9 9338 ba6b cab8
00000260: 05d2 a1b8 fd5f a3b8 f8ef 3d37 3070 0137
00000270: 2a25 2438 a284 6738 7d61 d1b8 76cb 54b8
00000280: 3467 b937 38aa 1237 dc3c b0b7 169f 3838
00000290: e8c0 a0b7 5270 58b8 f81a 82b7 6e3a 33b8
000002a0: 97ac a4b8 4628 1738 6425 b1b7 d864 f0b7
000002b0: 5298 d838 00da b134 8886 7fb7 fb85 a0b8
000002c0: 10c9 2c38 2897 5138 e853 f7b7 dbc5 8eb8
000002d0: 0cd8 9ab8 687d 71b8 19f9 b638 547d ba37
000002e0: 4808 b637 0320 ddb8 9805 d437 480c 69b7
000002f0: 90c1 8137 0add 68b8 3062 c3b6 2ec9 7c38
00000300: a083 8636 1be5 87b8 403a e135 0aef 5938
00000310: 1c29 84b7 d09e 6c38 5cc7 c0b7 10b7 db36
00000320: 786a 9f37 9865 3638 8012 3b35 e44b e5b7
00000330: 857f ad38 b044 8038 252f 9cb8 345f 19b8
00000340: 40ba cb35 e3a6 9138 5c91 3a38 204b 5137
00000350: cded d1b8 bc82 29b8 ec23 8e37 6500 a438
00000360: 82fd 9a38 c617 7cb8 92e7 0538 5450 e9b7
00000370: 6803 c138 3821 b4b8 6601 0fb8 506e de37
00000380: ecae c438 6448 5338 7aac 9938 a8c2 32b8
00000390: cfd2 ce38 2256 5db8 708f 83b8 ea8b 8838
000003a0: 4e4b c438 f673 4eb8 543f d238 8ec6 b638
000003b0: 58e6 8ab8 3dc3 b6b8 f43e 5cb8 9ea5 4838
000003c0: 707e 0b37 141f 58b8 4cd2 a5b7 e27d 0a38
000003d0: 3073 c6b7 74ce 09b8 d05c f236 c865 e337
000003e0: ec88 f937 40b9 9437 90c8 d937 9be5 e3b8
000003f0: e0a2 79b7 9582 9d38 21d8 9338 c514 98b8
9.369811e-06 -8.1767306e-05 2.4011824e-05 3.0438525e-05 3.7643164e-05 -4.654764e-05 -5.4629658e-05 8.8459594e-05
7.109438e-05 3.6485086e-05 1.0303149e-05 -5.085676e-06 -8.283018e-05 9.268692e-05 3.3291137e-05 -7.0059745e-05
9.257642e-05 -8.351447e-05 -5.2922383e-05 -3.7716527e-05 7.8558085e-05 -7.774195e-05 -8.0715436e-05 5.903207e-05
-6.827008e-05 5.713138e-05 -6.5879845e-05 2.5305257e-05 -4.518382e-05 -9.057053e-05 -4.0994026e-05 3.5045305e-06
0.000102705584 7.307501e-05 -3.4451034e-05 -2.8282637e-05 5.6078236e-05 9.411347e-05 -6.621239e-05 6.268046e-05
7.4966883e-06 6.634848e-05 -7.205479e-05 -6.9269336e-05 7.728505e-05 -2.267975e-05 -2.5900037e-05 -6.711271e-05
1.9111001e-05 6.569679e-05 -3.5289908e-05 -3.736921e-05 -2.7683142e-05 -4.280811e-05 8.3219544e-05 1.1652555e-05
-4.1022882e-05 7.9683676e-05 -4.6563095e-05 -6.549868e-06 -3.9640436e-06 -7.1129296e-05 -6.937743e-05 4.0230552e-05
2.86e-05 7.919163e-05 -4.889343e-05 -6.720879e-05 -8.5454376e-05 -1.8726532e-05 9.289113e-05 1.4012374e-05
7.955539e-06 8.369039e-05 -1.16415395e-05 -4.984418e-05 -6.0225153e-05 2.6087182e-05 -9.2944516e-05 -6.115935e-05
-9.866983e-05 6.624872e-05 -4.6570807e-05 -0.00010001529 9.8635704e-05 -7.724886e-05 8.616371e-05 4.398058e-05
2.1950204e-05 -5.78755e-05 8.860613e-05 4.3127162e-05 1.5477854e-05 -2.4821144e-05 -4.4350585e-05 8.284418e-05
8.757151e-05 -6.262821e-05 6.793838e-05 -9.641146e-06 6.227847e-05 -8.481362e-05 6.201219e-05 8.577634e-06
-7.881494e-05 -2.187313e-05 -3.60219e-05 8.586008e-06 -6.0282357e-05 -1.3533725e-05 -5.747436e-05 -8.679542e-05
-3.0589872e-06 -1.8464765e-05 -1.4480684e-05 3.1547454e-05 -4.2219486e-05 8.9548346e-05 -1.6886159e-05 -8.1455226e-05
-1.288738e-05 -7.7969016e-05 -9.430117e-05 4.3287e-05 -6.055012e-05 1.8468345e-06 -4.2908323e-05 8.313822e-06
5.657909e-05 3.608442e-05 8.169908e-05 -9.8753364e-05 -8.5778505e-05 3.8779493e-05 -6.792365e-05 -0.00010437731
-7.498804e-05 5.8432088e-05 -7.5598175e-05 6.146049e-05 6.8237714e-05 -1.3914643e-05 -4.8245493e-06 9.027685e-05
9.5099495e-05 3.7385995e-05 2.3068518e-05 4.1189094e-05 -1.8483042e-06 5.1677976e-05 7.056015e-05 -9.652176e-05
-7.7161974e-05 -7.790325e-05 1.132115e-05 7.71512e-06 3.913526e-05 5.5198216e-05 -9.984055e-05 -5.0734227e-05
2.2101776e-05 8.74191e-06 -2.1009175e-05 4.401718e-05 -1.9163315e-05 -5.160302e-05 -1.5509766e-05 -4.2731343e-05
-7.852277e-05 3.6038713e-05 -2.1117456e-05 -2.8657189e-05 0.000103280545 3.3127435e-07 -1.5230507e-05 -7.65435e-05
4.119525e-05 4.997026e-05 -2.9483766e-05 -6.807941e-05 -7.383534e-05 -5.757567e-05 8.724834e-05 2.2231288e-05
2.1699947e-05 -0.00010544064 2.5274974e-05 -1.3890742e-05 1.5468133e-05 -5.551897e-05 -5.8228834e-06 6.0268845e-05
4.0088344e-06 -6.479976e-05 1.6780759e-06 5.1959454e-05 -1.575477e-05 5.641469e-05 -2.2981018e-05 6.54802e-06
1.9003855e-05 4.3486798e-05 6.968985e-07 -2.7334267e-05 8.273035e-05 6.11631e-05 -7.447441e-05 -3.6566707e-05
1.5178884e-06 6.945224e-05 4.4481232e-05 1.2474862e-05 -0.000100101905 -4.0414496e-05 1.6944447e-05 7.820203e-05
7.390512e-05 -6.0103623e-05 3.1925338e-05 -2.781317e-05 9.2035916e-05 -8.589256e-05 -3.409516e-05 2.651583e-05
9.37859e-05 5.037374e-05 7.327735e-05 -4.2619795e-05 9.8621116e-05 -5.2770723e-05 -6.273284e-05 6.5110464e-05
9.360035e-05 -4.9222224e-05 0.00010025376 8.71542e-05 -6.623258e-05 -8.714802e-05 -5.2510717e-05 4.783796e-05
8.314484e-06 -5.1527357e-05 -1.976746e-05 3.3019e-05 -2.3657078e-05 -3.285562e-05 7.222967e-06 2.7107904e-05
2.9746872e-05 1.7729239e-05 2.596181e-05 -0.00010866971 -1.4879479e-05 7.510666e-05 7.0497634e-05 -7.2517934e-05

sequential_5/bidirectional_3/forward_lstm_3/Read_2/ReadVariableOp1 f4 [96]
00000000: 47f2 b13c 9d54 973c e645 e33c 8dd7 db3c
00000010: 780e e13c a0e5 343c 80d8 253d 4631 ba3c
00000020: c32e 363c 7314 193d 6886 643d a77b 0c3d
00000030: 512d fb3c 4a2a 2b3c bc95 b13c c0d6 913c
00000040: da94 ae3d 253d f03c 4e66 083d 8746 2c3d
00000050: c417 dd3c b44d 2c3d 7e40 173b 462f 243d
00000060: 1f19 833f c382 823f 00a6 833f 9ed8 833f
00000070: 86f9 833f 8885 823f f500 863f af50 833f
00000080: 1a71 813f b5a2 853f b5d5 873f 6e70 853f
00000090: e290 833f 147c 813f 56d0 823f 6276 823f
000000a0: 77dc 8b3f 61c3 843f 7080 843f 9a7c 863f
000000b0: 98cc 833f 3793 863f 421a 813f c485 853f
000000c0: 1c2e ac3b 9b90 06bd e052 79bb d4b5 a4bb
000000d0: fb76 0c3c c334 40bc 26b6 123c 1996 11bc
000000e0: 94af 503b d993 8cbb 340d e2bb f6b4 b0bb
000000f0: 60ac 7c3c 8c6c 35bc 35ab 483c 2cd2 91bc
00000100: 9196 1bbc cc17 293c 8d13 96bc c31d c33a
00000110: 1c1d 1a3c 32ee a0ba caee 8dbc 6392 5e3c
00000120: 8f83 ba3c 4132 993c 1876 e73c c96f f23c
00000130: b117 f63c c445 763c ef78 293d 171c bf3c
00000140: f1fa 2f3c 837e 2f3d 23e1 723d 2a31 123d
00000150: 95f5 f83c c4ea 2b3c 5aa0 b73c 1b0a 9a3c
00000160: 5735 bd3d e8dc 023d e376 103d c8ee 453d
00000170: 28a4 e33c 520d 3e3d 09a6 273b fc00 2e3d
0.021721972 0.018472964 0.027743291 0.026836181 0.02747272 0.011041075 0.040489674 0.022728574
0.011119547 0.037373018 0.055792242 0.03429761 0.030661257 0.010447094 0.021677844 0.017802596
0.08524485 0.029326031 0.03330069 0.042059448 0.026988871 0.04206629 0.0023079212 0.040084146
1.0242041 1.0196155 1.0285034 1.0300481 1.0310524 1.0197 1.0469042 1.0258998
1.0112641 1.0440279 1.0612093 1.0424936 1.027859 1.0115991 1.0219829 1.0192378
1.0926656 1.0372125 1.0351696 1.0506775 1.0296812 1.0513676 1.0086138 1.0431447
0.00525452 -0.03285275 -0.0038043782 -0.0050265584 0.008573289 -0.011731329 0.00895456 -0.008885884
0.0031842934 -0.0042900858 -0.0068985466 -0.005392666 0.015421957 -0.011073243 0.01224785 -0.017800413
-0.009496347 0.010320615 -0.01831987 0.0014886189 0.009406354 -0.0012278019 -0.017325778 0.013584706
0.02276781 0.01870072 0.028254554 0.029594319 0.030040594 0.015031282 0.041375097 0.023328824
0.010740981 0.04284526 0.05929674 0.035691418 0.03039054 0.010492984 0.022415329 0.018803647
0.092386894 0.031948954 0.03526963 0.048323423 0.027788237 0.046399422 0.0025581142 0.042481408

while/MatMul_14 f4 [96, 24]
00000000: 4ed3 0ebe a30d 063e e852 b43c 9ca9 bf3d
00000010: a122 373d 1bb4 7e3e df16 7d3a 314d d83c
00000020: 8f20 92bd 90c9 47be 29a4 05bd 1ea2 ccbd
00000030: 365b 2b3d d2a4 b83d ad28 ec3d 53a6 343d
00000040: 7879 9d3d 367a fdbd c30f 20be 20f3 bbbd
00000050: 386e b13c b11c a0bd 1a91 c0bd 291b 7f3a
00000060: 6ccb c13d 012b 03bd bee8 babd 30b6 45bb
00000070: 47d8 59be f158 9f3d 2f6e 1b3d 8d60 853c
00000080: ecc6 123e 093d 34bc be9d 8f3d 3409 43be
00000090: a154 6bbe 9b2f 263c f5ff 903c c724 30bb
000000a0: 883b 25be a798 433d 3e11 e4bd c294 7f3e
000000b0: 25aa b9bd 5125 8cbc 8c26 943d 74a7 483d
000000c0: ecf3 733e 0391 183e bbae 1fbe ea2b 31be
000000d0: c2a8 be3d 9f90 183e c56e 413b b297 333d
000000e0: b4df bfbc ba8d 0c3d 53bb bdbd b6e0 893d
000000f0: 6d55 2bbd 561a 7fbd 0f7d a8bd 39a5 f73d
00000100: 6367 003e 1094 103e 8844 2ebe 8ec7 98bd
00000110: 13a5 113d c4ec f63d 18c7 2cbd 268b b4bd
00000120: 8c50 6a3d 2c75 08bd f2e7 bfbd c269 9f3d
00000130: baab 0ebe 28c9 94bc 4e01 d7ba 6469 b1bd
00000140: 6559 24be 3acf aabd 47cb 1ebd 801b 4fbd
00000150: 25cd ec3d 4fe1 84bd d862 6f3d e1da 103e
00000160: df00 3a3d 0f0d 263e 5481 2fbd 83ef 863d
00000170: 4cff 27be 8048 d53d 1aa2 2fbe 5355 da3c
00000180: de01 833b e70d 063e 3f11 413e 46a6 04be
00000190: d04e 3bbe f39f 343b d90a 013e 9573 08bd
000001a0: c9a0 27bd 00a5 a43d bb1b 723d f371 08be
000001b0: d3df 7b3c ce35 543e 535b cb3c d326 813c
000001c0: be5f 82bd 7612 983d e27e 53bd 4a7e 88bc
000001d0: 9585 49bd ba07 083e 65dd a1bd 219a 29be
000001e0: a427 e43d b150 5abe 95a7 b8bd b5d2 3b3e
000001f0: 9810 553e 7919 a63d 068a 703c 6b4c 12be
00000200: e1ed 29be 6f2b 0e3e e398 d03c e057 8e3d
00000210: 853e 333e c6c3 803d 0832 8a3d c7ab 7b3e
00000220: b49f acbd eb38 b63d 4f14 8d3d eb9e 3f3e
00000230: e514 fcbd 6a39 073d 8aa2 bfbc e817 8c3b
00000240: d909 8a3e 2cdc d6bd dec8 7a3d 2eb3 8d3d
00000250: 4435 073e 5a64 e13d 9fbe b6bb e4e6 643d
00000260: 8726 3e3d 8f51 b3bd c0b4 173e d79d 21bd
00000270: 3223 c13d 4574 033e bed2 f1bd e7eb 913d
00000280: fa00 f63d bca3 61bd 988b 6f3d d9e6 b9bd
00000290: 6d5a 903c 4f89 19bd 676b d03d dea5 90bd
000002a0: 5ae2 13bb 4db3 9bbc e130 0cbe 0eeb 993d
000002b0: 4648 b83d c274 8bbd 14ed e13d defc 1cbb
000002c0: 6de6 1bbc 95e5 7d3d 39aa cc3d d014 a03d
000002d0: 7bcd 133d 70af 93bd 03a6 66be e218 343d
000002e0: 79bb c5bc c250 15bd 3b7b 353d 54f5 e1bd
000002f0: c777 013e b2a9 fd3c 0e4a 2c3e ace2 cf3d
00000300: 125f c4bd 274f cdba c3d4 593d 82f8 2fbe
00000310: ca80 153e e993 36bd 116b 9dbd 0e42 1abe
00000320: 05a1 b7bd 6ae3 1ebe c41f 99bd 1044 fb3d
00000330: 4656 3d3d 5ef5 c33d a905 673d df9a e13b
00000340: 9ede 2c3e 9da5 803d 57af 62be fbde 8e3d
00000350: ded8 33bd 3fff e03d 947f c03c 1839 c3bc
00000360: c278 b2bd 8894 dd3b d680 343d 06e6 993c
00000370: 47c4 0abe 1b07 0ebd c269 213e 8235 dbbd
00000380: 509e d2bd 7349 20bd 6328 74bd d18e 913d
00000390: 123f 073c 4139 66bc cbff 12be c1e8 bbbd
000003a0: ffdf 113e 1dd7 40be 02f9 373e e2e8 80bd
000003b0: 8965 f5bd 9c6c b53d 64af e9bc 4e77 323e
000003c0: 1678 52bb 59f1 20bc 7c0d 2b3e 55eb ff3d
000003d0: d5ff 3dbd 7781 8a3e 2ab3 64bd 6042 4ebd
000003e0: 6fbe 01be 9a26 47bd b3c8 3ebd 63d7 a2bd
000003f0: 9f0e 2b3d 2b4d 19be 1de5 c9bd 105d 57be
-0.13947794 0.1309114 0.022012189 0.09358522 0.04471076 0.24873392 0.0009654592 0.026403995
-0.07135116 -0.19510484 -0.03262726 -0.09991859 0.041835032 0.09015812 0.11531196 0.04410393
0.07689184 -0.123768255 -0.15631013 -0.09177232 0.021659002 -0.078179725 -0.09402676 0.0009731525
0.09462628 -0.032023434 -0.09126423 -0.0030168407 -0.2127391 0.07780636 0.037946876 0.01628139
0.14333695 -0.01100088 0.07012509 -0.1904648 -0.22981502 0.010143186 0.017700175 -0.002687739
-0.1613599 0.047753002 -0.11136101 0.2495909 -0.090656556 -0.017107638 0.07233915 0.04898782
0.23823518 0.14899068 -0.15593998 -0.17301908 0.09309532 0.14898919 0.0029515487 0.04384584
-0.0234221 0.03431485 -0.09264245 0.06732313 -0.041829515 -0.062280975 -0.08226978 0.120920606
0.12539439 0.14118981 -0.1701833 -0.07459937 0.035557818 0.12056878 -0.042182058 -0.08815603
0.05720572 -0.03331487 -0.09370412 0.077838436 -0.13932696 -0.018162325 -0.0016403587 -0.0866268
-0.16049726 -0.083403066 -0.03876808 -0.050563335 0.11562566 -0.06488287 0.058443874 0.14145996
0.045410987 0.16215919 -0.042847946 0.06588652 -0.16405982 0.10414219 -0.1715168 0.026652014
0.0039980253 0.13091241 0.18854235 -0.12954053 -0.18291783 0.0027561157 0.12601794 -0.033313353
-0.04092482 0.08039284 0.059108477 -0.13324718 0.015373188 0.2072365 0.02482382 0.015765583
-0.063659176 0.07425396 -0.051634677 -0.016661782 -0.04919966 0.13284197 -0.07903556 -0.16562702
0.11140373 -0.21319844 -0.09016339 0.18342097 0.20807111 0.08110327 0.014681345 -0.14286964
-0.1659465 0.13883756 0.025463527 0.069503546 0.17504318 0.06287341 0.06747824 0.24577247
-0.084288985 0.08897575 0.06888639 0.18712966 -0.12308673 0.03301374 -0.023392934 0.004275311
0.26960638 -0.10491213 0.061226718 0.069189414 0.13203913 0.11005469 -0.005576923 0.055884257
0.04642346 -0.087557904 0.14815044 -0.03945717 0.09430541 0.12837322 -0.11807774 0.07125073
0.12011905 -0.05508779 0.058482736 -0.09077234 0.017621243 -0.037484463 0.10176735 -0.07062887
-0.0022565336 -0.019006396 -0.13690521 0.07515536 0.0899816 -0.06809379 0.11031547 -0.0023954432
-0.009515387 0.061986525 0.09993405 0.0781647 0.036084633 -0.072111964 -0.22524266 0.043969043
-0.024137245 -0.03645397 0.044306975 -0.11033121 0.12643348 0.030964706 0.16825125 0.10150656
-0.09588446 -0.0015663848 0.05318142 -0.17184642 0.1459991 -0.044574652 -0.07686437 -0.1506426
-0.08966259 -0.15516439 -0.07476762 0.12268841 0.046224855 0.095682845 0.056401882 0.006884917
0.16881797 0.06281588 -0.221372 0.06976124 -0.043907993 0.10986184 0.023498334 -0.023830935
-0.08714439 0.006762091 0.04406818 0.018786442 -0.13551436 -0.034674745 0.15763 -0.10703565
-0.10284102 -0.039132547 -0.05960883 0.07107318 0.008254783 -0.014051736 -0.1435539 -0.09175254
0.14245604 -0.18832059 0.17966083 -0.06294419 -0.11982257 0.08858606 -0.028526016 0.17428324
-0.0032115034 -0.009823167 0.16704363 0.12496058 -0.04638656 0.270519 -0.055834927 -0.05035627
-0.12670301 -0.048620798 -0.04657812 -0.07951238 0.04176199 -0.14970843 -0.09858153 -0.21031594

while/MatMul2 f4 [96, 16]
00000000: 94db b338 8220 4038 2070 10b7 93de 8438
00000010: 5b6c 9a38 9860 8a38 c80d 2d38 d9e6 9738
00000020: 8c9a b1b8 4b46 cdb8 0b17 b838 62d4 7eb8
00000030: aa96 7038 924d cf38 683a 4fb8 583b 9b37
00000040: 00af af37 92bd c9b8 b0e5 bfb6 85e9 cab8
00000050: 3ca5 ad38 c4b1 d1b7 4dd7 82b8 c0da d936
00000060: fc87 6db8 10be f637 1236 9338 8130 c8b8
00000070: cf8d bd38 a24f 3738 bef9 a238 863f 81b8
00000080: dabb 28b8 0212 6438 e04a 9436 d069 a1b8
00000090: 6890 9db8 1cdd 76b8 ec8d df37 dacc 0438
000000a0: 0003 89b5 f049 7438 6092 1cb7 80a7 2837
000000b0: 164e 3db8 941b 9e38 504c dc36 ddb9 b0b8
000000c0: 30e4 ec36 5a73 be38 6d5a 8738 7874 50b8
000000d0: 37d0 8fb8 7837 95b8 5087 3938 a085 6a37
000000e0: 34cf 6838 d8b7 b4b7 6cb6 87b7 d153 9eb8
000000f0: 7014 6b38 6043 7c38 d70d 97b8 12fb aa38
00000100: 80f8 5c37 c046 5338 02fd 9cb8 787d c237
00000110: 38bf f937 6d74 bdb8 7086 07b8 d9fa 87b8
00000120: f5e3 93b8 c029 e7b6 2ce9 e3b7 4c07 cc37
00000130: 333d a6b8 6036 05b6 00e9 6c36 de7f 6bb8
00000140: 666c 09b8 7076 8436 f081 02b7 80f9 d835
00000150: 6abf 02b8 2848 46b8 08a3 53b8 8229 9b38
00000160: 7857 4e37 144b 9637 e0ed 4fb7 122e 1438
00000170: fe24 29b8 149b ba37 b9ad 8eb8 4ad0 8438
00000180: 0aa1 5838 d71d b7b8 3823 5738 d410 7b38
00000190: a4cb 3338 6813 60b7 a6bc 0538 8708 9e38
000001a0: 744f c7b8 3c7b 9338 e0ab 0b38 5e0c 71b8
000001b0: e81a 3238 99da cc38 e674 41b8 689c d337
000001c0: 701f d5b8 c01e 98b5 ddc3 bd38 96fb 31b8
000001d0: 60a3 16b8 e00e abb6 1c82 0738 6c7d 12b8
000001e0: 2d19 8638 f53a d638 741a 6cb8 cad9 00b8
000001f0: d024 e1b6 4cd8 00b8 685a 9037 408c 35b7
00000200: 72e3 a2b8 120e 8438 4dc6 8338 2dc8 b838
00000210: aa39 14b8 1060 e937 80a7 2c37 f54c b6b8
00000220: 44a4 d8b7 6997 d038 fc8d 91b7 7324 85b8
00000230: 48f8 1d37 a277 0738 60d7 6337 22c7 c9b8
00000240: aed9 6238 9cfb cbb7 181a 2cb8 609b 4a37
00000250: 944c deb7 24d1 3ab8 2a89 c4b8 2c00 42b8
00000260: 00c8 c834 806c 7fb7 8c6a 8938 dc89 1fb8
00000270: 1c3e fe37 28e4 56b8 8178 91b8 3a35 a2b8
00000280: 9422 8cb7 4e73 30b8 f024 d1b8 78ed b037
00000290: bb8b d338 e068 e137 d26b cfb8 e9ce a238
000002a0: 35bb a638 7875 94b7 1874 3c38 e470 3638
000002b0: 7ef7 4db8 98b4 b9b8 3bff b538 d428 9238
000002c0: 32f0 8eb8 647b 5d38 44c1 9b38 184c 8838
000002d0: c628 4738 62eb 9d38 b29d b538 d0d1 c3b8
000002e0: 5a43 60b8 72dc 8338 e351 a0b8 a061 6538
000002f0: a391 85b8 44a9 e6b7 9ad9 a1b8 2cbd af38
00000300: 6c41 16b8 bc75 bdb8 f0bc 4d38 7e24 9bb8
00000310: 1abf 70b8 08a3 5fb8 b2ec 4538 52ce 60b8
00000320: b019 0838 5e1f 2738 0017 3eb7 c705 c638
00000330: 2f78 c9b8 da9a d6b8 70ca 80b7 403f d535
00000340: 4a3a 9c38 0007 ebb4 3dab 8138 1c62 4e38
00000350: 67a6 9ab8 e491 4cb8 12e8 8cb8 522a 1638
00000360: 6397 d1b8 e654 2b38 44d4 7fb8 8c72 a0b7
00000370: 12cb 5938 92fd 1138 020a 40b8 fdf2 9538
00000380: 1df6 b438 2afa 71b8 108c 9b37 f074 0638
00000390: d224 5eb8 c0d4 9e35 d22e a138 e6f7 37b8
000003a0: 9742 a4b8 2e56 8eb8 1ccc f1b7 63c5 ba38
000003b0: b41f fa37 f87c 4337 e0d7 1fb7 16e1 6b38
000003c0: 5654 68b8 dcd8 47b8 8ce3 bf37 2a36 0b38
000003d0: 245b 4538 f351 86b8 d01f 1fb7 1a42 70b8
000003e0: 527d 1ab8 b0f5 74b8 e6da 32b8 ee03 c638
000003f0: f4ed 8fb7 eabc 2fb8 f04b 05b8 6018 c338
8.576285e-05 4.5806642e-05 -8.609175e-06 6.335708e-05 7.363475e-05 6.598345e-05 4.125925e-05 7.24324e-05
-8.468804e-05 -9.788255e-05 8.778096e-05 -6.0756116e-05 5.7360776e-05 9.884978e-05 -4.940704e-05 1.8505074e-05
2.0943116e-05 -9.619737e-05 -5.7189827e-06 -9.675607e-05 8.28006e-05 -2.499752e-05 -6.238986e-05 6.49257e-06
-5.663185e-05 2.941399e-05 7.0195776e-05 -9.545778e-05 9.038636e-05 4.3704764e-05 7.77128e-05 -6.1630315e-05
-4.022927e-05 5.4376207e-05 4.4194603e-06 -7.696787e-05 -7.513241e-05 -5.8856895e-05 2.664976e-05 3.1662035e-05
-1.0208169e-06 5.8242993e-05 -9.332405e-06 1.00525795e-05 -4.5133835e-05 7.539164e-05 6.565395e-06 -8.426954e-05
7.0599126e-06 9.081392e-05 6.454145e-05 -4.9699534e-05 -6.8575544e-05 -7.1152055e-05 4.4233457e-05 1.3978599e-05
5.5506083e-05 -2.1543281e-05 -1.61782e-05 -7.549639e-05 5.60474e-05 6.014423e-05 -7.202819e-05 8.152997e-05
1.317088e-05 5.037221e-05 -7.485786e-05 2.3185028e-05 2.9772156e-05 -9.033908e-05 -3.2311713e-05 -6.484026e-05
-7.0519665e-05 -6.889197e-06 -2.7169088e-05 2.4322093e-05 -7.926896e-05 -1.9850195e-06 3.5302364e-06 -5.614745e-05
-3.27643e-05 3.9476945e-06 -7.778857e-06 1.6165868e-06 -3.1172684e-05 -4.727408e-05 -5.0458155e-05 7.3987074e-05
1.2298922e-05 1.7916354e-05 -1.2393546e-05 3.5328856e-05 -4.032719e-05 2.2245142e-05 -6.803446e-05 6.333047e-05
5.1648392e-05 -8.731678e-05 5.1292795e-05 5.9858736e-05 4.286658e-05 -1.3355959e-05 3.1885364e-05 7.5356154e-05
-9.503859e-05 7.0324604e-05 3.3300254e-05 -5.7470395e-05 4.2463565e-05 9.768195e-05 -4.6123656e-05 2.5225992e-05
-0.00010162487 -1.1333832e-06 9.048705e-05 -4.2434396e-05 -3.591494e-05 -5.097929e-06 3.2307682e-05 -3.492592e-05
6.394307e-05 0.00010215297 -5.629142e-05 -3.072041e-05 -6.709808e-06 -3.071902e-05 1.7208236e-05 -1.0821095e-05
-7.767127e-05 6.296871e-05 6.283503e-05 8.811089e-05 -3.5339654e-05 2.7820497e-05 1.0290998e-05 -8.692771e-05
-2.5825699e-05 9.946415e-05 -1.7351464e-05 -6.3487234e-05 9.415737e-06 3.2297925e-05 1.35804e-05 -9.621518e-05
5.408533e-05 -2.431665e-05 -4.1032297e-05 1.2076314e-05 -2.6500122e-05 -4.4540633e-05 -9.371557e-05 -4.6253364e-05
3.7398422e-07 -1.52244465e-05 6.552515e-05 -3.8036946e-05 3.0308081e-05 -5.1234063e-05 -6.9365844e-05 -7.734676e-05
-1.6705402e-05 -4.2069056e-05 -9.972777e-05 2.1091415e-05 0.00010087291 2.6870926e-05 -9.890612e-05 7.763302e-05
7.950367e-05 -1.7697676e-05 4.4930814e-05 4.349732e-05 -4.9106304e-05 -8.8551256e-05 8.678293e-05 6.969427e-05
-6.8158275e-05 5.2805422e-05 7.4269745e-05 6.499159e-05 4.748327e-05 7.530187e-05 8.6601256e-05 -9.337405e-05
-5.3468488e-05 6.287628e-05 -7.644647e-05 5.4688775e-05 -6.369061e-05 -2.7496957e-05 -7.71761e-05 8.379886e-05
-3.5823716e-05 -9.034152e-05 4.905177e-05 -7.397773e-05 -5.7398436e-05 -5.3319178e-05 4.71889e-05 -5.3597912e-05
3.244885e-05 3.9845116e-05 -1.1330238e-05 9.442452e-05 -9.606813e-05 -0.000102331585 -1.5353056e-05 1.5888145e-06
7.449517e-05 -4.3777254e-07 6.183095e-05 4.92056e-05 -7.374287e-05 -4.877326e-05 -6.718947e-05 3.58022e-05
-9.9940946e-05 4.0848645e-05 -6.0994425e-05 -1.9126826e-05 5.1925956e-05 3.480685e-05 -4.5785688e-05 7.150134e-05
8.628911e-05 -5.769186e-05 1.8542662e-05 3.2056996e-05 -5.2963216e-05 1.1833836e-06 7.685799e-05 -4.3861473e-05
-7.832533e-05 -6.78714e-05 -2.8824485e-05 8.905937e-05 2.9817085e-05 1.1652002e-05 -9.527401e-06 5.6237994e-05
-5.5391654e-05 -4.7647263e-05 2.2874934e-05 3.3190627e-05 4.705334e-05 -6.404882e-05 -9.484545e-06 -5.728202e-05
-3.6833175e-05 -5.8402948e-05 -4.2642372e-05 9.442108e-05 -1.7157734e-05 -4.189919e-05 -3.1780393e-05 9.302865e-05

sequential_5/bidirectional_4/backward_lstm_4/Read_2/ReadVariableOp1 f4 [24]
00000000: fbc9 163e 0aee 0f3e 7eae 1f3e c7f8 2a3e
00000010: 6ec1 0e3e 3669 113e 2c8b 933f aa98 923f
00000020: f395 943f 4ef1 943f 462e 923f 8d9d 923f
00000030: 0425 84bc 2198 8d3c 64af 4a3c 8187 73bd
00000040: 6e3c 4f3c 6918 f43b 72a2 813e 0ccc 753e
00000050: eb7c 793e 9f0e 7b3e 5918 6b3e 3c53 6d3e
0.14725487 0.14055648 0.15593907 0.16696464 0.13940975 0.14200291 1.1526847 1.1452839
1.1608261 1.163614 1.1420372 1.1454331 -0.016130932 0.017284455 0.012370918 -0.0594554
0.012648685 0.007449199 0.25319248 0.24003619 0.24364059 0.24517296 0.22958507 0.23176283

while/MatMul_17 f4 [24, 6]
00000000: 4a46 96bd a40a 92be 8d04 403e 75f8 29be
00000010: 12e7 c03e 0add b73c 6a18 2fbe b9bc f53d
00000020: fff6 403e 5f8c 03bf 08f1 923e e87b 963e
00000030: 9b85 d5bd a6b9 0abd ac75 543d 0726 d8bc
00000040: bc1f c23a d760 d03d 2da2 72be bc45 ae3d
00000050: cfed 623b ba48 893e 596d 653e da10 573d
00000060: ecbf 78be 684c 14be cae4 773d 566d 7ebe
00000070: 2d40 96be 4f87 073e 4ce0 0b3f af4b 60bb
00000080: bc97 c03c ab13 b7bd af54 a9bd 4bcb d13d
00000090: c37d 943e 1f50 b93e 2a63 0ebe bd47 c5be
000000a0: 5b16 353e 467c 8bbd d68a 243e 3062 023e
000000b0: f0cb a5bd dbb3 613c 9060 743e 151c e83c
000000c0: fd74 0ebe edf3 1e3e b186 ff3c 710a 033d
000000d0: 2614 823e 04de 7c3e 31df a8be 46f4 033e
000000e0: 3fb4 bebe de7e 83be f321 4a3e 77f9 063e
000000f0: 72b4 7e3c 051f a73c c244 ee3d 8d14 b63c
00000100: 92e8 e73c 4da3 ed3d 1fb7 333e b206 4d3d
00000110: b6e5 fbbd b404 ddbe e456 0bbe d433 79bd
00000120: a1eb 893e ffb4 22be 268d 273b 4011 2d3e
00000130: 2cd8 813d 55fb 81bd 5707 21bd 672e ef3e
00000140: a2d4 1d3e 1ea0 503e 4082 8cbd 98bc 94be
00000150: 68b4 3b3e f735 02bd 7609 b43e 98ff 153d
00000160: 202a b5be e8fb bf3e 7a4a 893e a5e7 2abe
00000170: ec5b a23e cbf7 623e 02cd 873e f354 81bd
00000180: 1d0c 5a3e c7d4 a2be 855d 30be ee2d 063e
00000190: 7cc5 bc3b 0450 7dbe 5705 373e 2fe0 2cbe
000001a0: 390a 1bbc 3fe0 3f3d 516d 17be 8316 c5bd
000001b0: 55cb 5bbc f2ac f83d 03a3 01bd 4ed4 c3be
000001c0: ed59 9fbd f281 b53e d24c 3c3e 162c 22be
000001d0: 0395 713d e77f 12be 1765 a53e 25be 2b3c
000001e0: 8643 a8ba 16f5 3bbe e163 8c3c f5bb c03d
000001f0: 35d0 f83d 8f1d 093f bba4 b3be 2406 533c
00000200: a6d7 bf3e ce31 58be ea7d e7bd 2ada 52bd
00000210: 2231 80bd e948 18bf 1516 b5be f768 7cbe
00000220: 5181 033d d475 45be b9e3 af3d 3c06 96be
00000230: 0b42 4b3e 27bb 8bbe 9e4c 023f fbf3 1dbd
-0.07337625 -0.28523743 0.18751736 -0.16598685 0.37676293 0.022444267 -0.17099157 0.119988866
0.18844222 -0.51386064 0.28699517 0.29391408 -0.10425874 -0.033868454 0.051870033 -0.02638532
0.0014810483 0.10174721 -0.23694678 0.085093945 0.0034626608 0.26813298 0.22404994 0.052506305
-0.24291962 -0.14482272 0.060520925 -0.24846396 -0.29345837 0.1323521 0.54639125 -0.0034224798
0.023509853 -0.08939298 -0.08268105 0.10243853 0.290022 0.3619394 -0.13905016 -0.38531294
0.17684309 -0.06810813 0.16068587 0.12732768 -0.080955386 0.013775791 0.2386496 0.028333703
-0.13911815 0.15522738 0.031192156 0.03199238 0.25405997 0.24694067 -0.32982782 0.12886152
-0.37246892 -0.2568273 0.19739513 0.13181101 0.015545951 0.020400533 0.11634208 0.022226596
0.02830914 0.11603413 0.17550324 0.050055213 -0.12299673 -0.4316765 -0.13607365 -0.060840443
0.26937583 -0.15889357 0.0025566309 0.16901112 0.0634006 -0.06346766 -0.03931364 0.4671509
0.15413144 0.2037358 -0.06860781 -0.29050136 0.18330538 -0.031789746 0.35163468 0.036620706
-0.353837 0.37496877 0.26814634 -0.16689928 0.31710756 0.22164838 0.26523596 -0.06315031
0.21293683 -0.3180296 -0.17223175 0.13103458 0.0057608467 -0.24737555 0.1787313 -0.16882394
-0.0094628865 0.046844717 -0.14787795 -0.096234344 -0.013415177 0.12142362 -0.0316496 -0.38247913
-0.07780824 0.35450703 0.1838868 -0.1583713 0.05898 -0.14306603 0.32303688 0.010482346
-0.0012837506 -0.18355212 0.01713747 0.0941085 0.12149087 0.5356073 -0.35086617 0.012879882
0.37469214 -0.21112749 -0.11303313 -0.05147759 -0.06259371 -0.5948625 -0.3536841 -0.24649416
0.032105748 -0.19283229 0.085883565 -0.2930163 0.19849412 -0.27291223 0.5089816 -0.038562756
