model/hoax_detection_C1.tflite (tflite, 796240 bytes, 14 tensors)

sequential_6/dense_12/MatMul;sequential_6/dense_12/Relu;sequential_6/dense_12/BiasAdd f4 [8]
00000000: 98f6 06bf dd5a ae3f 5a78 b2be 7424 b03e
00000010: 0a4f 783d dca5 9cbe a229 e0bd d347 46bf
-0.5272002 1.3621479 -0.34857446 0.34402812 0.060622253 -0.3059529 -0.10945441 -0.77453345

sequential_6/batch_normalization_2/batchnorm/mul_1;sequential_6/batch_normalization_2/batchnorm/add_1;sequential_6/dense_12/MatMul;sequential_6/dense_12/Relu;sequential_6/dense_12/BiasAdd f4 [8, 24]
00000000: 0fda 83bf 1771 d33f e1e5 50bf 4253 8e3f
00000010: 80a2 52c0 44ce edc0 af72 4d40 425a 953d
00000020: cb52 7140 2579 23bf 811b 45bf c965 06c0
00000030: deb5 9ec0 e0c0 833f 40ae b53f 65ba 8940
00000040: ecfe 1840 7137 2540 d156 85bf e43b 383f
00000050: ee60 3140 97c3 09c0 1c75 0e3e 0249 cdbf
00000060: 45e4 c8bf a899 01c0 e6df 1cc0 4a09 983f
00000070: 0cd8 72bf 98da 043e 0899 7240 79c8 9440
00000080: 28fb ae3f 930f 0cc0 3d8b 00c0 d0c8 c73f
00000090: 6a0c f9c0 a001 5bc0 c3a5 fdbf 321f b9bf
000000a0: 3774 3ebf 1ea3 863f 23d4 66c0 4a7d 5140
000000b0: 405a 5cbf 6849 063f d7b9 c83e 4859 3c3e
000000c0: f320 c7bf c94e d83f 18e8 21c0 4bc0 0d40
000000d0: 8412 743f a406 8440 2e46 f83d 3bc2 0540
000000e0: 6742 523f e728 d7bf 20e3 783c 229f 0240
000000f0: 7bca 6440 5a1c 80c0 d53d c8bf 24ec 533e
00000100: eb48 8abe d1b2 02c0 47e5 f7bf 61ad 5840
00000110: 8098 0840 a333 82bf 9950 f83f 46a4 0140
00000120: f885 fd3d 9526 c23f c292 febf b37d 8cbf
00000130: 1394 40c0 cbf3 743f d5fb d7bf a4a3 93c0
00000140: 7fdc ccc0 9dc7 9dbf bcb9 2cc0 4a8e 8f3f
00000150: d1f7 dd40 48d0 0c40 45b4 2c40 f03a d03f
00000160: 2f7c 0d3f 35d1 6e3f 4076 3ac0 6829 dfbf
00000170: 1bf8 2440 da57 1b40 931e f63e 5de3 08bf
00000180: b157 3a40 90a5 16c0 e9d1 1cbf 6e83 783f
00000190: ff76 0740 ed5f 1c40 89e1 2ec0 e101 17c0
000001a0: 14e9 553f eb8c b63e 8ef7 2e40 2fca 8cbf
000001b0: 3b95 ccbf 582d fa3f 93f0 f53d d068 20c0
000001c0: 30cd 73bf b7ae 2fc0 0ff0 d7bf 0015 03c0
000001d0: 30e4 0a40 76c7 893f bebe 5040 92f5 46be
000001e0: 6118 a2bf 687d 3040 4572 0a40 f9f0 a23f
000001f0: 5f26 f6bf a6b8 9540 af57 7ac0 999c 7bc0
00000200: 2547 3340 4d69 3f40 5a3c 06bf 900d 0c40
00000210: 0997 04c1 b2b4 863d 5476 5cbf ba49 ef3f
00000220: 56f8 fabd f8b5 57bf 85fc 99bf 1d32 54c0
00000230: 9fcf 0a3f 1388 913f 0efd 1b40 1862 e4be
00000240: 2440 c83f 2e46 9abf fdf3 72bf ee87 49c0
00000250: c54b 593f 5e68 65c0 2d00 6140 4b93 40c0
00000260: a543 6b40 b8c6 1ec0 6e0c 1a40 791e 0240
00000270: f130 9340 bf0b 09c0 4851 3cbf db6f 7240
00000280: 0d3d 3a3e 5343 0740 5017 bfbe 6b65 19bd
00000290: f38f 43c0 e406 ddbf 4c32 0e40 2101 193f
000002a0: ff72 f7bf 994d 53bf 3015 ed3f d479 3e40
000002b0: 5158 08c0 b8fd a040 ef41 3a3f b951 1cc0
000002c0: 37cc 9440 a04c 8a3f 1963 87bf b50f cbbe
000002d0: b675 b940 e9d9 34c0 3b1f ee3f ef04 033e
000002e0: 117b 6c3e cbf5 59be 04f7 0f3f 89af 4e3f
000002f0: e961 2b40 06b3 4c40 c797 aebf 1dd3 8d3e
-1.0300921 1.6518887 -0.8160077 1.1119158 -3.2911682 -7.431429 3.2101247 0.07292606
3.7706783 -0.63856727 -0.7699509 -2.0999625 -4.9597006 1.0293236 1.4193802 4.3040032
2.3905592 2.5815089 -1.0417119 0.71966386 2.771541 -2.1525629 0.13911861 -1.6037905
-1.5694662 -2.0250034 -2.4511657 1.1877835 -0.9486091 0.12974012 3.7905903 4.6494718
1.3670397 -2.1884506 -2.0084984 1.5608158 -7.7827654 -3.4219742 -1.9816211 -1.4462645
-0.7439608 1.051853 -3.6066978 3.273272 -0.8607521 0.5245576 0.39204285 0.18393433
-1.555693 1.6899043 -2.5297909 2.2148616 0.9534075 4.1258106 0.12122761 2.08998
0.8213257 -1.6809357 0.01519087 2.0409627 3.5748584 -4.003461 -1.564387 0.20695549
-0.27008757 -2.042164 -1.9366845 3.3855822 2.1343079 -1.0172008 1.9399596 2.0256515
0.12379068 1.5168024 -1.9888537 -1.097586 -3.0090377 0.956845 -1.6873728 -4.6137257
-6.401916 -1.2326542 -2.6988363 1.1215298 6.936501 2.2002125 2.6985028 1.6267986
0.55267614 0.93287975 -2.9134674 -1.7434511 2.5776432 2.427237 0.480702 -0.5347193
2.9116023 -2.3538551 -0.612578 0.97075546 2.116638 2.4433548 -2.7325156 -2.3594897
0.83558774 0.35654387 2.7338595 -1.0999202 -1.5983042 1.9545088 0.120087765 -2.5063972
-0.95234966 -2.7450387 -1.6870135 -2.0481567 2.1701775 1.0763996 3.261642 -0.19429615
-1.266369 2.7576542 2.1632245 1.2729789 -1.923046 4.67879 -3.9116018 -3.931433
2.8012173 2.990802 -0.5243584 2.1883278 -8.286874 0.06577434 -0.86118054 1.8694375
-0.122543976 -0.8426204 -1.2030188 -3.3155587 0.54223055 1.1369652 2.4373202 -0.4460609
1.5644574 -1.2052667 -0.94903547 -3.1489215 0.8488124 -3.584495 3.5156357 -3.00899
3.6760037 -2.4808788 2.4070086 2.03311 4.5997243 -2.141342 -0.73561525 3.788077
0.18187352 2.1134841 -0.37322474 -0.037450235 -3.055661 -1.7267728 2.2218199 0.5976735
-1.9331969 -0.8254028 1.8522091 2.9761858 -2.1303904 5.0309715 0.72756857 -2.442488
4.6499286 1.0804634 -1.0577117 -0.3966042 5.795619 -2.8258002 1.8603281 0.12794851
0.23093821 -0.21285169 0.5623629 0.80736595 2.677851 3.1984267 -1.3640069 0.2770013

sequential_6/lstm_6/Read_2/ReadVariableOp f4 [128]
00000000: 17e9 a33c 99eb c33b 3366 32bb 8c64 f03b
00000010: 4bd5 bfbb ae23 293c f20b 1a3c 8636 293c
00000020: 7e2e 263c f97b 533a 38fd f33b 75d1 bb3c
00000030: 08ae 8d3c 2405 c33c 06d0 023c 0ab0 f13b
00000040: 5cf3 9a3a 144c e0b9 ac98 033d e4a2 d23c
00000050: eda7 3d3c d617 37ba 3a79 3a3c f38a 7c3c
00000060: 3cda b4bb b17a 6b3c 1689 963c 31fd d83b
00000070: 8078 823c db45 cdbb feee 86bb 561c c53b
00000080: 32c0 823f 2c05 813f 4aed 7f3f 61f7 803f
00000090: 0a06 7f3f c944 813f 923f 813f f534 813f
000000a0: 4685 813f e535 803f 6b1f 813f 84e0 823f
000000b0: 211e 823f 8cfd 823f fd33 813f a40f 813f
000000c0: e461 803f 2d0e 803f bb46 843f 5b1f 833f
000000d0: bc86 813f 7a2d 803f 7385 813f 3f0e 823f
000000e0: 870a 7e3f e5e5 813f 306c 823f 4bfe 803f
000000f0: 5908 823f d802 7f3f a54b 7f3f 5c09 813f
00000100: 12e7 4ebc 9e91 e2bb f48e c1bb 7473 d63b
00000110: 7532 c1bb 2123 50bb ca06 4c3c bbee e4ba
00000120: db15 e23b deff c53a b686 9bbb 5b8a c43b
00000130: 0429 c3bb e218 0d3b 3da9 02bb 8374 76ba
00000140: e2f5 21bc a8de c23b d822 5e3b a6c6 1f3b
00000150: b22c 2dbb 38b9 2f3c 4441 d13b de1a 3f3b
00000160: f967 5fba af9a 2a3b bf8c 113b f266 033c
00000170: 7be1 2aba da14 f7bb 8e8f 35bb 115e caba
00000180: 298c a43c 66b8 c53b f763 33bb 9681 ed3b
00000190: d7d2 bdbb 2d56 df3b 046e 113c 7e24 0d3c
000001a0: 93e8 223c d9a6 943a 5063 f33b d3af a53c
000001b0: 3c9c 893c b434 a73c a802 cd3b bfaf d83b
000001c0: 217c 993a f70f ceba bc0a 003d 9665 af3c
000001d0: 52f8 3a3c 6a3d 81ba 997f 403c 1d04 5d3c
000001e0: 137e b4bb 1b9c 463c 9968 953c 8887 cc3b
000001f0: f60b 513c 6f77 cfbb 36c3 9fbb 7c82 bf3b
0.020008607 0.005979013 -0.002722156 0.007336205 -0.005854284 0.010323448 0.009402262 0.010327941
0.010142921 0.00080674846 0.0074459575 0.022927025 0.017294899 0.023806162 0.007984167 0.007375722
0.0011821794 -0.00042781292 0.03212802 0.025712438 0.011575681 -0.0006984448 0.011381442 0.015413987
-0.0055191796 0.014372514 0.018375915 0.0066219796 0.0159266 -0.006264431 -0.0041178456 0.006015341
1.0214903 1.0079703 0.9997145 1.0075494 0.9961859 1.0099117 1.0097525 1.0094286
1.0118797 1.0016447 1.0087713 1.0224767 1.0165445 1.0233626 1.009399 1.0082898
1.0029874 1.0004326 1.0334085 1.0243944 1.0119243 1.0013878 1.011885 1.0160598
0.99234813 1.0148283 1.0189266 1.0077604 1.0158798 0.99613714 0.997248 1.0080981
-0.012628334 -0.0069143316 -0.005906934 0.006544525 -0.0058959075 -0.003175922 0.0124527905 -0.0017466167
0.006899578 0.0015106162 -0.0047462834 0.0059979386 -0.005955817 0.0021529724 -0.00199373 -0.0009401517
-0.009885283 0.005946953 0.003389528 0.0024379878 -0.0026424346 0.010725312 0.006385954 0.0029160301
-0.0008522268 0.002603214 0.0022209135 0.00802015 -0.00065185846 -0.0075403275 -0.0027703973 -0.0015439411
0.020086365 0.006033945 -0.0027372816 0.007248114 -0.0057929563 0.006815693 0.008876327 0.008614657
0.009943145 0.0011341228 0.0074276105 0.020225441 0.016798131 0.020410873 0.00625642 0.0066127474
0.0011709967 -0.0015721311 0.031260237 0.021410745 0.011411743 -0.0009860222 0.011749172 0.01348975
-0.0055081933 0.012122179 0.018238353 0.0062417425 0.012759199 -0.0063313763 -0.004875566 0.0058444124

sequential_6/lstm_5/Read_2/ReadVariableOp f4 [256]
00000000: 9452 8e3c b5bd 4a3c e38e 663c 4b1e 18bb
00000010: 2075 333c 72f8 093c f1c2 fbbb 1837 333c
00000020: dcdd a53c 3ffc 1cbc b2f7 a23c 63ab 243c
00000030: 9d54 843c 4086 edbb 6c97 9e3c 302f 143b
00000040: 16ba 6aba ebc4 b73c 60bf 973c 8032 cf3c
00000050: 5142 7d3c 64c6 ba3b 6759 873c 7e9e 5a3b
00000060: af4a 76bb 4efa e73b beac 943c 4322 a63b
00000070: 34b0 9e3c 6f06 d0bb aad9 9dbb ac0a 743c
00000080: 45f4 e63c 150d 0e3c a85b b33c 64f4 7a3c
00000090: a324 7b3b 1a18 c53c 0c24 963b 5892 8b3c
000000a0: 9da9 303c c5a8 ef3b 6beb 0e3c 3532 333c
000000b0: c184 373b 5570 4cbc bcbb b0ba b995 9e3c
000000c0: a857 823c d361 63bb eb0e df3c dc16 2a3c
000000d0: 3b4b bd3b 0d65 843c eebb 003c 8117 f1b7
000000e0: b4f0 b63b 139f a73c 3b5b a03c 7057 8239
000000f0: ee8b c33c 64b4 993b cc27 643b 55ea 223c
00000100: 004f 823f 1979 813f 2eb5 813f 047b 7f3f
00000110: 7f59 813f 1cfd 803f a654 7e3f 414c 813f
00000120: 5393 823f 3874 7d3f 7f79 823f ea39 813f
00000130: ee08 823f d228 7e3f 277d 823f 9e15 803f
00000140: 03b3 7f3f 1cd2 823f f256 823f 2515 833f
00000150: d6df 813f 40e3 803f ed14 823f e56c 803f
00000160: dfe9 7e3f 87f4 803f 9830 823f 8a82 803f
00000170: 0071 823f 406f 7e3f 3ebc 7e3f 75c7 813f
00000180: 0697 833f f61c 813f 64f8 823f f00d 823f
00000190: 0378 803f fe36 833f 5988 803f d737 823f
000001a0: e673 813f d702 813f da3d 813f b156 813f
000001b0: 6b63 803f 9d81 7c3f 1fba 7f3f 4d93 823f
000001c0: dcfd 813f 58fe 7e3f 265d 833f 1045 813f
000001d0: c8d0 803f 801a 823f 9216 813f bceb 7f3f
000001e0: 2dca 803f 488b 823f 5f7b 823f 770c 803f
000001f0: 5d0e 833f 3088 803f 5771 803f 8194 813f
00000200: ba38 80bb 29e7 dbba 3797 38bb 9729 923b
00000210: 41ba b4b8 ab67 cc3a f2d4 80ba 13ea eeba
00000220: 1a9e 9f37 f94a b3bb 5e5d 4e3b 7a8d 233b
00000230: d56c 193a 08e2 b3bb 327a 863b 4d14 62bb
00000240: 4713 deba d5b6 45ba b24c 4c39 9b33 a73a
00000250: 4be2 503a 940b a53a 6c19 fb38 3a19 fe3a
00000260: 9b98 ec3a 9874 783a 441b 8f3a 5ce9 3f3b
00000270: af18 66bb 6a18 68bb 97bd 0cbb 6553 9f3a
00000280: 75d2 ce39 2d1c 4c3a 6175 6cbb ec7c 9abb
00000290: e95f dd3a 0c9e 843b 3d89 8dba c1c9 703b
000002a0: d5ab 88bb 2a69 b43b 4352 fabb b407 153a
000002b0: e829 c2bb b3bf 3e3b b5d5 3f3a 07a9 833a
000002c0: 9ff6 a9bb 381b f0ba b57b 8aba e6fa cdba
000002d0: 1dc4 cd3a 65f6 8b3b 999a 62bb a95f e53b
000002e0: 6e54 7f3b 37b6 41bb b1c7 a23a e9e2 373a
000002f0: 5cd3 98bb 52e0 ba3a d190 95bb a8ca 063b
00000300: 0beb 8a3c db08 4a3c b7a9 663c 379a 19bb
00000310: 63eb 313c 41f7 053c 2daa fabb 395b 2f3c
00000320: f1bf 9f3c bbea 1dbc 0644 9e3c 1272 1f3c
00000330: ed3a 7f3c 6f49 efbb 28fc 9a3c 3d40 1b3b
00000340: 1cff 79ba a0ed b03c 1650 943c 0c4f cb3c
00000350: 912f 793c c015 b83b 5c99 843c 8c9e 5b3b
00000360: 0e4d 72bb 9fca dd3b fd62 933c 1505 a13b
00000370: 9ae1 963c 390b d6bb 129b 9ebb b507 703c
00000380: 9267 e23c f6bf 033c 8886 b03c b77e 743c
00000390: ddc1 783b 5bae c23c 2f18 953b 3105 8a3c
000003a0: a09f 2c3c f98e e73b ec96 0b3c 250b 2b3c
000003b0: 689b 363b b8c7 4cbc 3f72 b7ba 3c3e 9d3c
000003c0: 874f 803c 470b 65bb 2cbd d93c 0b5b 283c
000003d0: c534 bd3b 5a5e 7f3c 5128 f83b 28d4 a4b8
000003e0: 0d0a b43b 67ad a33c 30b0 9a3c bbb6 7d39
000003f0: 8496 c23c 5f6e 983b b4d6 633b aa4d 223c
0.01737336 0.012374331 0.014072153 -0.0023211415 0.010953218 0.00842105 -0.007683151 0.010938428
0.020247392 -0.0095816245 0.019893501 0.010050627 0.016153628 -0.00724867 0.019359313 0.0022611134
-0.00089541206 0.022432765 0.018523872 0.025292635 0.015457706 0.0056999195 0.016522123 0.003335863
-0.0037581136 0.007079399 0.018148776 0.0050700023 0.01937113 -0.006348423 -0.0048172073 0.0148951225
0.028192649 0.008670111 0.021894291 0.015317056 0.0038321398 0.024059344 0.004581934 0.017037556
0.010782626 0.00731382 0.00872312 0.010937263 0.0028002711 -0.012477954 -0.0013483684 0.019358503
0.015910938 -0.003469576 0.027228793 0.010381427 0.0057767904 0.016161466 0.007857306 -2.8740384e-05
0.0055828933 0.020461595 0.019574752 0.00024860678 0.023870435 0.0046906937 0.003481376 0.009943564
1.0180359 1.0115081 1.0133417 0.9979708 1.0105437 1.0077243 0.99347913 1.0101396
1.020121 0.9900546 1.0193328 1.0095799 1.0158975 0.99281037 1.0194443 1.0006597
0.99882525 1.022037 1.0182784 1.0240828 1.0146434 1.0069351 1.0162636 1.0033232
0.9957561 1.0074624 1.017108 1.0039837 1.0190735 0.99388504 0.99505985 1.0138994
1.0280464 1.0086963 1.0232053 1.0160503 1.0036625 1.0251157 1.004161 1.0173291
1.0113494 1.0078992 1.0097001 1.0104581 1.003034 0.98635274 0.99893373 1.0201203
1.0155597 0.9960685 1.0262802 1.0099201 1.0063715 1.0164337 1.0085013 0.9996908
1.0061699 1.0198755 1.01939 1.0003804 1.0238758 1.0041561 1.0034589 1.0123445
-0.0039130123 -0.0016777265 -0.0028166303 0.0044605243 -8.617761e-05 0.001559486 -0.0009829088 -0.0018227719
1.9027899e-05 -0.005471584 0.0031488757 0.0024956153 0.0005852704 -0.0054895915 0.0041039223 -0.0034496963
-0.0016943001 -0.0007542198 0.00019483527 0.0012756468 0.00079682906 0.0012591952 0.00011973348 0.001938618
0.0018050851 0.0009477823 0.001091816 0.002928338 -0.0035109927 -0.0035414943 -0.002147531 0.0012155591
0.00039448185 0.0007786181 -0.0036080705 -0.004714599 0.0016889545 0.004047161 -0.0010798346 0.0036741348
-0.0041708746 0.0055057006 -0.007639201 0.0005685047 -0.005925406 0.002910596 0.00073179166 0.0010044881
-0.00518687 -0.0018318659 -0.0010565432 -0.0015715032 0.0015698705 0.004271316 -0.003457701 0.006999929
0.0038960236 -0.0029558071 0.0012419132 0.0007014708 -0.004663868 0.0014257526 -0.0045643826 0.002056757
0.01695778 0.012331213 0.014078549 -0.0023437866 0.010859343 0.008176626 -0.007649681 0.0107029015
0.019500704 -0.009638484 0.019319545 0.009731786 0.015578014 -0.007302455 0.018919066 0.0023689412
-0.00095366105 0.021597683 0.018104594 0.024817966 0.015209095 0.005617827 0.016186409 0.003351125
-0.0036972198 0.006768539 0.017991537 0.004913936 0.018418122 -0.0065320996 -0.004840263 0.014650275
0.027637277 0.0080413725 0.021548524 0.014922789 0.0037957348 0.02376478 0.004550002 0.016848179
0.010536104 0.007066604 0.008519869 0.010439669 0.0027863625 -0.012498789 -0.001399584 0.019194715
0.015662922 -0.0034949349 0.026579462 0.010275613 0.005774113 0.01558646 0.0075731655 -7.8596466e-05
0.005494362 0.019980146 0.01888284 0.00024196033 0.023753412 0.004651829 0.0034765424 0.009906212

sequential_6/embedding_6/embedding_lookup f4 [10000, 16]
00000000: d940 85bc d6fd 343c d6fd e0bc ce9b 2b3c
00000010: 5fe8 9bbc 2edc d23c 5e11 023d 40d0 b9bc
00000020: 565e 0fbd 968f ec3b 5c19 ecbb 4988 db3c
00000030: fc09 d3bc cb45 4d3c b26f 2b3d 2218 9dbc
00000040: 0ba9 c03c 0d88 3d3d 9d26 983c 05c3 a73c
00000050: edb7 b13b 63af 0abd 98d8 163d baeb 9d3c
00000060: 92a5 40bd 6d7e 3a3d cca1 2e3c 6eba eb3c
00000070: 4f9a 493d 1eb9 a4bc 61e6 30bd fa78 89bc
00000080: af66 13bd 4b53 d23c cd63 99bb 79b1 bd3c
00000090: 9a79 c2ba 1dbc 243d 6501 153c 1df1 fbbc
000000a0: bc67 17bd 0e9f f53c 762a 383d 3826 bebc
000000b0: 29d6 cfbb e5b6 d53c 6881 003d 8e4c 173a
000000c0: 1771 5b3b 7074 883d 48e9 50bc e719 83bc
000000d0: 15ba ea3c e0bf 3bbd 3eb2 40ba 5d22 a5bc
000000e0: 5b39 f83c 07ad 253d 4bbb aebb e0fe 45bc
000000f0: 3e20 f83c 9802 1fbd 8d97 073b ec89 0bbd
00000100: 3570 28bd ec9e 043c a858 213d 7d1f b6bc
00000110: d587 283d 222c c7bc 960d 12bd 8301 aab9
00000120: 821d 303c cdb5 3cbc 3489 4abd 7db8 073d
00000130: f18b ab3c 279b 3dbd f18e 213d f2a0 5b3c
00000140: 4d50 fabb 30f5 b73c 632f 6239 c2e8 c93c
00000150: dc7f 1cbd 4932 2e3d d99c 9cbc 2633 34bd
00000160: 055d f1bc c9b4 b33c 7040 5dbc 4915 4ebb
00000170: 8545 873c f4cc b5bc c794 69bc bf80 243d
00000180: 0548 733c 329e e4bc b186 843c f023 e33c
00000190: 5950 96bc 482a 423d 3b6d 443b 9877 0abd
000001a0: 4c6d eb3c 9f2e af3c 8c0e 40bd afc2 eebb
000001b0: 525f 8fbc bbd3 ae3c 9d29 bb3c 05fd 1abd
000001c0: 8eb1 55bb de25 3d3c 82d5 aa3a a0be ecbc
000001d0: 8096 f03c 8a71 23bc 76fb 51bc 24c4 ebbc
000001e0: d7d6 01bc 58af 963b 3bac ca3c 5e53 a1bc
000001f0: 8587 a0bc 4d0c fd3c 9245 31bb 3ddf a33c
00000200: 6671 08bd 5f79 5ebd c05a cd3a 2e23 083d
00000210: 512c 61bc 447b 30bd b0ec cdbc 32b9 f5bc
00000220: ebb2 363b 83e0 eb3c 0b7b 733b ec44 1c3d
00000230: bc5e d7bc d183 953b 9e79 1c3d 994b 1dbc
00000240: 5ccf 403c ebd2 cf3c 6d50 cc3b b58d 5d3b
00000250: 0047 4fbd 5c02 9c3c bd92 043d 43c1 63bd
00000260: 0d6f 8ebc 4fd0 3bbd 3d98 47bc ef16 6e3b
00000270: 8bb7 ef3c 85e3 bfbc 2e63 bc3c 9305 c93c
00000280: e038 8c3c 8b76 393d 15a4 273d 8b7c a0bc
00000290: 7cc3 753d a3b3 9fbc 34df 833d eb4f 323d
000002a0: e12d 003b 69f8 d3bb 94df 893d fa44 c13c
000002b0: eb9c 723c 1e9b 53bc 4cf6 32bc 3f89 3e3b
000002c0: 8f60 94bc 2bdc b6bb 9b50 67bd 2a34 7ebd
000002d0: 6948 fdbb 09c8 993c 162b 8a3c c5c9 8b3c
000002e0: 91d6 de3c f38c ecbb 151a 763c 8844 2cbc
000002f0: 9699 583a fd8d 513d 06b0 c93c 12f7 4ebd
00000300: 252b 20bd 0f02 b0bb f9c0 acbb e315 beba
00000310: 41b3 e33b 5fc1 16bd 9d0a 913d 7fd8 643d
00000320: 4ced 00bd fac5 dc3c 4771 443d ad6f b1bc
00000330: 7d77 5f3c 1b89 8c3d d731 9a3d 2d45 38bd
00000340: bbc2 c8bc e334 3e3b 455c 25bd 83db 80bc
00000350: 99b0 60bc 18ca acbc 1efe efbc 5942 61bd
00000360: 23eb c3bc 2666 fe3c b4fd 343b b133 783d
00000370: 0f9e 0dbd 164d 5bbd ea0b 94bb 823c 623b
00000380: 72f4 56bc 2130 903b 5bab 643c 9bc0 d03b
00000390: 9c73 b03c f9fb 13bd 1c68 3dbd 5d25 61bc
000003a0: 716c a13c 5d7e cc3c d61e 413c d71e abbc
000003b0: cec3 0dbd 54e7 5dbc 809d 26bd ba80 89bc
000003c0: 900c 023c 973d 5fbd c179 0cbb e84d 003d
000003d0: 82f5 e23c 3d39 64bd 729b 17bd b95a b1bc
000003e0: 528a c6bc bb04 133d 380b 2a3b 2001 113d
000003f0: 0c5d 90bc 4f87 99bc a752 543d 7e20 c33b
-0.016266273 0.011046847 -0.027464788 0.010474158 -0.019031702 0.025739755 0.031754844 -0.02268231
-0.035002075 0.007219265 -0.0072051715 0.026798384 -0.025761597 0.012528847 0.041854568 -0.019176546
0.023518106 0.046272326 0.0185731 0.020478735 0.005423537 -0.033858668 0.036827654 0.019277442
-0.0470329 0.045530725 0.010658693 0.02877542 0.049219426 -0.020107802 -0.043188456 -0.016781319
-0.0359866 0.025674483 -0.0046810866 0.023155915 -0.0014837265 0.04021846 0.009094571 -0.03075462
-0.036964163 0.02998307 0.04496237 -0.023211583 -0.0063426686 0.026088187 0.03137341 0.00057716004
0.0033484155 0.06662834 -0.012750931 -0.016003562 0.028653184 -0.045837283 -0.0007350779 -0.020157987
0.030300787 0.040448215 -0.0053323857 -0.012084693 0.030288812 -0.038820833 0.0020689697 -0.03406708
-0.041122634 0.008094531 0.03939119 -0.022231812 0.041145165 -0.024313036 -0.035657488 -0.00032426053
0.010749223 -0.011517954 -0.049447253 0.033134926 0.020940753 -0.046290543 0.03944296 0.013405072
-0.007638967 0.022455782 0.00021570692 0.02464712 -0.038207874 0.042528424 -0.01911776 -0.04399409
-0.0294633 0.021936791 -0.013504133 -0.0031445792 0.016512642 -0.022192456 -0.014256663 0.040161844
0.014848714 -0.027907465 0.016177507 0.027727097 -0.01834886 0.047403604 0.0029972333 -0.03380546
0.02873864 0.021384535 -0.046888873 -0.0072863917 -0.017501507 0.021341195 0.022846991 -0.037838954
-0.0032607052 0.011544673 0.0013033601 -0.02889949 0.029368639 -0.0099758 -0.012816301 -0.02878005
-0.007924757 0.0045985393 0.024740329 -0.019693073 -0.01959587 0.030889655 -0.0027049524 0.02000391
-0.03331127 -0.054314967 0.0015667304 0.033236675 -0.013743476 -0.043086305 -0.025137275 -0.029995535
0.002787764 0.028793579 0.0037152197 0.038151667 -0.02629029 0.004562833 0.03820192 -0.009600543
0.011768188 0.025369128 0.0062351734 0.0033806388 -0.05060482 0.019044094 0.032366503 -0.05560423
-0.017386938 -0.045852955 -0.0121822925 0.0036329587 0.029262325 -0.02342392 0.022996511 0.02453879
0.017116964 0.045279067 0.040927965 -0.019590637 0.06000088 -0.019494837 0.06439057 0.043533247
0.0019558596 -0.006468822 0.06732097 0.02359246 0.01480792 -0.012915401 -0.01092298 0.0029073504
-0.018112449 -0.0055804453 -0.056473356 -0.062061466 -0.007729579 0.018772142 0.016866248 0.017063985
0.027201923 -0.007218951 0.015020867 -0.010514386 0.0008262632 0.0511608 0.024620067 -0.050528593
-0.039103646 -0.005371339 -0.0052720276 -0.0014502372 0.006948859 -0.036805507 0.070821024 0.05587053
-0.031476304 0.026949871 0.047959592 -0.021659696 0.013639328 0.06862088 0.075290374 -0.044987846
-0.024506917 0.0029023222 -0.0403712 -0.015729671 -0.013713979 -0.02109246 -0.029295977 -0.054994915
-0.023915833 0.031054568 0.002761704 0.06059617 -0.034574565 -0.05354031 -0.004518022 0.0034520929
-0.013119804 0.0044002687 0.01395687 0.0063706166 0.021539502 -0.03612897 -0.046241865 -0.013741818
0.01970503 0.024962598 0.011787137 -0.020888729 -0.034610562 -0.013543922 -0.040677547 -0.016785014
0.007937565 -0.054502096 -0.0021434876 0.031324297 0.027704958 -0.05571865 -0.03701348 -0.021649705
-0.024235878 0.035893183 0.0025946628 0.035401464 -0.017622493 -0.018741278 0.051836636 0.005954801

sequential_6/dense_11/BiasAdd/ReadVariableOp f4 [24]
00000000: 812e 663c c479 a83c c368 883c c9ce 8c3b
00000010: db8b 933c 0598 dcbb b38e b13b a303 9ebb
00000020: 3f7f d439 3379 983c add0 9d3c 385d fd3b
00000030: e09d 06bc 2bdf 0d3c 74a7 3a3c 9896 ea3b
00000040: 8af2 893c 02cd d93b 97e2 05bb 30f9 993c
00000050: 0e06 583c f34d fb3b 3c7e 5a3c 0588 883c
0.014049173 0.020565875 0.016651517 0.0042971116 0.018011024 -0.0067319893 0.0054186224 -0.004822211
0.00040530597 0.01861248 0.019264543 0.00773206 -0.008216351 0.008659164 0.011392463 0.0071590655
0.016839284 0.0066467533 -0.0020429248 0.01879558 0.013185037 0.0076692044 0.013335761 0.016666422

sequential_6/dense_11/MatMul f4 [24, 32]
00000000: fd10 fe3d 2082 a43d 7154 76be 4230 483d
00000010: 2b59 18bd ffd8 61be 94db 4c3d 5407 16bc
00000020: 9514 6b3e df81 c5bd 17fd 53be 3ab5 1b3e
00000030: 163c 24bd abda 0e3e 09b4 91be 61f8 24bd
00000040: 384b 993e df4f 81be b61d 873e 8a1d 8f3e
00000050: 384c 3cbe cc73 79be 10c7 debd de53 ad3e
00000060: 5c29 733c 3627 7bbe b047 a63d 80a9 bb3d
00000070: ad4b a3be e79e 9b3e 2627 2fbe 3ee4 053d
00000080: 7045 92bd fe70 78be f993 f63d 3b15 d53d
00000090: 231f 2abc 13dd 6f3e 02f9 813e 653b 4fbe
000000a0: dc1c afbe 658f 92bd 461c 04be 5cb4 813e
000000b0: 7817 afbe 861c 213e be56 87be b7e9 96be
000000c0: f3aa 7ebe 0b22 193e ae0d 6bbd f5f0 aabd
000000d0: dd6d 233e d944 8a3e 8832 89be 4bad d8bd
000000e0: 354c b7bc bf6c 943e 6db3 903e a427 9b3d
000000f0: be56 f7bd 9293 193e 927f 983e 71b9 8cbe
00000100: 4efb 2a3e 7312 b53c ae55 92be 7398 bfbd
00000110: f50a c33d 598b ddbd e292 8d3e ba75 a53c
00000120: cf12 a53d ed5b 88be ae89 813e 33bc 9ebe
00000130: 7dd6 d1bd 1037 2a3e 117a ff3d 093b 6bbe
00000140: f992 35bb 0b70 3abe c9ef 4ebe 0515 1dbe
00000150: b956 2abe e143 b33e c255 03be d41e 36be
00000160: 79e4 473e c399 963e b523 45be 9d77 d0bd
00000170: 686c 353e 29b4 7abe b549 98be b08c aabe
00000180: 4fd0 db3d 71f8 fabb 999f 193c 74bc c63d
00000190: bed4 903e 129d 8a3e 91f7 093c 9558 96be
000001a0: 3a49 62bd 0a4f a3be 3110 17be e0e6 8bbe
000001b0: 0f5b 963e f021 c23d 6d2c 05be 4221 4a3e
000001c0: c26d a3be 9b25 1cbd 9282 f7bd 55a3 3abe
000001d0: 1695 99be d225 473e 8cbd 8b3d 093b 793e
000001e0: fe88 703e 05f9 c13d d4c1 16bd 0acf 803e
000001f0: 12f9 acbc 5b7e 4bbe 1939 be3c 3ae3 84be
00000200: 7d2c 8abe 9c62 58be eede 4a3d 2013 4b3e
00000210: b9ba 31bd 1b3e 413b 054b c43d b16f 7f3c
00000220: 1cc5 333e 119d 803e 32ec b2be 3471 5d3e
00000230: a0e0 1abe 0c4f 42be bf7f f33d 98ef 16be
00000240: ce4f 9d3d f252 fe3d 60b7 b4bd c738 a73c
00000250: 68f1 87be 7376 a63d 057b 74bb d4fa 96bc
00000260: 24e6 49be 6685 aabe 7b62 66be 5985 fabd
00000270: 3160 56bd 0de4 6dbd 2d67 aebe d609 dfbb
00000280: 7896 9f3e b9d0 a13e 5654 5abe 133f 7b3e
00000290: 27a0 983e 2cc7 173e ab99 74be ac27 d5bc
000002a0: ea8e b83d d5ef b13c a68f 79be 6d90 333d
000002b0: 84c7 9d3c fcaa 16be 8de2 753e a3ed 3a3e
000002c0: 0313 493d f4ac c13d 27d6 66bd 7e9a 783d
000002d0: d972 9e3e 987b 2dbe 3713 8bbe 2e23 8fbe
000002e0: f8c4 efbd 5264 713e 2851 2d3e 2cd9 163e
000002f0: 53f9 b6bd e478 833e d356 893e 9dfb 9ebe
00000300: caff a2bd 0b7b 8abd 790e 2c3e 73bb 4bbd
00000310: 0735 52bc 3563 6d3e c535 4d3d c0ec 513d
00000320: efaf 26bd ccf1 423e 94bd 4e3e 81a3 09bd
00000330: 3d19 9b3e ec70 82be 2fd3 293e a697 cf3d
00000340: d977 85bd 7619 96be 5d86 003e 2cf3 2b3e
00000350: 4026 8ebd 7f48 d73c aa28 8cbe fc32 543e
00000360: 9e15 8a3e c9d1 c43d 437f 0bbe cf5f 6cbd
00000370: 0617 18be 8ff3 293e 148a 8f3e 0761 68bd
00000380: d0e3 743e 8617 91be 741a d93d 3c43 d33d
00000390: b750 fe3b 5760 3c3e c294 39bd 1d5f b03d
000003a0: 5014 85be 9ddb 513e afb3 f9bc 9b5c 5cbd
000003b0: e1f3 473e 9dfe 40be 6685 a0bb 1fa9 713e
000003c0: 0831 463e 7a7b 7f3e 63bd 5d3e e293 47be
000003d0: 052b 073e a49d 823e 59a0 94be 07c7 4d3e
000003e0: 1d9a 253e 0135 eb3d 9136 a7be 9d82 2c3d
000003f0: 9dce f3bd 3ba6 50be dd49 cabd 06f5 99be
0.12405584 0.08032632 -0.2405565 0.048874147 -0.037194412 -0.22055434 0.050014094 -0.009157021
0.2295707 -0.096439116 -0.20702015 0.15205851 -0.040096365 0.13950603 -0.28457668 -0.040275935
0.299402 -0.2525625 0.26389855 0.27952224 -0.1838845 -0.24360579 -0.10877812 0.33853048
0.014841404 -0.24526677 0.08119142 0.09163189 -0.31893674 0.3039467 -0.17104778 0.03268837
-0.071421504 -0.24261853 0.12039942 0.1040444 -0.0103834 0.23424177 0.2538529 -0.20237501
-0.34201705 -0.071562566 -0.1290141 0.25332916 -0.34197593 0.15733537 -0.26433367 -0.29475185
-0.248699 0.14954393 -0.057386093 -0.0834674 0.15959878 0.27005652 -0.26796365 -0.10579928
-0.022375206 0.28989217 0.2826189 0.0757592 -0.12077092 0.149977 0.29784828 -0.2748523
0.16697428 0.022103524 -0.28580993 -0.09355249 0.09523574 -0.10817594 0.27651125 0.020197738
0.08060228 -0.26632634 0.25300354 -0.3100296 -0.102459885 0.16622567 0.12474454 -0.22971739
-0.002770601 -0.18206804 -0.20208658 -0.1534005 -0.16634645 0.35012725 -0.12825683 -0.17785197
0.19520749 0.29414186 -0.19251902 -0.101790644 0.17717135 -0.24482788 -0.29743734 -0.3331046
0.10733091 -0.007659011 0.00937643 0.09703913 0.2828731 0.2707296 0.008420841 -0.29364458
-0.055245616 -0.3189624 -0.1475227 -0.2732458 0.29366347 0.09479129 -0.13005228 0.1973925
-0.31919676 -0.0381218 -0.12085451 -0.18226369 -0.29996556 0.19448021 0.068232626 0.24338926
0.23489758 0.09471325 -0.036805943 0.25157958 -0.02111486 -0.1987242 0.023220586 -0.2595461
-0.26987067 -0.21131366 0.04952901 0.19831514 -0.043390963 0.002948648 0.09584621 0.015590594
0.1755566 0.25119832 -0.34945828 0.21625215 -0.1512475 -0.18975466 0.118896 -0.14739835
0.07681237 0.12418164 -0.088240385 0.020412816 -0.26551366 0.08128061 -0.003730477 -0.018430151
-0.19716698 -0.333049 -0.22498505 -0.12232465 -0.05233783 -0.058078814 -0.34063092 -0.0068065925
0.31169486 0.31604555 -0.21321234 0.2453578 0.29809687 0.14822072 -0.23886745 -0.026019894
0.09011634 0.021720806 -0.24371204 0.043838907 0.019260176 -0.14713663 0.24012204 0.18254714
0.049090397 0.09456816 -0.056356575 0.06069421 0.30946997 -0.16941679 -0.27163097 -0.27956527
-0.11707491 0.23573425 0.1692549 0.14731282 -0.089342736 0.2567817 0.26824054 -0.3105134
-0.07958944 -0.0676175 0.16802396 -0.049739312 -0.0128300255 0.23182376 0.050100107 0.051251173
-0.040695127 0.1903755 0.20189506 -0.033603195 0.30292693 -0.25476778 0.16584466 0.101363465
-0.06517 -0.293163 0.12551256 0.16791981 -0.06940889 0.026279686 -0.27374774 0.20722574
0.26969618 0.09610326 -0.13622765 -0.057708558 -0.14852533 0.16596816 0.28035033 -0.056733157
0.23915029 -0.2833826 0.10600749 0.10315558 0.007761087 0.18396126 -0.045307882 0.086118914
-0.2599206 0.20493932 -0.030481188 -0.053799253 0.19526626 -0.18847127 -0.004898715 0.23599671
0.19354641 0.24949446 0.21654277 -0.19490007 0.13200004 0.25510895 -0.29028586 0.20095454
0.16172071 0.11484719 -0.32658818 0.04211675 -0.11904643 -0.20375912 -0.098773696 -0.3006975

sequential_6/dense_13/MatMul f4 [1, 8]
00000000: abbb ee3e d1b7 bbbe 1bfb 06bf 879e 263f
00000010: 95be f9be 3798 dd3e 41b3 44bf 0caa 133f
0.46627554 -0.36663678 -0.52726907 0.65085644 -0.48778215 0.43280193 -0.7683602 0.57681346

sequential_6/lstm_5/Read_2/ReadVariableOp1 f4 [256]
00000000: 9452 8e3c b5bd 4a3c e38e 663c 4b1e 18bb
00000010: 2075 333c 72f8 093c f1c2 fbbb 1837 333c
00000020: dcdd a53c 3ffc 1cbc b2f7 a23c 63ab 243c
00000030: 9d54 843c 4086 edbb 6c97 9e3c 302f 143b
00000040: 16ba 6aba ebc4 b73c 60bf 973c 8032 cf3c
00000050: 5142 7d3c 64c6 ba3b 6759 873c 7e9e 5a3b
00000060: af4a 76bb 4efa e73b beac 943c 4322 a63b
00000070: 34b0 9e3c 6f06 d0bb aad9 9dbb ac0a 743c
00000080: 45f4 e63c 150d 0e3c a85b b33c 64f4 7a3c
00000090: a324 7b3b 1a18 c53c 0c24 963b 5892 8b3c
000000a0: 9da9 303c c5a8 ef3b 6beb 0e3c 3532 333c
000000b0: c184 373b 5570 4cbc bcbb b0ba b995 9e3c
000000c0: a857 823c d361 63bb eb0e df3c dc16 2a3c
000000d0: 3b4b bd3b 0d65 843c eebb 003c 8117 f1b7
000000e0: b4f0 b63b 139f a73c 3b5b a03c 7057 8239
000000f0: ee8b c33c 64b4 993b cc27 643b 55ea 223c
00000100: 004f 823f 1979 813f 2eb5 813f 047b 7f3f
00000110: 7f59 813f 1cfd 803f a654 7e3f 414c 813f
00000120: 5393 823f 3874 7d3f 7f79 823f ea39 813f
00000130: ee08 823f d228 7e3f 277d 823f 9e15 803f
00000140: 03b3 7f3f 1cd2 823f f256 823f 2515 833f
00000150: d6df 813f 40e3 803f ed14 823f e56c 803f
00000160: dfe9 7e3f 87f4 803f 9830 823f 8a82 803f
00000170: 0071 823f 406f 7e3f 3ebc 7e3f 75c7 813f
00000180: 0697 833f f61c 813f 64f8 823f f00d 823f
00000190: 0378 803f fe36 833f 5988 803f d737 823f
000001a0: e673 813f d702 813f da3d 813f b156 813f
000001b0: 6b63 803f 9d81 7c3f 1fba 7f3f 4d93 823f
000001c0: dcfd 813f 58fe 7e3f 265d 833f 1045 813f
000001d0: c8d0 803f 801a 823f 9216 813f bceb 7f3f
000001e0: 2dca 803f 488b 823f 5f7b 823f 770c 803f
000001f0: 5d0e 833f 3088 803f 5771 803f 8194 813f
00000200: ba38 80bb 29e7 dbba 3797 38bb 9729 923b
00000210: 41ba b4b8 ab67 cc3a f2d4 80ba 13ea eeba
00000220: 1a9e 9f37 f94a b3bb 5e5d 4e3b 7a8d 233b
00000230: d56c 193a 08e2 b3bb 327a 863b 4d14 62bb
00000240: 4713 deba d5b6 45ba b24c 4c39 9b33 a73a
00000250: 4be2 503a 940b a53a 6c19 fb38 3a19 fe3a
00000260: 9b98 ec3a 9874 783a 441b 8f3a 5ce9 3f3b
00000270: af18 66bb 6a18 68bb 97bd 0cbb 6553 9f3a
00000280: 75d2 ce39 2d1c 4c3a 6175 6cbb ec7c 9abb
00000290: e95f dd3a 0c9e 843b 3d89 8dba c1c9 703b
000002a0: d5ab 88bb 2a69 b43b 4352 fabb b407 153a
000002b0: e829 c2bb b3bf 3e3b b5d5 3f3a 07a9 833a
000002c0: 9ff6 a9bb 381b f0ba b57b 8aba e6fa cdba
000002d0: 1dc4 cd3a 65f6 8b3b 999a 62bb a95f e53b
000002e0: 6e54 7f3b 37b6 41bb b1c7 a23a e9e2 373a
000002f0: 5cd3 98bb 52e0 ba3a d190 95bb a8ca 063b
00000300: 0beb 8a3c db08 4a3c b7a9 663c 379a 19bb
00000310: 63eb 313c 41f7 053c 2daa fabb 395b 2f3c
00000320: f1bf 9f3c bbea 1dbc 0644 9e3c 1272 1f3c
00000330: ed3a 7f3c 6f49 efbb 28fc 9a3c 3d40 1b3b
00000340: 1cff 79ba a0ed b03c 1650 943c 0c4f cb3c
00000350: 912f 793c c015 b83b 5c99 843c 8c9e 5b3b
00000360: 0e4d 72bb 9fca dd3b fd62 933c 1505 a13b
00000370: 9ae1 963c 390b d6bb 129b 9ebb b507 703c
00000380: 9267 e23c f6bf 033c 8886 b03c b77e 743c
00000390: ddc1 783b 5bae c23c 2f18 953b 3105 8a3c
000003a0: a09f 2c3c f98e e73b ec96 0b3c 250b 2b3c
000003b0: 689b 363b b8c7 4cbc 3f72 b7ba 3c3e 9d3c
000003c0: 874f 803c 470b 65bb 2cbd d93c 0b5b 283c
000003d0: c534 bd3b 5a5e 7f3c 5128 f83b 28d4 a4b8
000003e0: 0d0a b43b 67ad a33c 30b0 9a3c bbb6 7d39
000003f0: 8496 c23c 5f6e 983b b4d6 633b aa4d 223c
0.01737336 0.012374331 0.014072153 -0.0023211415 0.010953218 0.00842105 -0.007683151 0.010938428
0.020247392 -0.0095816245 0.019893501 0.010050627 0.016153628 -0.00724867 0.019359313 0.0022611134
-0.00089541206 0.022432765 0.018523872 0.025292635 0.015457706 0.0056999195 0.016522123 0.003335863
-0.0037581136 0.007079399 0.018148776 0.0050700023 0.01937113 -0.006348423 -0.0048172073 0.0148951225
0.028192649 0.008670111 0.021894291 0.015317056 0.0038321398 0.024059344 0.004581934 0.017037556
0.010782626 0.00731382 0.00872312 0.010937263 0.0028002711 -0.012477954 -0.0013483684 0.019358503
0.015910938 -0.003469576 0.027228793 0.010381427 0.0057767904 0.016161466 0.007857306 -2.8740384e-05
0.0055828933 0.020461595 0.019574752 0.00024860678 0.023870435 0.0046906937 0.003481376 0.009943564
1.0180359 1.0115081 1.0133417 0.9979708 1.0105437 1.0077243 0.99347913 1.0101396
1.020121 0.9900546 1.0193328 1.0095799 1.0158975 0.99281037 1.0194443 1.0006597
0.99882525 1.022037 1.0182784 1.0240828 1.0146434 1.0069351 1.0162636 1.0033232
0.9957561 1.0074624 1.017108 1.0039837 1.0190735 0.99388504 0.99505985 1.0138994
1.0280464 1.0086963 1.0232053 1.0160503 1.0036625 1.0251157 1.004161 1.0173291
1.0113494 1.0078992 1.0097001 1.0104581 1.003034 0.98635274 0.99893373 1.0201203
1.0155597 0.9960685 1.0262802 1.0099201 1.0063715 1.0164337 1.0085013 0.9996908
1.0061699 1.0198755 1.01939 1.0003804 1.0238758 1.0041561 1.0034589 1.0123445
-0.0039130123 -0.0016777265 -0.0028166303 0.0044605243 -8.617761e-05 0.001559486 -0.0009829088 -0.0018227719
1.9027899e-05 -0.005471584 0.0031488757 0.0024956153 0.0005852704 -0.0054895915 0.0041039223 -0.0034496963
-0.0016943001 -0.0007542198 0.00019483527 0.0012756468 0.00079682906 0.0012591952 0.00011973348 0.001938618
0.0018050851 0.0009477823 0.001091816 0.002928338 -0.0035109927 -0.0035414943 -0.002147531 0.0012155591
0.00039448185 0.0007786181 -0.0036080705 -0.004714599 0.0016889545 0.004047161 -0.0010798346 0.0036741348
-0.0041708746 0.0055057006 -0.007639201 0.0005685047 -0.005925406 0.002910596 0.00073179166 0.0010044881
-0.00518687 -0.0018318659 -0.0010565432 -0.0015715032 0.0015698705 0.004271316 -0.003457701 0.006999929
0.0038960236 -0.0029558071 0.0012419132 0.0007014708 -0.004663868 0.0014257526 -0.0045643826 0.002056757
0.01695778 0.012331213 0.014078549 -0.0023437866 0.010859343 0.008176626 -0.007649681 0.0107029015
0.019500704 -0.009638484 0.019319545 0.009731786 0.015578014 -0.007302455 0.018919066 0.0023689412
-0.00095366105 0.021597683 0.018104594 0.024817966 0.015209095 0.005617827 0.016186409 0.003351125
-0.0036972198 0.006768539 0.017991537 0.004913936 0.018418122 -0.0065320996 -0.004840263 0.014650275
0.027637277 0.0080413725 0.021548524 0.014922789 0.0037957348 0.02376478 0.004550002 0.016848179
0.010536104 0.007066604 0.008519869 0.010439669 0.0027863625 -0.012498789 -0.001399584 0.019194715
0.015662922 -0.0034949349 0.026579462 0.010275613 0.005774113 0.01558646 0.0075731655 -7.8596466e-05
0.005494362 0.019980146 0.01888284 0.00024196033 0.023753412 0.004651829 0.0034765424 0.009906212

while/MatMul_11 f4 [256, 64]
00000000: 2bbf 223d 516a ddbc 9998 c6bc 1e79 acbb
00000010: 588c a63d e90d 5fbc e756 753d bafe febc
00000020: aff6 863c 68c4 333d 5a4e a43b 0881 513d
00000030: 454b 893c 9aa4 2ebd b82e 89bc 2cf9 b1bd
00000040: 7fe1 35bd 2d78 ca3c 530e 473d 7241 98bd
00000050: 8e0f 303d 28e5 65bb b2df 8a3c 2747 f03c
00000060: f64e 213d feb8 a33d e498 e9bd 18b1 f5bb
00000070: 41a3 25bd 7851 74bd 62b8 eabd 6a62 003d
00000080: acd6 813c 36e6 953b 5e2e 703c 7e25 40bd
00000090: 4573 023d 0eed 14bd 93ce 533c 264a afbc
000000a0: 5798 54bb f5f0 66bd 0aa0 783d 69cb 8f3c
000000b0: 5c41 a23b 0755 c73c f070 1a3e f023 c6ba
000000c0: 88ed 273d 3a27 db3c 3d6b bebd c2a4 24be
000000d0: 7184 81bb f0bc 40bd 7ea6 77bd 8dc7 3f3e
000000e0: f422 9fbd 8635 fd3d a9cc ecbd 832d 813d
000000f0: 32e0 88bc bb36 003c 71d6 fb3c 8267 df3d
00000100: ee42 d83d 9c4a 8f3d 058e ee3a 7719 b63d
00000110: d63d b63c 05cf 543d 4886 aabc ece4 31bd
00000120: a189 26be 263f abbd 3e2b f6bd 1b87 8a3c
00000130: c6ed 26bd 0fe3 523c 2323 65bc 4a0f 943d
00000140: bfc3 d53d 51fa cebd c3f8 133b dcde df3c
00000150: eb17 793d 632b 5ebd e0da 073c 133e 06bd
00000160: 3840 823d dfe2 533d 5194 1a3d 77e5 023d
00000170: 9eb2 ecbd f489 e13d dcf2 2b3d d0a7 053c
00000180: adfc 543d 2b14 bd3d dacc bb3d 3676 4bbd
00000190: 6fe0 f23b 49c0 c13d ee51 3cbd ba3a 263e
000001a0: bbc3 1dbb 064c 59bd db44 543b f7ff 393c
000001b0: 9d4e 7dbc 3221 783d 2d53 99bd 98da 0ebd
000001c0: 5d84 84bd 127e 413b 244a c03b 57d9 10bd
000001d0: 2955 933c 1e2d ecbc 609d e5bd 002b 6fbc
000001e0: 415b fdbc cbb6 59bd a6cf a3bd 94f5 943d
000001f0: 46af b53c 68d8 78bc 2143 babc dc31 273d
00000200: b737 6cbc 3b12 cfbc bb48 20bd 8929 e73c
00000210: ba11 893d 39a4 af3d 6d3c d83d 6fcc 1b3e
00000220: 4199 92bd c431 32bd 74d2 e13d 462d a3bd
00000230: 0e46 46bd e826 a93d 13fa 14bd e4b6 a43d
00000240: 2378 83bc 7e43 7c3d 3ea2 83bd bb08 e9bc
00000250: 264c 3bbd 8688 d9bc 0c17 a4ba 3dd1 293d
00000260: 1930 2e3d 0128 7cbc 579d fd3d f93b a0bc
00000270: c7a1 edbc 73c1 88bd d1eb 7b3d 1767 5e3d
00000280: 3821 b4bd 2f82 51bd cdad c8bd c91f e23d
00000290: 0ce6 b3bc 42d5 cd3c 962a 7f39 7a52 cd3d
000002a0: 825e 983d 2729 9dbc 1e30 143d 55e2 d6bb
000002b0: 19c0 1a3e 917d f63d 70d4 bfbd c33d 78bd
000002c0: 4935 05be 7028 58bd 59d6 aa3d 0a5d f0bd
000002d0: 902f e43d c454 03bd eb7f b43b c6f3 50bd
000002e0: bfc7 0a3d 5490 a1bd 7050 063b 4081 fa3d
000002f0: 09c8 353c d9d2 5f3c 79b7 47bc 1136 8ab9
00000300: b39d b43c 16e4 11bd 0520 d3bd 753f 07be
00000310: ea57 b1bb de23 853d 83c7 cd3d 51f4 33bd
00000320: d3f8 093d 7597 b53c 6684 1abd 633a 16bd
00000330: a1af b7bd 6f0c 973c 301f 80bd 1f5e c13c
00000340: 17ce b0bc 6615 803d d20e 7b3d f905 1a3c
00000350: b4a2 55bb 628d 723c a655 64bd f8e7 463c
00000360: 243c 5b3d 7e2e f13b 7e0b d73c 4971 143d
00000370: 5b97 2dbd ce28 aa3d ba2a 1abb 81ba 2e3d
00000380: b54e 85bd ca9a 413d a4f2 a4bc cccb 75bd
00000390: b62f d8bd 7ff1 c13c aee0 053d 8d4a 613d
000003a0: ec1f ccbd 0058 c83d ee67 35bc d763 303e
000003b0: 958d 58be c32c 83bd 365c 7fbd 4830 873d
000003c0: 0289 dbbd 1172 3dbd 5063 7b3d 9900 7ebd
000003d0: 5dc4 a43c 8d57 693d 6deb c63b 3f0b 143e
000003e0: 73fe 7bbd aa4c 4ebd 8e5b 9e3d f289 ca3c
000003f0: b01f 5a3c c4e6 c73c 2974 b83d f859 f6bd
0.039733093 -0.027028235 -0.024242686 -0.0052634617 0.08132237 -0.013614156 0.05989733 -0.031127322
0.01647505 0.04388848 0.005014223 0.051148444 0.016759524 -0.042637445 -0.01674591 -0.08690104
-0.044404503 0.024715507 0.048597645 -0.07434358 0.042983584 -0.0035079215 0.01695237 0.029330803
0.039381944 0.07994269 -0.11406115 -0.007497918 -0.040438894 -0.059648007 -0.114609495 0.031343855
0.015849434 0.0045745624 0.014659492 -0.046910755 0.03184821 -0.036358885 0.012927669 -0.021397661
-0.0032439434 -0.05638214 0.0606995 0.017553048 0.004951639 0.024332536 0.15082145 -0.0015116911
0.04099801 0.026752103 -0.09297798 -0.16078475 -0.003952556 -0.047055185 -0.060461514 0.18728466
-0.07770339 0.123637244 -0.11562473 0.06307509 -0.016708467 0.007825549 0.030741902 0.109084144
0.10559641 0.069966525 0.0018200284 0.08891576 0.022246283 0.05195524 -0.020815983 -0.043431208
-0.16263439 -0.08361654 -0.120199665 0.016910126 -0.040754102 0.012871518 -0.013985428 0.07229479
0.10437726 -0.10106338 0.0022578693 0.027327947 0.060813826 -0.054240596 0.00829193 -0.032774042
0.06359905 0.051730033 0.0377391 0.031957116 -0.11557506 0.110126406 0.041979656 0.008157685
0.051998783 0.09232362 0.09169932 -0.04967328 0.0074120085 0.094605036 -0.04597657 0.1623334
-0.0024072963 -0.053051017 0.0032389674 0.011352531 -0.015460637 0.060578533 -0.07486568 -0.034876436
-0.06470559 0.0029524607 0.0058682133 -0.03536352 0.017984943 -0.028830107 -0.112116575 -0.014597654
-0.030927302 -0.05315284 -0.0799859 0.07273403 0.022178303 -0.015188314 -0.022737088 0.040819034
-0.01441758 -0.025277248 -0.03913186 0.028218048 0.06692834 0.08576245 0.105584 0.15214704
-0.07158137 -0.04350449 0.11026469 -0.079676196 -0.048406653 0.08259374 -0.0363713 0.08042696
-0.016048497 0.061587803 -0.064274296 -0.028446546 -0.045726918 -0.026554357 -0.0012519076 0.04145931
0.04252634 -0.015390397 0.12383526 -0.019559847 -0.029007806 -0.066775225 0.06150419 0.054297533
-0.087953985 -0.051149543 -0.09798775 0.11041219 -0.02196028 0.025126103 0.0002433456 0.10025497
0.07439901 -0.019184662 0.0361787 -0.0065577426 0.15112342 0.12035669 -0.09366691 -0.060605776
-0.13008608 -0.05277294 0.08341665 -0.11736496 0.11141884 -0.03206326 0.005508413 -0.05101373
0.0338819 -0.078888565 0.0020494722 0.12231684 0.011095055 0.01366111 -0.012189739 -0.00026361694
0.022047853 -0.03561791 -0.103088416 -0.132078 -0.0054120915 0.06500982 0.100478195 -0.04393417
0.033684563 0.022166947 -0.03772392 -0.036676776 -0.089690454 0.018438546 -0.062559485 0.02360445
-0.021582646 0.062540814 0.06129343 0.009400838 -0.00325982 0.014804216 -0.055745743 0.012140267
0.05352415 0.0073602786 0.026250597 0.03624085 -0.042380672 0.08308564 -0.0023524002 0.042658333
-0.06509153 0.04726676 -0.020135231 -0.06000881 -0.10555975 0.023674725 0.032684974 0.055002738
-0.09967026 0.0978241 -0.011072142 0.17225586 -0.2114776 -0.06405022 -0.0623438 0.06601006
-0.107194915 -0.04625136 0.06137401 -0.06201229 0.020113165 0.05696826 0.0060705454 0.14457415
-0.06152196 -0.05036608 0.077323064 0.02472398 0.013313219 0.02440203 0.09006531 -0.12028879

while/MatMul f4 [256, 16]
00000000: ec66 8f3c b266 263d 2259 4e3d e27a f63c
00000010: 2fad 8f3b d17b 1abe 92fb 073e a40c 4c3d
00000020: e862 9e3c 0ae7 de3d f7df 8c3d 9526 a53d
00000030: 3fd4 45bd 6e4f b8bd 669f 6fbd 5d8e c7bb
00000040: e717 65bc 2310 203d aeff a8bd 6550 a4bd
00000050: c577 8b3c 886e 333d 9c94 8cba f99f 423c
00000060: 588d 423d f549 e23d 77c5 51bd a1cd 073e
00000070: 9cbc 0d3d fcd8 e93d 73a8 dabd 7d57 08be
00000080: 7084 013e 0eb1 463d 3df7 333c 5d6f ad3d
00000090: d032 bfbd d118 f5bc ff57 e63d 647b dabd
000000a0: 7da1 c4bd 3e22 0e3e f64c cfbd 24d4 1bbd
000000b0: fbd7 563d dba6 b33d 206e 633d 6f2e 33bc
000000c0: 5f82 00be f749 323c de20 873c 5eee 163e
000000d0: ed35 5ebd 9ccb bfbc c056 9aba f0a4 c33d
000000e0: 57f6 8ebd a770 acbd 7b0f d7bd a3fc bbbd
000000f0: 78a3 ebbd 4739 cebd 9304 433d 7a72 bfbd
00000100: 96fa cb3c 606d e73d c57e 58bd 64e0 eb3d
00000110: d255 b73d 5471 193e 87a0 7fbc 2183 f93c
00000120: 984b c83d a83c 5ebd 2a61 7f3b 57a2 24bd
00000130: 44ea 1c3e b7b9 07be a6e4 1a3d 9f53 a1bd
00000140: 476b 10be 4152 d33d 61f6 02be 77b6 153e
00000150: fb34 fe3d b641 05bd b4c7 3cbd 4aa5 d83d
00000160: 0c08 1abc 356f fabd a214 fcbc 7b8e 9bbd
00000170: 717b 3c3d aea6 713d 072b a8bd 0d69 883c
00000180: fb93 103e c37a 73bd ba05 3d3d 1c89 b7bd
00000190: 79a8 0a3e d23d 613c b0e0 5dbd 9edd f8bd
000001a0: 6a7a ac3d 7992 953d d3e3 0a3e 9296 823d
000001b0: 459e b43d 691c 82bc f7a5 6ebd 2fd1 16be
000001c0: 2d71 143e 554b 17be cd56 96bd edbd 123e
000001d0: b12a c2bd 7258 67bc bb8a 0f3e d396 1d3d
000001e0: 914e dc3d 87c3 10be c11f cb3d d9dd 10be
000001f0: 4a8a 8f3d aa82 b0bc ab3e abbd 3ef1 c3bd
00000200: 8e1f 9dbd 4780 cdbd db96 8cbd 9544 5abd
00000210: 77d0 0ebe 154c b83d 4cb4 26bd 446b c6bd
00000220: 506b 3ebd db33 6e3d 180c b1bd 0396 70bd
00000230: 2755 d6bc 3cbc 0b3e 6f8c d1bd 5d4c 06bd
00000240: f00b 4b3d 9c70 59bd 43ef 20bd dce1 57bd
00000250: 4e4c d53d 8309 383d 97b1 543c 67ba f83c
00000260: 4211 a73d ae21 60bd a448 b2bc 5c26 053d
00000270: 9792 2d3c 4ae8 103e dce8 ad3c 87e5 d6bd
00000280: 23f7 65bd 78a3 dd3d 134c e93c 7470 1cbd
00000290: 8440 9cbc e6fc bebd 2334 c2bd 6502 c0bc
000002a0: 0668 833d 7453 fa3d 45af a6bc a2ea 00be
000002b0: 8547 90bd 6dbf 343d ccde b73d 52fb c93d
000002c0: 37b9 bd3d c141 9cbd b13f b8bd 2c8b ba3d
000002d0: a083 67bc 3386 b43c 4371 3fbc 4b7d 973d
000002e0: f612 d73d 1dc6 15be 0726 ba3d bdef 8e3c
000002f0: 2a01 1c3e 0719 973c 8faa ccbd 7194 c23d
00000300: 8368 20bd 1b80 2abd 0431 683d b951 00be
00000310: 3e8c 69bd 4642 313d 8864 863b 07c4 03be
00000320: de19 6f3c f242 eabd 9583 44bc b29f ddbd
00000330: e01c c5bc 264e 893d 166a a23d cabb f63d
00000340: 62f8 083e 3565 c53d 13c2 42bd 1c25 d33d
00000350: e1e2 d53d 722b af3d cc06 d4bd 9cb4 d73d
00000360: c530 c8bd 853c c9bd ef1c f33c d51f 0ebe
00000370: c6bb 853b 34e9 bb3d f1d6 0abd 821b fd3d
00000380: 124d 8e3d eb8b d5bc a8b5 efbd da48 e0bc
00000390: 2d0d 5c3d f75d 003e 2621 f13c 686a a2bd
000003a0: f9ed 4f3c 952c 06be 7b50 7b3d 64ce a53d
000003b0: b37a b2bd b5f2 933d 60ae 623d 3566 fe3c
000003c0: f8dc 063d 098e a0bd c969 dabd 1fdf 6d3d
000003d0: af98 5cbd 091c 98bd ab42 c9bd f96a c7bd
000003e0: 922e 793a 4d12 c9bd 0ee1 0bbe 6198 7d3d
000003f0: ae2f 1d3c 96c4 113e 7a22 f73c 7a83 46bd
0.017505132 0.04062528 0.050377972 0.030087892 0.0043846588 -0.15086295 0.1327956 0.049816743
0.019334272 0.10883911 0.068786554 0.080639996 -0.048298117 -0.08999525 -0.058501624 -0.006089969
-0.01398275 0.03907789 -0.08251892 -0.080231465 0.017024884 0.043806583 -0.0010725441 0.011878961
0.047498077 0.110492624 -0.051213708 0.13262035 0.0346037 0.114183396 -0.106766604 -0.13314624
0.12648177 0.048508696 0.010984239 0.084685065 -0.093358636 -0.02991906 0.11247253 -0.10668066
-0.09601114 0.1388025 -0.10122101 -0.03804411 0.05245207 0.087720595 0.055524945 -0.010936364
-0.12549733 0.010881892 0.016495164 0.14739367 -0.054250646 -0.023412518 -0.0011775121 0.09552944
-0.06980579 -0.08419924 -0.105009995 -0.09179046 -0.115057886 -0.100695185 0.047611784 -0.093480065
0.024899762 0.113001585 -0.05285527 0.115174085 0.08951916 0.14984637 -0.015602238 0.030458035
0.09780043 -0.054257065 0.0038967826 -0.04019388 0.1532374 -0.13254438 0.037815712 -0.078772776
-0.14103423 0.10318423 -0.12789299 0.14620386 0.12412449 -0.03253337 -0.04608889 0.105784014
-0.009401333 -0.12228242 -0.030771557 -0.07595535 0.04601616 0.05899685 -0.08211332 0.016651655
0.1411895 -0.059443247 0.04614804 -0.089616984 0.1354083 0.013747649 -0.054169357 -0.12151645
0.08421786 0.07303328 0.1356347 0.06376375 0.0881925 -0.015882688 -0.058263745 -0.14728235
0.14496298 -0.1477483 -0.07340775 0.14330263 -0.09480799 -0.014120208 0.14017765 0.038473915
0.10757173 -0.14137088 0.09918166 -0.14147128 0.070087984 -0.02154668 -0.08361562 -0.09567498
-0.07672034 -0.100342326 -0.06864711 -0.05328806 -0.1394671 0.089988865 -0.04069929 -0.09688428
-0.04648906 0.058154922 -0.08644885 -0.058736812 -0.02616365 0.13646024 -0.10231864 -0.03278767
0.04957193 -0.05308591 -0.039290678 -0.05270563 0.104149446 0.044930946 0.012981794 0.030362321
0.081575885 -0.05471962 -0.021763153 0.032507285 0.010594032 0.14151111 0.0212292 -0.104929976
-0.05614389 0.10822195 0.028478658 -0.03819318 -0.019073732 -0.0932558 -0.094826005 -0.023438642
0.06416325 0.12222949 -0.020347247 -0.12589505 -0.07044891 0.04412787 0.08978042 0.09862389
0.092638426 -0.07629729 -0.08996523 0.09108576 -0.014130503 0.022036647 -0.011684719 0.073969446
0.105016634 -0.14626355 0.090892844 0.0174483 0.15234819 0.018444551 -0.09993469 0.09500969
-0.03916217 -0.041626077 0.05668737 -0.12531175 -0.05701851 0.043276094 0.0041013397 -0.12867747
0.01459357 -0.1143855 -0.011994262 -0.10821475 -0.02406162 0.06704359 0.079303905 0.12047537
0.13376 0.09638444 -0.047548365 0.103098124 0.10443664 0.085532084 -0.10352859 0.105324954
-0.09774927 -0.09825996 0.029676883 -0.1387933 0.004081222 0.09175339 -0.03389639 0.12358762
0.06948294 -0.026067695 -0.1170457 -0.027378488 0.053723503 0.12535845 0.029434752 -0.07930452
0.012691014 -0.13102944 0.06135605 0.080960065 -0.08714809 0.07224027 0.05534208 0.031054595
0.032925576 -0.07839591 -0.10664708 0.058074113 -0.053856548 -0.07427222 -0.09827169 -0.097372
0.00095055357 -0.09817944 -0.1366007 0.061912898 0.009593887 0.14235148 0.030167807 -0.04846523

sequential_6/lstm_6/Read_2/ReadVariableOp1 f4 [128]
00000000: 17e9 a33c 99eb c33b 3366 32bb 8c64 f03b
00000010: 4bd5 bfbb ae23 293c f20b 1a3c 8636 293c
00000020: 7e2e 263c f97b 533a 38fd f33b 75d1 bb3c
00000030: 08ae 8d3c 2405 c33c 06d0 023c 0ab0 f13b
00000040: 5cf3 9a3a 144c e0b9 ac98 033d e4a2 d23c
00000050: eda7 3d3c d617 37ba 3a79 3a3c f38a 7c3c
00000060: 3cda b4bb b17a 6b3c 1689 963c 31fd d83b
00000070: 8078 823c db45 cdbb feee 86bb 561c c53b
00000080: 32c0 823f 2c05 813f 4aed 7f3f 61f7 803f
00000090: 0a06 7f3f c944 813f 923f 813f f534 813f
000000a0: 4685 813f e535 803f 6b1f 813f 84e0 823f
000000b0: 211e 823f 8cfd 823f fd33 813f a40f 813f
000000c0: e461 803f 2d0e 803f bb46 843f 5b1f 833f
000000d0: bc86 813f 7a2d 803f 7385 813f 3f0e 823f
000000e0: 870a 7e3f e5e5 813f 306c 823f 4bfe 803f
000000f0: 5908 823f d802 7f3f a54b 7f3f 5c09 813f
00000100: 12e7 4ebc 9e91 e2bb f48e c1bb 7473 d63b
00000110: 7532 c1bb 2123 50bb ca06 4c3c bbee e4ba
00000120: db15 e23b deff c53a b686 9bbb 5b8a c43b
00000130: 0429 c3bb e218 0d3b 3da9 02bb 8374 76ba
00000140: e2f5 21bc a8de c23b d822 5e3b a6c6 1f3b
00000150: b22c 2dbb 38b9 2f3c 4441 d13b de1a 3f3b
00000160: f967 5fba af9a 2a3b bf8c 113b f266 033c
00000170: 7be1 2aba da14 f7bb 8e8f 35bb 115e caba
00000180: 298c a43c 66b8 c53b f763 33bb 9681 ed3b
00000190: d7d2 bdbb 2d56 df3b 046e 113c 7e24 0d3c
000001a0: 93e8 223c d9a6 943a 5063 f33b d3af a53c
000001b0: 3c9c 893c b434 a73c a802 cd3b bfaf d83b
000001c0: 217c 993a f70f ceba bc0a 003d 9665 af3c
000001d0: 52f8 3a3c 6a3d 81ba 997f 403c 1d04 5d3c
000001e0: 137e b4bb 1b9c 463c 9968 953c 8887 cc3b
000001f0: f60b 513c 6f77 cfbb 36c3 9fbb 7c82 bf3b
0.020008607 0.005979013 -0.002722156 0.007336205 -0.005854284 0.010323448 0.009402262 0.010327941
0.010142921 0.00080674846 0.0074459575 0.022927025 0.017294899 0.023806162 0.007984167 0.007375722
0.0011821794 -0.00042781292 0.03212802 0.025712438 0.011575681 -0.0006984448 0.011381442 0.015413987
-0.0055191796 0.014372514 0.018375915 0.0066219796 0.0159266 -0.006264431 -0.0041178456 0.006015341
1.0214903 1.0079703 0.9997145 1.0075494 0.9961859 1.0099117 1.0097525 1.0094286
1.0118797 1.0016447 1.0087713 1.0224767 1.0165445 1.0233626 1.009399 1.0082898
1.0029874 1.0004326 1.0334085 1.0243944 1.0119243 1.0013878 1.011885 1.0160598
0.99234813 1.0148283 1.0189266 1.0077604 1.0158798 0.99613714 0.997248 1.0080981
-0.012628334 -0.0069143316 -0.005906934 0.006544525 -0.0058959075 -0.003175922 0.0124527905 -0.0017466167
0.006899578 0.0015106162 -0.0047462834 0.0059979386 -0.005955817 0.0021529724 -0.00199373 -0.0009401517
-0.009885283 0.005946953 0.003389528 0.0024379878 -0.0026424346 0.010725312 0.006385954 0.0029160301
-0.0008522268 0.002603214 0.0022209135 0.00802015 -0.00065185846 -0.0075403275 -0.0027703973 -0.0015439411
0.020086365 0.006033945 -0.0027372816 0.007248114 -0.0057929563 0.006815693 0.008876327 0.008614657
0.009943145 0.0011341228 0.0074276105 0.020225441 0.016798131 0.020410873 0.00625642 0.0066127474
0.0011709967 -0.0015721311 0.031260237 0.021410745 0.011411743 -0.0009860222 0.011749172 0.01348975
-0.0055081933 0.012122179 0.018238353 0.0062417425 0.012759199 -0.0063313763 -0.004875566 0.0058444124
