model-weight/hoax/B1/hoax_detection_B1.tflite (tflite, 688648 bytes, 10 tensors)

sequential_3/embedding_3/embedding_lookup f4 [10000, 16]
0	0x3d002aa5	0.03129067
1	0xbb33a423	-0.0027411066
2	0x3cc280f8	0.023743138
3	0xbc1b9901	-0.009496928
4	0x3d24d576	0.040242635
5	0xbd18bf0f	-0.037291583
6	0xbc778ac5	-0.015108769
7	0xbd426332	-0.04745788
8	0x3d05d361	0.03267229
9	0x3d1beaa3	0.038065564
10	0xbd015faf	-0.03158539
11	0x3c4c2f3b	0.0124624325
12	0xbcb383d2	-0.021913443
13	0xbb853b40	-0.004065901
14	0xbb6fae1b	-0.003657228
15	0x3ca91646	0.020640504
16	0xbc19c688	-0.009385712
17	0x3d5dd330	0.054156482
18	0xbca8d69b	-0.020610144
19	0xbcd47803	-0.025936132
20	0x3c869e7e	0.016432997
21	0x3c8190b0	0.015816063
22	0x3c88b34f	0.016687064
23	0xbba96c0b	-0.0051703504
24	0x3bf0342b	0.0073304377
25	0x3d87be74	0.06628123
26	0xbcc83ff0	-0.02444455
27	0xbcdc1765	-0.026866624
28	0xbd223b60	-0.039607406
29	0xbd2f2286	-0.042757533
30	0xbc9d0a88	-0.01917006
31	0xbd2a7d15	-0.041623194
32	0x3ce4af7e	0.027915712
33	0x3d19e11f	0.037568208
34	0xbd46b55d	-0.048512805
35	0x3d4d4ded	0.050123144
36	0x3c0b85bd	0.008515772
37	0xbd36831e	-0.044558637
38	0xbc033b1b	-0.008009697
39	0xbd422e76	-0.04740759
40	0x3ce3f922	0.027828757
41	0x3cc7d17e	0.024391886
42	0xbb3fee82	-0.002928645
43	0xbb27bfd4	-0.0025596516
44	0x38cad4c6	9.671743e-05
45	0x3cbc1e03	0.02296353
46	0xbd2429d0	-0.040078938
47	0x3c0e2d3b	0.008677776
48	0xbd2b0ed9	-0.041762207
49	0xbcaa05c2	-0.020754699
50	0x3d8791bc	0.066195935
51	0x3cc7fcf9	0.024412619
52	0x3d31ea62	0.043436415
53	0xbc8197b0	-0.0158194
54	0xbd15fd6f	-0.036618646
55	0xbbeb16f9	-0.0071743694
56	0xbc7e678a	-0.015527615
57	0xbd27e105	-0.04098608
58	0xbc8baa69	-0.017049031
59	0xbcef670b	-0.02922394
60	0x3c173865	0.009229754
61	0xbd4c4003	-0.049865734
62	0xbc57d6d0	-0.013173774
63	0x3c65dbe8	0.0140294805
64	0xbd415d41	-0.047208074
65	0xbb58088c	-0.0032964079
66	0x3a2b846a	0.00065428636
67	0xbc77e3c8	-0.015129991
68	0xbcf7d825	-0.030254433
69	0x3d32d9bc	0.04366468
70	0x3cd7d6d6	0.026347559
71	0x3b5fca59	0.0034147708
72	0x3c5baf45	0.013408487
73	0xbc11f04e	-0.008907391
74	0xbc99a352	-0.018754635
75	0x3caf8daf	0.021429865
76	0x3bc83883	0.0061102523
77	0x3cd6fe2b	0.026244244
78	0x3cbb3d2d	0.02285632
79	0xbcdb94c9	-0.026804345
80	0x3d5f67c6	0.054542325
81	0xbd13b74f	-0.03606349
82	0x3c73f457	0.014889798
83	0x3c8600d2	0.016357813
84	0xbcae5326	-0.021279883
85	0x3c9f0ab0	0.019414276
86	0x3ce02014	0.027359046
87	0x3d84474a	0.0645891
88	0x3c1e2347	0.009651965
89	0xbc3a88dc	-0.011385169
90	0x3cf071c0	0.029351115
91	0xbd2bbea9	-0.041929875
92	0x3cdf80cd	0.027283097
93	0xba4ec7cc	-0.00078880484
94	0xbd906f7b	-0.07052513
95	0x3d9cebf0	0.07662189
96	0xbd22b6e3	-0.039725196
97	0xbd47e931	-0.048806373
98	0x3ca3fcb1	0.020017954
99	0x3cdaf5bb	0.026728502
100	0xbac065d2	-0.0014678782
101	0x3cea1da2	0.028578583
102	0x3c2b790f	0.010465874
103	0xbc1b4f9a	-0.009479428
104	0xbc9e33c5	-0.019311795
105	0xbd42ccb6	-0.04755851
106	0xbcf2780d	-0.02959826
107	0x3d04f72f	0.032462295
108	0xbcbdf01d	-0.023185784
109	0x3d33c438	0.0438883
110	0xbce82c1f	-0.028341351
111	0xbd3e004a	-0.046386994
112	0xbd74e174	-0.05978532
113	0x3ce6c8a7	0.02817185
114	0x3d00cb21	0.03144372
115	0xbcdc1a85	-0.026868114
116	0xbd1dd608	-0.038534194
117	0xbc382b20	-0.011240751
118	0xbd09a73f	-0.033606764
119	0x3d3895ec	0.04506485
120	0xbca53cf5	-0.020170668
121	0x3d0154af	0.0315749
122	0xbd031c34	-0.03200932
123	0x3d4fc79b	0.050727468
124	0x3d22d9fd	0.03975867
125	0xbc4ff2f4	-0.012692202
126	0x3c986def	0.018607108
127	0x3ca8bf8f	0.020599155
128	0x3c54e276	0.012993446
129	0xb99e9c83	-0.0003025272
130	0xbd1061c7	-0.035249498
131	0x3d52f136	0.051499568
132	0xbb062682	-0.002046973
133	0xbcb17677	-0.021662934
134	0x3cc64359	0.024202036
135	0xbc3f2ba6	-0.011668121
136	0xbc532d40	-0.012889206
137	0x3d30b978	0.043145627
138	0xbc0a64af	-0.008446856
139	0x3d505db1	0.0508706
140	0x3c93d0c3	0.018043881
141	0xbb80613f	-0.0039178426
142	0xbc1217e4	-0.008916829
143	0x3c31bad4	0.010847766
144	0x3c904210	0.017609626
145	0xbc9fa28a	-0.019486684
146	0xbd256f89	-0.04038957
147	0xbd4afcd2	-0.049557514
148	0x3c75db20	0.015005857
149	0x3c17838d	0.009247673
150	0x3ce6e6d8	0.028186247
151	0x3cbe6c2f	0.023244945
152	0xbc81901f	-0.015815793
153	0x3ca416af	0.020030348
154	0xbb99c865	-0.0046930783
155	0x3cf2a0f6	0.029617768
156	0xbd6e5d89	-0.05819467
157	0xbccf89c6	-0.02533425
158	0x3c8e7235	0.017388443
159	0x3d1162f6	0.035494767
160	0xbd684306	-0.056704544
161	0xbc3c9f95	-0.011512657
162	0x3c2248ad	0.009905023
163	0x3d8eae4b	0.069668375
164	0x3ad1d35f	0.0016008428
165	0xbd952ff4	-0.07284537
166	0x3c9dc952	0.019261036
167	0x3c991c4f	0.018690256
168	0xbd53eb66	-0.051738165
169	0x3d253ac9	0.040339265
170	0x3d68e33b	0.05685733
171	0x3c5eb688	0.0135933235
172	0x3be4d0d8	0.006982904
173	0x3b24d15c	0.0025149202
174	0xbcdb82b1	-0.026795717
175	0xbd7c4803	-0.061592113
176	0xbd08ba66	-0.03338089
177	0x3d1b02cf	0.037844475
178	0xbd010c03	-0.031505596
179	0xbc2e8e10	-0.0106539875
180	0x3c31f4e2	0.010861607
181	0xbd99c96a	-0.0750912
182	0xbce16e53	-0.027518427
183	0xbcc6caf1	-0.024266692
184	0x3cbdd011	0.023170503
185	0x3d968851	0.07350219
186	0x3cf8125d	0.030282194
187	0xbaff255b	-0.0019466089
188	0x3d3e2ec9	0.046431337
189	0x3b37508f	0.00279716
190	0x3d3ca795	0.046058256
191	0xbd38b047	-0.045089986
192	0xbdb21a53	-0.08696427
193	0x3d22b0f8	0.03971955
194	0x3d64c44f	0.055851277
195	0x3cb10cf4	0.021612622
196	0xbce4e834	-0.027942754
197	0xbd9f8d8e	-0.07790671
198	0xbca8a816	-0.020587962
199	0xbd7f9f6e	-0.062407903
200	0xbc74271c	-0.0149019025
201	0x3d5385a1	0.05164111
202	0x3d51b5dd	0.05119883
203	0x3d9630f9	0.073335595
204	0x3d521041	0.051285032
205	0xbc21d62a	-0.009877721
206	0x3d4a9624	0.04945959
207	0xbd94f5bf	-0.07273435
208	0x3d0eb406	0.034839652
209	0xbd48a95b	-0.048989635
210	0xbd1909cf	-0.03736287
211	0xbc62f7c3	-0.013853016
212	0xbca0b735	-0.01961861
213	0x3ce8297d	0.028340096
214	0xbd13ddea	-0.036100306
215	0xbbefb42f	-0.0073151807
216	0x3cbff525	0.023432324
217	0x3c1ecaed	0.009691936
218	0xbd1f62ed	-0.038912702
219	0xbd1d5879	-0.038414452
220	0xbce664ae	-0.02812418
221	0x3d267293	0.04063661
222	0xbce37646	-0.027766358
223	0xbd49c57b	-0.049260598
224	0x3c5c78b0	0.0134565085
225	0x3a330185	0.00068285345
226	0x3c943db2	0.018095825
227	0xbd1f5be3	-0.03890599
228	0xbc8b97e5	-0.017040202
229	0xbd2a8988	-0.041635066
230	0x3b96cea3	0.0046022697
231	0x3be11b35	0.0068696984
232	0xbcd0c2b8	-0.025483474
233	0xbcba0fdd	-0.022712642
234	0xbcd6f2a8	-0.026238754
235	0x3c6129b1	0.01374285
236	0xbd17a84d	-0.03702574
237	0xbc86fce2	-0.016478006
238	0xbcd86429	-0.026414948
239	0xbbdb3b99	-0.006690454
240	0x3cee5e62	0.02909774
241	0x3d53c492	0.051701136
242	0x3cb5bcac	0.022184692
243	0xbb527c00	-0.0032117367
244	0x3c07e576	0.008294454
245	0xbd05d80b	-0.032676738
246	0xbcdcafab	-0.026939234
247	0x3c48d40d	0.012257588
248	0xbcfd2519	-0.030901479
249	0xbb8c1789	-0.0042752665
250	0xbc484f7d	-0.012225983
251	0xbbf8c5c2	-0.007591934
252	0xbd11f078	-0.03562972
253	0x3ca9d7d3	0.020732796
254	0x3cb371f5	0.021904925
255	0xba647d73	-0.0008716203

sequential_3/bidirectional/forward_lstm/Read_2/ReadVariableOp f4 [96]
0	0x3d6ec908	0.058297187
1	0x3d53621f	0.051607247
2	0x3c4cce5b	0.012500371
3	0x3d0c4879	0.034248803
4	0x3d220aaa	0.03956095
5	0x3cb2ed37	0.021841628
6	0x3d44deea	0.04806415
7	0x3cf570b4	0.029960968
8	0x3b36599b	0.0027824405
9	0x3d46f4fb	0.048573475
10	0x3d477140	0.048691988
11	0x3d6b79ed	0.057489324
12	0x3d3b9eeb	0.045805853
13	0x3d243e68	0.040098578
14	0x3d4b3357	0.04960951
15	0x3b5fcdac	0.003414969
16	0x39a9f6db	0.00032418114
17	0x3d2b233a	0.04178164
18	0x3d39e4c5	0.045384187
19	0x3d50879e	0.050910585
20	0xbc0002c8	-0.007813163
21	0x3d3dc9c6	0.046335004
22	0x3d143977	0.036187615
23	0x3d57437f	0.052554604
24	0x3f8892b8	1.0669775
25	0x3f8736bb	1.0563577
26	0x3f821b4f	1.0164584
27	0x3f85c0ec	1.04495
28	0x3f8603e7	1.0469941
29	0x3f83ace9	1.0287143
30	0x3f86dfce	1.053705
31	0x3f85022e	1.039129
32	0x3f80b81c	1.0056186
33	0x3f86a0e6	1.0517852
34	0x3f86ac93	1.0521415
35	0x3f87f8cf	1.0622805
36	0x3f866c63	1.0501827
37	0x3f85f78f	1.0466174
38	0x3f86cd23	1.0531353
39	0x3f804933	1.0022339
40	0x3f80709e	1.0034368
41	0x3f85f40a	1.04651
42	0x3f86a25f	1.0518302
43	0x3f874b59	1.0569869
44	0x3f7e0732	0.9922973
45	0x3f873bc9	1.056512
46	0x3f858b47	1.0433129
47	0x3f871c97	1.05556
48	0x3c000f18	0.007816099
49	0x3b170e82	0.0023049419
50	0xb9f10e9d	-0.0004597799
51	0x3b86b1fe	0.004110574
52	0x3a9c89c6	0.0011942915
53	0xbb8dd25f	-0.0043280567
54	0xbb1d3e18	-0.002399331
55	0x3b09997a	0.002099602
56	0x3b66b9c9	0.0035205951
57	0x3a5cfa8f	0.000842967
58	0xbb7e7911	-0.0038829485
59	0xbba35b51	-0.004985251
60	0xbb12b50b	-0.0022385742
61	0xbaf3e2dd	-0.0018607039
62	0xbaf09337	-0.001835442
63	0xbb03ac30	-0.0020091645
64	0x3b2134e3	0.0024598173
65	0xbbbb80c4	-0.005722137
66	0x3b3cf061	0.00288298
67	0xbadd116e	-0.0016866156
68	0x3ac6f70f	0.001517983
69	0xbb58464a	-0.003300088
70	0x3c01e259	0.007927501
71	0xba8f363d	-0.0010926198
72	0x3dad4959	0.084612556
73	0x3d8292a2	0.06375624
74	0x3c850ebf	0.016242383
75	0x3d87a3cb	0.06623038
76	0x3d610131	0.054932777
77	0x3d5947b5	0.0530469
78	0x3d6d8d6a	0.05799619
79	0x3d07dad4	0.033167675
80	0x3c5d6cfa	0.013514752
81	0x3d550b6a	0.05201284
82	0x3d7b5e7b	0.0613694
83	0x3d95dead	0.07317863
84	0x3d6a1b6d	0.05715506
85	0x3d5d0711	0.053961817
86	0x3d88d8a1	0.06681944
87	0x3c2b823a	0.01046806
88	0x3be96366	0.007122445
89	0x3d878e42	0.066189304
90	0x3d80637b	0.062689744
91	0x3d83e15d	0.06439469
92	0xbc06ed2c	-0.008235257
93	0x3d874541	0.06605006
94	0x3d89b49e	0.06723903
95	0x3d7520ca	0.059845723

sequential_3/bidirectional/backward_lstm/Read_2/ReadVariableOp f4 [96]
0	0x3d1e07e0	0.03858173
1	0x3d26de2f	0.040739235
2	0x3d384961	0.044991855
3	0x3d188bf3	0.03724284
4	0x3d6b6667	0.057470705
5	0x3d0a9961	0.03383768
6	0x3cdd7710	0.027034312
7	0x3d0c81f7	0.03430363
8	0x3d385a2c	0.04500787
9	0x3d2d6451	0.042331997
10	0x3d6f70d4	0.05845721
11	0x3d2b5c8d	0.04183631
12	0x3d01ce6f	0.03169101
13	0x3b68c4b2	0.003551763
14	0x3d23cb1b	0.03998862
15	0x3cac39d2	0.021023665
16	0x3d42bfd6	0.04754623
17	0x3d13b33c	0.036059603
18	0x3d1d3e4a	0.03838948
19	0x3d29f541	0.041493658
20	0x3d044ba6	0.032298706
21	0x3d42de8e	0.047575526
22	0x3d1ac621	0.037786607
23	0x3ca87a17	0.02056603
24	0x3f8551aa	1.0415547
25	0x3f85f5d6	1.0465648
26	0x3f865f1d	1.0497776
27	0x3f85efa6	1.046376
28	0x3f866b7b	1.050155
29	0x3f84db52	1.0379431
30	0x3f8376a1	1.0270578
31	0x3f840aeb	1.0315832
32	0x3f863f31	1.0488034
33	0x3f861215	1.0474268
34	0x3f880342	1.0625994
35	0x3f85b2fc	1.0445247
36	0x3f84139d	1.0318485
37	0x3f7efca3	0.99604243
38	0x3f8555d8	1.0416822
39	0x3f8311ff	1.0239867
40	0x3f867acc	1.0506225
41	0x3f855c16	1.0418727
42	0x3f859dd9	1.0438796
43	0x3f85abb3	1.0443023
44	0x3f846017	1.0341824
45	0x3f868f64	1.0512509
46	0x3f858919	1.0432464
47	0x3f81d9d7	1.0144604
48	0x3ac5b7ce	0.0015084685
49	0x3a9fbd44	0.0012187143
50	0x3b6013fd	0.0034191601
51	0x3af6ca0c	0.0018828525
52	0x3b89afeb	0.0042018793
53	0x3bb68500	0.005570054
54	0x3b1dcb9f	0.0024077666
55	0x3a88120a	0.0010381353
56	0xba406669	-0.0007339479
57	0x3ac41688	0.0014960328
58	0xbba55965	-0.005046057
59	0x3b75b9db	0.0037494812
60	0xbb882513	-0.00415481
61	0x3b05d9c3	0.0020423986
62	0x3b9a0907	0.004700783
63	0x3bfd0cbb	0.007722465
64	0xba8fdba9	-0.0010975498
65	0xbb6f1461	-0.0036480653
66	0xbaab27b8	-0.0013058102
67	0x3b3dd2e3	0.002896481
68	0xbbba0a8a	-0.005677526
69	0x399f3cfe	0.00030372286
70	0xbbda90ea	-0.006670107
71	0x3bc320af	0.005954824
72	0x3d28902b	0.041153114
73	0x3d7e5441	0.06209207
74	0x3d69cbad	0.057079006
75	0x3d5ac164	0.053407088
76	0x3dc2434b	0.09485491
77	0x3d0c18be	0.034203283
78	0x3d320245	0.043459196
79	0x3d4d5556	0.05013021
80	0x3d7e3220	0.06205952
81	0x3d3dc36d	0.04632895
82	0x3dba28be	0.09089802
83	0x3d56f500	0.052479744
84	0x3d1b7a12	0.037958212
85	0x3b7baf7f	0.0038404164
86	0x3d40ef1a	0.047103025
87	0x3cd1d6e9	0.025615172
88	0x3d95c33d	0.07312629
89	0x3d266667	0.040625002
90	0x3da25229	0.07925827
91	0x3d595d78	0.053067654
92	0x3d01bb84	0.03167297
93	0x3d74e54e	0.059788994
94	0x3d2d8cab	0.04237048
95	0x3d08b877	0.033379044

sequential_3/dense_8/MatMul f4 [1, 48]
0	0xbecd7791	-0.40130284
1	0xbececa6d	-0.40388814
2	0xbd1421b0	-0.03616494
3	0xbe580b06	-0.21097955
4	0x3e991ecf	0.29906318
5	0xbe650b6a	-0.22367635
6	0x3e857bfa	0.2607115
7	0xbcc1ce84	-0.023658045
8	0x3d13adfc	0.036054596
9	0xbda82ba9	-0.082114525
10	0x3e636b6a	0.22208944
11	0x3ebd77ef	0.37005565
12	0x3ea1b0cf	0.31580207
13	0x3ea15239	0.31508043
14	0x3e7b22fa	0.24525061
15	0xbd285bd2	-0.04110319
16	0xbe16203e	-0.14660737
17	0x3eaff1a0	0.34364033
18	0xbee0823d	-0.43849364
19	0x3ee6c36f	0.4507098
20	0x3e7cf9e2	0.24704698
21	0x3ed408c0	0.41412926
22	0xbe7ce408	-0.24696362
23	0x3df1cf8a	0.11807163
24	0xbe8bc1cd	-0.27296296
25	0xbe68adfd	-0.22722621
26	0xbe40fc52	-0.18846253
27	0x3eae6717	0.34063026
28	0x3efa1c07	0.48849508
29	0x3d08522e	0.033281498
30	0xbeb27d61	-0.34861282
31	0xbe87d283	-0.26527795
32	0x3ecaf7cb	0.39642176
33	0xbeaef515	-0.34171358
34	0xbe8ec658	-0.278857
35	0xbe87e6d3	-0.26543292
36	0x3df93901	0.12169076
37	0x3df1d0e4	0.11807421
38	0xbe09ae02	-0.13445285
39	0xbe23d719	-0.16000022
40	0xbef3b178	-0.47596335
41	0xbc98fe4a	-0.018675942
42	0xbecd830a	-0.40139037
43	0xbef28618	-0.4736793
44	0xbec7056a	-0.38871318
45	0xbeeb6d9a	-0.45982057
46	0x3e335639	0.1751336
47	0xbe92db22	-0.2868281

sequential_3/bidirectional/backward_lstm/Read_2/ReadVariableOp1 f4 [96]
0	0x3d1e07e0	0.03858173
1	0x3d26de2f	0.040739235
2	0x3d384961	0.044991855
3	0x3d188bf3	0.03724284
4	0x3d6b6667	0.057470705
5	0x3d0a9961	0.03383768
6	0x3cdd7710	0.027034312
7	0x3d0c81f7	0.03430363
8	0x3d385a2c	0.04500787
9	0x3d2d6451	0.042331997
10	0x3d6f70d4	0.05845721
11	0x3d2b5c8d	0.04183631
12	0x3d01ce6f	0.03169101
13	0x3b68c4b2	0.003551763
14	0x3d23cb1b	0.03998862
15	0x3cac39d2	0.021023665
16	0x3d42bfd6	0.04754623
17	0x3d13b33c	0.036059603
18	0x3d1d3e4a	0.03838948
19	0x3d29f541	0.041493658
20	0x3d044ba6	0.032298706
21	0x3d42de8e	0.047575526
22	0x3d1ac621	0.037786607
23	0x3ca87a17	0.02056603
24	0x3f8551aa	1.0415547
25	0x3f85f5d6	1.0465648
26	0x3f865f1d	1.0497776
27	0x3f85efa6	1.046376
28	0x3f866b7b	1.050155
29	0x3f84db52	1.0379431
30	0x3f8376a1	1.0270578
31	0x3f840aeb	1.0315832
32	0x3f863f31	1.0488034
33	0x3f861215	1.0474268
34	0x3f880342	1.0625994
35	0x3f85b2fc	1.0445247
36	0x3f84139d	1.0318485
37	0x3f7efca3	0.99604243
38	0x3f8555d8	1.0416822
39	0x3f8311ff	1.0239867
40	0x3f867acc	1.0506225
41	0x3f855c16	1.0418727
42	0x3f859dd9	1.0438796
43	0x3f85abb3	1.0443023
44	0x3f846017	1.0341824
45	0x3f868f64	1.0512509
46	0x3f858919	1.0432464
47	0x3f81d9d7	1.0144604
48	0x3ac5b7ce	0.0015084685
49	0x3a9fbd44	0.0012187143
50	0x3b6013fd	0.0034191601
51	0x3af6ca0c	0.0018828525
52	0x3b89afeb	0.0042018793
53	0x3bb68500	0.005570054
54	0x3b1dcb9f	0.0024077666
55	0x3a88120a	0.0010381353
56	0xba406669	-0.0007339479
57	0x3ac41688	0.0014960328
58	0xbba55965	-0.005046057
59	0x3b75b9db	0.0037494812
60	0xbb882513	-0.00415481
61	0x3b05d9c3	0.0020423986
62	0x3b9a0907	0.004700783
63	0x3bfd0cbb	0.007722465
64	0xba8fdba9	-0.0010975498
65	0xbb6f1461	-0.0036480653
66	0xbaab27b8	-0.0013058102
67	0x3b3dd2e3	0.002896481
68	0xbbba0a8a	-0.005677526
69	0x399f3cfe	0.00030372286
70	0xbbda90ea	-0.006670107
71	0x3bc320af	0.005954824
72	0x3d28902b	0.041153114
73	0x3d7e5441	0.06209207
74	0x3d69cbad	0.057079006
75	0x3d5ac164	0.053407088
76	0x3dc2434b	0.09485491
77	0x3d0c18be	0.034203283
78	0x3d320245	0.043459196
79	0x3d4d5556	0.05013021
80	0x3d7e3220	0.06205952
81	0x3d3dc36d	0.04632895
82	0x3dba28be	0.09089802
83	0x3d56f500	0.052479744
84	0x3d1b7a12	0.037958212
85	0x3b7baf7f	0.0038404164
86	0x3d40ef1a	0.047103025
87	0x3cd1d6e9	0.025615172
88	0x3d95c33d	0.07312629
89	0x3d266667	0.040625002
90	0x3da25229	0.07925827
91	0x3d595d78	0.053067654
92	0x3d01bb84	0.03167297
93	0x3d74e54e	0.059788994
94	0x3d2d8cab	0.04237048
95	0x3d08b877	0.033379044

while/MatMul_11 f4 [96, 24]
0	0x3da4dc01	0.08049775
1	0x3d74b496	0.059742533
2	0xbdcb2690	-0.099194646
3	0x3d2c47aa	0.04206053
4	0xbda3cd2d	-0.079981185
5	0x3e2bfb5a	0.16795102
6	0xbe1153c1	-0.14192106
7	0xbd12e49c	-0.03586255
8	0x3df289d7	0.11842697
9	0xbd04ab26	-0.032389782
10	0xbd87e044	-0.06634572
11	0x3d8301e8	0.06396848
12	0xbd9fc2cb	-0.07800826
13	0x3d833bf0	0.064079165
14	0xbdaf425c	-0.08557579
15	0xbdafe2d3	-0.08588185
16	0x3c3c1634	0.011479903
17	0xbda01628	-0.07816726
18	0x3c556032	0.013023423
19	0x3d131693	0.0359102
20	0xbe904837	-0.28180096
21	0xbd9c38a5	-0.076279916
22	0x3b93a518	0.0045057647
23	0xbc49f642	-0.012326779
24	0xbe44f41b	-0.19233744
25	0x3d89060e	0.06690608
26	0x3dc1d747	0.09464889
27	0xbd321197	-0.043473806
28	0xbe1cc80f	-0.15310691
29	0xbccef97d	-0.02526545
30	0xbd2ad38d	-0.041705657
31	0xbcfe1357	-0.031015081
32	0xbe4953c6	-0.19660863
33	0xbd92bea0	-0.07165265
34	0x3e875550	0.26432276
35	0x3e1e8990	0.15482163
36	0xbcf60d91	-0.030035766
37	0x3bbe174e	0.005801118
38	0x3c3a2340	0.011360943
39	0x3d099950	0.033593476
40	0x3db82877	0.08992093
41	0xbd813cac	-0.063104
42	0xbddb0716	-0.10694711
43	0x3d96761c	0.07346746
44	0xbea3db72	-0.3200336
45	0xbd6ff374	-0.058581784
46	0xbe266ca3	-0.16252379
47	0x3e6653e6	0.22492942
48	0x3d2a1e86	0.041533016
49	0x3d9844ed	0.074350215
50	0xbdfc4d74	-0.123194605
51	0x3d3de0ad	0.046356846
52	0x3c49d527	0.012318886
53	0x3d4573be	0.048206083
54	0x3e1251d8	0.14289033
55	0x3df8b652	0.1214415
56	0xbddcbb00	-0.10777855
57	0xba63f405	-0.00086957245
58	0x3d92e3fc	0.07172391
59	0x3d66e5e1	0.056371573
60	0xbda5d9cc	-0.08098182
61	0x3d5fe9df	0.054666396
62	0xbe1cd9a8	-0.15317404
63	0x3e2799f0	0.16367316
64	0xbde4376e	-0.11143385
65	0x3da8dcd4	0.082452446
66	0x3d4bb06b	0.049728792
67	0x3e35ed70	0.17766356
68	0xbd8881e2	-0.06665398
69	0x3d9df842	0.07713367
70	0xbdc4d387	-0.09610658
71	0x3e1daf99	0.15399016
72	0xbd191ae1	-0.03737915
73	0xbd938c3f	-0.07204484
74	0xbe04343f	-0.12910555
75	0xbdf556e3	-0.11979463
76	0xbb9550f4	-0.0045567695
77	0x3ce2f912	0.027706657
78	0x3e4025ce	0.18764421
79	0x3e179874	0.1480425
80	0x3d373a2f	0.044733223
81	0x3d89803c	0.06713912
82	0x3e24a4c2	0.16078475
83	0xbd3117b8	-0.04323551
84	0x3c338027	0.010955847
85	0x3de0eb4e	0.10982381
86	0x3e1d4abb	0.15360539
87	0x3e3d8b6f	0.18510221
88	0x3d6045f7	0.054754224
89	0xbdd2b98e	-0.10289298
90	0x3bfe6b85	0.007764282
91	0x3dbf3cf3	0.09337797
92	0xbda93d69	-0.08263666
93	0x3e535f9d	0.20641942
94	0xbd94b0bb	-0.07260271
95	0x3dc94b43	0.09828808
96	0x3c92714d	0.017876292
97	0x3d4d3880	0.05010271
98	0x3c3d9a61	0.011572451
99	0x3c4955f7	0.012288562
100	0xbba5ca46	-0.0050595133
101	0x3daffccd	0.0859314
102	0x3d993744	0.07481244
103	0xbcd44c61	-0.025915327
104	0xbbe4fb2e	-0.0069879508
105	0x3da85eb0	0.08221185
106	0x3e04ba74	0.12961751
107	0x3dcceac3	0.10005715
108	0x3d05d403	0.032672893
109	0x3d783224	0.060594693
110	0xbc652eb2	-0.013988184
111	0xbe023c86	-0.127184
112	0x3ddfb2f3	0.10922804
113	0x3e41fc46	0.18943891
114	0x3d1150be	0.035477392
115	0x3db8bcd4	0.09020391
116	0xbe3cfab1	-0.18455006
117	0xbb9ed110	-0.0048466995
118	0xbd91aee4	-0.07113436
119	0xbd4cecd2	-0.050030537
120	0x3de604a2	0.112313524
121	0x3d734740	0.05939412
122	0x3d8ecab0	0.06972253
123	0x3df35dd4	0.11883131
124	0x3cacfdb1	0.021117063
125	0x3e1851ab	0.14874904
126	0xbcc9bf15	-0.024627248
127	0xbdeda946	-0.11604552
128	0xbe639f60	-0.22228765
129	0x3cbfaefd	0.02339887
130	0xbd51d5b9	-0.051229212
131	0xbd088c30	-0.03333682
132	0xbd8a5881	-0.06755162
133	0x3c594732	0.013261603
134	0x3c311323	0.010807785
135	0xbde6a84b	-0.11262568
136	0xbd49c4ca	-0.04925994
137	0x3caf419e	0.021393593
138	0xbe340994	-0.17581779
139	0x3d95be2d	0.07311664
140	0xbe22ada5	-0.15886553
141	0x3dfaa240	0.12237978
142	0xbc28fc3a	-0.010314042
143	0xbd62fee4	-0.055418864
144	0x3e79adc9	0.243827
145	0x3e873b3f	0.2641239
146	0xbc27d831	-0.010244415
147	0xbd8cba42	-0.06871463
148	0x3cbbba85	0.022916088
149	0xbe053e86	-0.13012132
150	0xbe852ad9	-0.26009253
151	0x3e1e0012	0.15429714
152	0xbd07d7fa	-0.033164956
153	0x3dfa9a88	0.12236506
154	0x3df15391	0.11783517
155	0x3df73bcf	0.120719545
156	0xbd99f597	-0.07517546
157	0xbbdfc8b5	-0.006829346
158	0x3e01c2ec	0.12672013
159	0x3de44df5	0.111476816
160	0xbdd97251	-0.10617507
161	0xbcd6d4d3	-0.02622453
162	0x3de50840	0.11183214
163	0xbde360bc	-0.11102435
164	0x3d0dd815	0.0346299
165	0x3e692e94	0.22771674
166	0xbe6d59f1	-0.23178841
167	0xbd162b2a	-0.03666226
168	0xbc725019	-0.014789605
169	0xbd4d65fc	-0.050146088
170	0xbd37b224	-0.044847623
171	0x3d11ac04	0.035564438
172	0xbe3f58d7	-0.18686233
173	0xbce38a7f	-0.027776001
174	0x3d69384e	0.056938462
175	0x3ed88c9b	0.42294773
176	0xbda1b2a7	-0.07895403
177	0x3dda7ddf	0.10668539
178	0x3dd862e4	0.10565737
179	0xbdd51450	-0.10404265
180	0xbd0bf405	-0.034168262
181	0x3dac2ed2	0.08407368
182	0x3dc58a99	0.09645576
183	0x3dbf6e10	0.09347165
184	0xbd5130fa	-0.0510721
185	0xbe13b528	-0.14424574
186	0x3ccb333c	0.024804704
187	0x3e03b013	0.12860136
188	0xbdded90d	-0.10881243
189	0x3dc55967	0.09636193
190	0xbdbb7464	-0.09153059
191	0xbe197f5f	-0.14989994
192	0x3d96d54b	0.07364901
193	0x3c70c151	0.014694528
194	0x3d95973d	0.07304237
195	0x3e2c3329	0.16816391
196	0xbe26d03d	-0.16290374
197	0xbd237ed4	-0.039915875
198	0x3e9232a3	0.28554258
199	0x3da5fb5c	0.081045836
200	0x3d048cb1	0.032360736
201	0x3e1dd850	0.15414548
202	0x3e2df411	0.16987635
203	0x3cf4f1f4	0.029900528
204	0xbd624745	-0.05524375
205	0xbc8c7723	-0.017146653
206	0x3d7cfee8	0.061766535
207	0xbc959e34	-0.018263914
208	0xbd70721c	-0.058702573
209	0xbdb16ed3	-0.08663716
210	0x3d8fca98	0.070210636
211	0x3e69be48	0.22826493
212	0xbc054544	-0.00813419
213	0x3d80c26c	0.06287083
214	0x3d3ecf78	0.046584576
215	0x3da8111d	0.08206389
216	0x3e7a8286	0.24463853
217	0xbd8e4ea8	-0.06948596
218	0x3c3be341	0.011467756
219	0xbdd5fad9	-0.10448236
220	0x3da8803c	0.08227584
221	0x3dc8a894	0.09797779
222	0xbd0660e0	-0.03280723
223	0x3e236073	0.15954761
224	0xbd66d8e0	-0.056359172
225	0x3dcb12ea	0.09915717
226	0xbd8135b3	-0.063090704
227	0xbd0e1523	-0.034688126
228	0xbdd866a1	-0.1056645
229	0x3e837519	0.25675276
230	0x3e13e00b	0.14440934
231	0x3c02e714	0.007989664
232	0x3d5bfc24	0.053707257
233	0xbd991676	-0.07474987
234	0x3d1e9f41	0.038726095
235	0xbde0abf3	-0.10970297
236	0xbbd898bc	-0.006610004
237	0xbdd29275	-0.10281841
238	0xbd616e3e	-0.055036776
239	0x3dec316e	0.115328655
240	0x3d1981ed	0.037477423
241	0xbe688980	-0.22708702
242	0x3e510a35	0.2041405
243	0xbd59fba5	-0.053218503
244	0xbe38489e	-0.17996451
245	0x3e7ec2a6	0.2487894
246	0xbe12201a	-0.14270058
247	0x3dd3ea54	0.10347429
248	0x3d0607b3	0.032722186
249	0x3cc64d79	0.024206864
250	0x3de8bb36	0.11363833
251	0x3aa29032	0.0012402593
252	0xbdf1d72e	-0.118086204
253	0xbd681f75	-0.056670625
254	0x3e2f5700	0.17123032
255	0x3e0d96ad	0.1382701

while/MatMul f4 [96, 16]
0	0xbe0f9c6c	-0.14024514
1	0xbd65296f	-0.055947717
2	0x3de9621f	0.11395668
3	0x3cebfc69	0.028806882
4	0xbd669de3	-0.056302916
5	0x3e6855b6	0.22688946
6	0xbd0cb519	-0.034352396
7	0xbe32d822	-0.1746526
8	0x3d9bc2c4	0.07605508
9	0x3e1d83d3	0.15382318
10	0xbe7cf649	-0.24703325
11	0xbe259e01	-0.16173555
12	0x3deb7204	0.11496356
13	0xbda49125	-0.080354966
14	0x3e33964d	0.17537804
15	0xbd6704f6	-0.056401215
16	0x3d93caa1	0.07216383
17	0x3e26da38	0.16294181
18	0x3d4cc42d	0.049991775
19	0x3e3e8684	0.18606001
20	0xbd64eb7a	-0.05588863
21	0xbe08810d	-0.13330479
22	0x3da38e11	0.079860814
23	0xbe6532dd	-0.22382684
24	0x3dee9e01	0.116512306
25	0x3e1083b4	0.14112741
26	0x3e48ae74	0.19597799
27	0xbe0ae091	-0.13562228
28	0xbcd562c4	-0.026048072
29	0xbdcde89a	-0.10054131
30	0xbdd66afd	-0.10469625
31	0xbe4a1f8f	-0.19738601
32	0x3e1dd085	0.15411575
33	0x3e279074	0.16363698
34	0xbe53cdc0	-0.20683956
35	0xbbbb050e	-0.0057073897
36	0x3de54354	0.111944824
37	0xbe4a5594	-0.19759208
38	0xbd1e3ec1	-0.038634066
39	0x3e29e88d	0.16592617
40	0x3e2d5000	0.16925049
41	0xbe183df5	-0.14867385
42	0xbd8643b8	-0.06555885
43	0xbe16710a	-0.14691558
44	0xbe1b940c	-0.15193194
45	0x3e84860f	0.2588353
46	0xbc19fb9d	-0.009398368
47	0xbd4b8924	-0.049691334
48	0xbe3ef768	-0.18649065
49	0x3e1ff85a	0.15622082
50	0xbe17c78e	-0.14822218
51	0xbe13f218	-0.1444782
52	0xbd7a519e	-0.061112992
53	0x3e31bea6	0.17357883
54	0x3e8d989c	0.27655494
55	0x3e6edf6e	0.23327419
56	0x3e296fe4	0.16546589
57	0xbe79e3ae	-0.24403259
58	0xbe838c7a	-0.25693113
59	0x3deb2640	0.11481905
60	0xbe699ff1	-0.22814919
61	0x3e2a6fa7	0.16644154
62	0xbd5e1ff2	-0.054229684
63	0x3e1a7eab	0.15087382
64	0x3e6e1268	0.23249209
65	0xbb6fce76	-0.0036591566
66	0x3ddd3094	0.10800281
67	0xbc82dfc4	-0.01597584
68	0x3df0e87c	0.11763093
69	0xbdefd751	-0.1171099
70	0x3de91aa1	0.11382032
71	0x3c2edb58	0.010672413
72	0xbd0936eb	-0.03349964
73	0x3cdedac4	0.027203925
74	0x3e48cc51	0.1960919
75	0xbd2fb588	-0.04289773
76	0xbe4bbcf2	-0.19896296
77	0x3e66f4e0	0.2255435
78	0xbdc70a7d	-0.09718797
79	0x3e78ef3a	0.24310008
80	0x3e66d2f6	0.22541413
81	0xbe781be6	-0.24229392
82	0xbd079087	-0.033096816
83	0x3dc353ae	0.09537445
84	0xbd5d48a2	-0.054024346
85	0x3d2e8171	0.042603914
86	0xbe169b84	-0.14707762
87	0x3e4eb42c	0.20185918
88	0x3cfa40d6	0.030548494
89	0x3e0a4122	0.13501409
90	0x3e1422ad	0.14466353
91	0xbd91b7e2	-0.07115151
92	0x3dc0cdb4	0.09414235
93	0x3e5ed68d	0.21761532
94	0x3e110ba9	0.14164604
95	0xbd96fa45	-0.07371954
96	0x3dc6b4fd	0.097024895
97	0x3e1cf202	0.15326694
98	0x3dd1d84c	0.102463335
99	0xb9b1c2f2	-0.00033905316
100	0xbe24e972	-0.16104677
101	0xbcf8ef1f	-0.03038746
102	0x3e4e2c78	0.20134151
103	0x3ded111e	0.115755305
104	0x3d43d376	0.047809087
105	0xbd055d8b	-0.032559913
106	0x3e400d71	0.18755127
107	0xbddadc7c	-0.10686585
108	0xbe238286	-0.1596776
109	0xbe0d794f	-0.13815807
110	0xbe6243c3	-0.22096162
111	0xbcf57c30	-0.029966444
112	0xbdd2dfc7	-0.102965884
113	0xbe0c3cef	-0.1369512
114	0xbe7276b9	-0.23678102
115	0xbe372e45	-0.17888744
116	0x3dafa0c1	0.08575583
117	0x3e6d018a	0.23145118
118	0xbd96f77a	-0.07371421
119	0xbb88ba8f	-0.00417263
120	0x3cc4dba3	0.024030512
121	0x3e0e41f4	0.13892347
122	0xbdd42748	-0.10359055
123	0x3bea428b	0.007149046
124	0x3de20909	0.110368796
125	0x3defcefc	0.11709401
126	0x3e04c826	0.12966976
127	0xbdd31638	-0.10306972
128	0xbd4a68c7	-0.04941633
129	0xbe900b09	-0.2813342
130	0x3e178499	0.14796676
131	0xbe6b25c3	-0.22963624
132	0xbe0120a7	-0.12610112
133	0xbd3fff0f	-0.046874102
134	0x3d0920a6	0.0334784
135	0xbe351e25	-0.1768728
136	0x3c8276c4	0.015925772
137	0xbdca04f8	-0.09864229
138	0xbe3b0af1	-0.18265893
139	0xbdd5f3b1	-0.10446871
140	0xbc059f76	-0.008155694
141	0xbd01c444	-0.031681314
142	0xbdd2b48a	-0.10288341
143	0x3e67b10d	0.22626133
144	0x3dedc976	0.11610691
145	0x3df776f3	0.12083235
146	0xbdb7b1eb	-0.08969482
147	0x3e4b2dac	0.19841641
148	0xbe72732d	-0.23676749
149	0x3e0e8d1b	0.13921015
150	0x3c36a144	0.011146847
151	0xbd9ce6b2	-0.07661189
152	0x3dad2b9b	0.08455583
153	0x3e0c061c	0.13674206
154	0x3e257f6e	0.16161892
155	0xbe919879	-0.2843664
156	0x3dd40474	0.10352412
157	0x3e099345	0.13435085
158	0xbe458f14	-0.19292861
159	0xbdb2fbb3	-0.08739414
160	0xbe177f51	-0.14794661
161	0xbaf3596b	-0.0018566077
162	0xbd4f715a	-0.05064521
163	0x3c93d157	0.018044157
164	0x3d92b5cf	0.071635835
165	0x3d24a65f	0.040197726
166	0xbe5b2887	-0.21402179
167	0x3e002be5	0.12516744
168	0xbe4c2d0e	-0.19939062
169	0x3cf4b5a1	0.029871764
170	0xbe4f97cd	-0.20272751
171	0xbdbd3fab	-0.09240659
172	0x3c371e2b	0.011176626
173	0xbdd9726f	-0.106175296
174	0xbda69cbc	-0.081353635
175	0x3ceba1f1	0.028763743
176	0xbe4e4f09	-0.20147337
177	0xbe6d3c98	-0.23167646
178	0xbe52d33b	-0.2058839
179	0xbe4ae721	-0.19814731
180	0x3d838ce2	0.06423356
181	0xbd670513	-0.056401324
182	0xbd05d0dc	-0.032669887
183	0x3bd88d13	0.006608614
184	0xbe55d4e4	-0.20881993
185	0xbe2d7101	-0.16937639
186	0x3da1ddcd	0.07903633
187	0x3d995fef	0.07489001
188	0x3cba70ae	0.022758808
189	0xbd96510e	-0.07339679
190	0xbe750642	-0.23928168
191	0xbd683941	-0.056695227
192	0xbe2be671	-0.16787125
193	0x3c09e940	0.008417428
194	0x3e57fb1b	0.21091883
195	0x3d5600d6	0.05224689
196	0xbd97af4e	-0.074064836
197	0xbdf46d88	-0.11934954
198	0x3cf18327	0.029481484
199	0xbe34ba46	-0.17649183
200	0xbe248842	-0.16067603
201	0x3df828ee	0.12117182
202	0xbe59d767	-0.21273576
203	0xbdb68b34	-0.0891327
204	0xbe7ec543	-0.24879937
205	0x3c1129f2	0.008860098
206	0x3d276ebe	0.040877096
207	0x3dd7f75f	0.10545229
208	0xbc3ac552	-0.011399584
209	0x3ca8c408	0.020601287
210	0x3dd6cbde	0.10488103
211	0x3e2751b7	0.16339765
212	0x3e0e0c8f	0.13871978
213	0x3dfcc507	0.123422675
214	0x3e251254	0.16120273
215	0x3d80f27c	0.0629625
216	0x3dcdbe5a	0.10046072
217	0xbcb9a256	-0.022660416
218	0x3d8d82dc	0.06909725
219	0xbdec9ccb	-0.115533434
220	0xbb3f5b41	-0.0029198679
221	0x3e4ac943	0.19803338
222	0x3e53d270	0.20685744
223	0x3d637978	0.055535764
224	0x3de4199c	0.11137697
225	0xbe0c0588	-0.13673985
226	0xbcf9c012	-0.030487094
227	0xbe2deab4	-0.16984063
228	0xbe25c06d	-0.16186686
229	0xbc724337	-0.014786533
230	0x3e01e747	0.12685882
231	0xbda1977f	-0.07890224
232	0xbe25c7a2	-0.16189435
233	0xbe57d176	-0.21075997
234	0x3e4b05ff	0.19826506
235	0xbce54a7f	-0.027989624
236	0xbe22a52e	-0.15883324
237	0xbde7b42a	-0.113136604
238	0xbd4c617d	-0.04989766
239	0x3e0b7c97	0.13621746
240	0xbcaf0816	-0.02136616
241	0xbe07b635	-0.132531
242	0xbd9b5c6b	-0.07585987
243	0xbe4f38f5	-0.20236571
244	0xbe50e870	-0.20401168
245	0x3e46e4a2	0.19423154
246	0x3e0e6af5	0.13907988
247	0x3e834541	0.25638774
248	0xbd7baf23	-0.06144632
249	0x3d230447	0.039799
250	0x3b733304	0.0037109265
251	0xbe5b73ce	-0.21430895
252	0x3db97214	0.09054962
253	0x3ce276e0	0.027644575
254	0x3e35f8d4	0.17770702
255	0x3e7bb1e5	0.2457958

sequential_3/bidirectional/forward_lstm/Read_2/ReadVariableOp1 f4 [96]
0	0x3d6ec908	0.058297187
1	0x3d53621f	0.051607247
2	0x3c4cce5b	0.012500371
3	0x3d0c4879	0.034248803
4	0x3d220aaa	0.03956095
5	0x3cb2ed37	0.021841628
6	0x3d44deea	0.04806415
7	0x3cf570b4	0.029960968
8	0x3b36599b	0.0027824405
9	0x3d46f4fb	0.048573475
10	0x3d477140	0.048691988
11	0x3d6b79ed	0.057489324
12	0x3d3b9eeb	0.045805853
13	0x3d243e68	0.040098578
14	0x3d4b3357	0.04960951
15	0x3b5fcdac	0.003414969
16	0x39a9f6db	0.00032418114
17	0x3d2b233a	0.04178164
18	0x3d39e4c5	0.045384187
19	0x3d50879e	0.050910585
20	0xbc0002c8	-0.007813163
21	0x3d3dc9c6	0.046335004
22	0x3d143977	0.036187615
23	0x3d57437f	0.052554604
24	0x3f8892b8	1.0669775
25	0x3f8736bb	1.0563577
26	0x3f821b4f	1.0164584
27	0x3f85c0ec	1.04495
28	0x3f8603e7	1.0469941
29	0x3f83ace9	1.0287143
30	0x3f86dfce	1.053705
31	0x3f85022e	1.039129
32	0x3f80b81c	1.0056186
33	0x3f86a0e6	1.0517852
34	0x3f86ac93	1.0521415
35	0x3f87f8cf	1.0622805
36	0x3f866c63	1.0501827
37	0x3f85f78f	1.0466174
38	0x3f86cd23	1.0531353
39	0x3f804933	1.0022339
40	0x3f80709e	1.0034368
41	0x3f85f40a	1.04651
42	0x3f86a25f	1.0518302
43	0x3f874b59	1.0569869
44	0x3f7e0732	0.9922973
45	0x3f873bc9	1.056512
46	0x3f858b47	1.0433129
47	0x3f871c97	1.05556
48	0x3c000f18	0.007816099
49	0x3b170e82	0.0023049419
50	0xb9f10e9d	-0.0004597799
51	0x3b86b1fe	0.004110574
52	0x3a9c89c6	0.0011942915
53	0xbb8dd25f	-0.0043280567
54	0xbb1d3e18	-0.002399331
55	0x3b09997a	0.002099602
56	0x3b66b9c9	0.0035205951
57	0x3a5cfa8f	0.000842967
58	0xbb7e7911	-0.0038829485
59	0xbba35b51	-0.004985251
60	0xbb12b50b	-0.0022385742
61	0xbaf3e2dd	-0.0018607039
62	0xbaf09337	-0.001835442
63	0xbb03ac30	-0.0020091645
64	0x3b2134e3	0.0024598173
65	0xbbbb80c4	-0.005722137
66	0x3b3cf061	0.00288298
67	0xbadd116e	-0.0016866156
68	0x3ac6f70f	0.001517983
69	0xbb58464a	-0.003300088
70	0x3c01e259	0.007927501
71	0xba8f363d	-0.0010926198
72	0x3dad4959	0.084612556
73	0x3d8292a2	0.06375624
74	0x3c850ebf	0.016242383
75	0x3d87a3cb	0.06623038
76	0x3d610131	0.054932777
77	0x3d5947b5	0.0530469
78	0x3d6d8d6a	0.05799619
79	0x3d07dad4	0.033167675
80	0x3c5d6cfa	0.013514752
81	0x3d550b6a	0.05201284
82	0x3d7b5e7b	0.0613694
83	0x3d95dead	0.07317863
84	0x3d6a1b6d	0.05715506
85	0x3d5d0711	0.053961817
86	0x3d88d8a1	0.06681944
87	0x3c2b823a	0.01046806
88	0x3be96366	0.007122445
89	0x3d878e42	0.066189304
90	0x3d80637b	0.062689744
91	0x3d83e15d	0.06439469
92	0xbc06ed2c	-0.008235257
93	0x3d874541	0.06605006
94	0x3d89b49e	0.06723903
95	0x3d7520ca	0.059845723

while/MatMul_14 f4 [96, 24]
0	0x3e1daa98	0.15397108
1	0xbda7f744	-0.08201459
2	0xbd10a3fa	-0.03531263
3	0xbd9dafe4	-0.07699564
4	0x3e4a2cbb	0.19743626
5	0x3d267709	0.040640865
6	0x3e04ec81	0.12980844
7	0x3d4a5723	0.049399506
8	0xbd38a822	-0.04508222
9	0xbe30f053	-0.17279176
10	0x3dac4b0a	0.0841275
11	0xbded89bc	-0.11598536
12	0x3d6d36b7	0.05791351
13	0xbb74ca10	-0.0037351884
14	0xbdc864e2	-0.09784867
15	0xbd6280a3	-0.05529846
16	0xbdcbcc0b	-0.099510275
17	0xbd0f93a4	-0.03505291
18	0xbdb8a3c3	-0.0901561
19	0x3e099033	0.13433914
20	0xbdf5e630	-0.120067954
21	0x3d1a064b	0.037603658
22	0x3e1800cd	0.14844055
23	0x3e1e2ba5	0.15446337
24	0xbdf9455e	-0.12171434
25	0xbd664f1b	-0.056227785
26	0x3cbe76de	0.02325004
27	0xbcf4fa68	-0.02990456
28	0xbcd0f4c8	-0.025507346
29	0xbda8f929	-0.082506485
30	0xbdfcddad	-0.12346969
31	0x3d957b34	0.0729889
32	0x3da98f09	0.08279235
33	0xbdd5c6f0	-0.10438335
34	0xbc9a2faa	-0.018821556
35	0x3d121cce	0.035672
36	0xbe16e8e4	-0.14737278
37	0x3e1f00c1	0.15527631
38	0x3c945646	0.018107545
39	0xbcfcb682	-0.030848745
40	0x3d004080	0.031311512
41	0xbda18f09	-0.0788861
42	0x3d8ff43d	0.07029007
43	0x3daf700e	0.085662946
44	0xbd9b62ee	-0.07587229
45	0x3cd20f71	0.025642129
46	0xbd49a1be	-0.049226515
47	0x3d1aa7aa	0.037757553
48	0x3d93a1a3	0.07208564
49	0x3d2bb2da	0.041918613
50	0x3ea026cd	0.31279603
51	0x3e093898	0.13400495
52	0x3d6bd20c	0.057573363
53	0x3da8ff51	0.08251823
54	0x3d23af42	0.03996206
55	0x3d98955e	0.074503645
56	0xbd6bf807	-0.057609584
57	0xbdba54c6	-0.090982005
58	0xbaaf8325	-0.0013390525
59	0xbb30a0fd	-0.0026951425
60	0xbc63c9c5	-0.013903086
61	0xbd1a89df	-0.03772914
62	0x3d7907a1	0.06079829
63	0xbe06c9c9	-0.13162912
64	0x3e264e30	0.16240764
65	0x3b75401c	0.0037422245
66	0x3c8a6937	0.016895873
67	0x3e42e70f	0.19033454
68	0x3d8cb0ef	0.06869685
69	0xbd9d397f	-0.07676982
70	0x3d753019	0.059860323
71	0x3df42614	0.11921325
72	0x3d791f64	0.060820952
73	0x3d9b47b5	0.075820364
74	0x3def7ab8	0.116933286
75	0xbe393f4f	-0.18090557
76	0xbe3e7f36	-0.18603215
77	0xbc2e705c	-0.010646906
78	0x3e37b476	0.17939934
79	0x3c46a9fd	0.012125489
80	0x3dec863a	0.11549039
81	0xbd7ff06a	-0.062485136
82	0x3e73c367	0.23805009
83	0x3da846bd	0.08216617
84	0xbc77ecdd	-0.015132156
85	0x3d0b2856	0.033974014
86	0xbbc56fa4	-0.0060252715
87	0xbd1e3f0a	-0.038634337
88	0xbd8ce2d7	-0.06879204
89	0xbc69204f	-0.014228894
90	0xbd5a642f	-0.0533182
91	0x3e42bc21	0.19017078
92	0x3c46e106	0.012138611
93	0xbdf259eb	-0.11833557
94	0x3da5ca8c	0.080952734
95	0x3e7eeca5	0.2489496
96	0x3d9e7f99	0.07739181
97	0xbe58182c	-0.21102971
98	0xbda6db6b	-0.081473194
99	0x3d537ab1	0.05163068
100	0xbd21a984	-0.039468303
101	0xbdc480f6	-0.0959491
102	0xbda7d5c3	-0.08195069
103	0xbd78b151	-0.060715977
104	0x3e1529a1	0.14566661
105	0x3bebc3a1	0.0071949516
106	0xbda75f06	-0.08172421
107	0xbcd52d4f	-0.026022581
108	0x3d185a21	0.03719533
109	0xbd18bc39	-0.037288878
110	0xbd561c8e	-0.052273326
111	0xbc882287	-0.016618026
112	0x3c0b2884	0.008493546
113	0xbdabbe95	-0.0838596
114	0xbe3807fa	-0.17971793
115	0x3e55cce5	0.20878942
116	0xbe26b758	-0.16280878
117	0xbda736f2	-0.08164777
118	0xbc6cc10d	-0.014450324
119	0xbd39502c	-0.045242473
120	0x3dc58216	0.096439525
121	0xbd0a58eb	-0.033776205
122	0x3e18869f	0.14895104
123	0xbe3b89bf	-0.18314265
124	0xbdac3010	-0.08407605
125	0xbe888938	-0.2666719
126	0xbd326ad4	-0.04355891
127	0x3c0a37a7	0.00843612
128	0x3e0d0bc6	0.13774022
129	0x3c1a9cc0	0.009436786
130	0x3e68fccd	0.22752686
131	0x3d0d1ef0	0.034453332
132	0xbd796d62	-0.06089533
133	0x3dd86d5f	0.10567736
134	0xbcd22b71	-0.02565548
135	0x3cb3db8e	0.021955278
136	0xbd89725d	-0.06711266
137	0x3de26397	0.110541515
138	0xbe12f26e	-0.14350292
139	0xbc895db5	-0.016768316
140	0x3c7b5a85	0.015341406
141	0x3e20fad6	0.15720686
142	0x3d1c973f	0.038230177
143	0x3e630d2f	0.22172998
144	0x3e890841	0.2676411
145	0xbe277be2	-0.16355851
146	0xbd090180	-0.033448696
147	0xbe4fa693	-0.20278387
148	0xbc32b65e	-0.010907738
149	0xbdf21221	-0.11819864
150	0x3d4d7805	0.050163288
151	0x3ddfb142	0.10922481
152	0x3e4694ae	0.19392654
153	0xbd9523f6	-0.0728225
154	0x3d28da07	0.041223552
155	0x3d95f611	0.07322324
156	0x3e1df344	0.1542483
157	0xbcd82dad	-0.026388967
158	0x3da1d72d	0.0790237
159	0xbc48dd5d	-0.012259808
160	0xbe473bd1	-0.19456412
161	0xbb49f071	-0.003081348
162	0x3b9b99b4	0.0047485474
163	0x3dff89fa	0.12477489
164	0xbd606b91	-0.054790083
165	0x3e1ccfa1	0.15313579
166	0x3d4131bb	0.047166567
167	0xbe1c56b7	-0.15267454
168	0x3d3dc5a3	0.04633106
169	0xbdcc194e	-0.09965764
170	0x3e1ad078	0.15118587
171	0xbd4665e0	-0.048437
172	0x3e27738f	0.16352676
173	0xbc8e0673	-0.01733706
174	0x3cefea40	0.029286504
175	0x3d1259c3	0.035730135
176	0x3d7099ac	0.058740303
177	0xbd92da64	-0.07170561
178	0xbdd74797	-0.105117016
179	0x3e1c87be	0.15286157
180	0x3d94cf6d	0.07266126
181	0x3e02c7cc	0.12771529
182	0xbc74dba5	-0.014944945
183	0x3d8cfaec	0.06883797
184	0xbe129fc5	-0.1431876
185	0xbd53af54	-0.051680878
186	0xbd9c777e	-0.07639979
187	0x3d9fb733	0.07798614
188	0xbd52bf98	-0.05145225
189	0xbcf50838	-0.029911146
190	0x3e0befd9	0.13665713
191	0x3e10d029	0.14141907
192	0x3d26ba30	0.040704906
193	0xbcb2b4f2	-0.021814797
194	0x3dc9a75a	0.09846373
195	0x3d324860	0.043526053
196	0x3de590d4	0.112092644
197	0xbe25ad15	-0.16179307
198	0xbb6f5197	-0.0036517137
199	0xbc90c156	-0.017670315
200	0x3d92a4a1	0.07160307
201	0xbd161b0d	-0.03664689
202	0xbd8a141f	-0.06742119
203	0x3dd1cdcb	0.1024433
204	0x3d4aa60c	0.04947476
205	0x3d08d2c0	0.03340411
206	0x3e1907ff	0.14944457
207	0x3b1e8aae	0.0024191546
208	0xbda4b5d5	-0.08042494
209	0x3ddbe470	0.1073693
210	0xbcb674ce	-0.022272494
211	0xbc494771	-0.012285099
212	0x3da6fb33	0.08153381
213	0xbe04c57c	-0.1296596
214	0xbe03eed2	-0.12884071
215	0x3dd79555	0.1052653
216	0xbdc9539b	-0.098303996
217	0xbe032d9f	-0.12810372
218	0x3d6a3578	0.057179898
219	0x3d626106	0.05526831
220	0x3da7cff5	0.081939615
221	0xbe0b786e	-0.13620159
222	0x3e4d5a36	0.20053944
223	0xbd2b9003	-0.041885387
224	0xbb8c98ad	-0.0042906613
225	0x3cb1744c	0.0216619
226	0x3e478f59	0.19488277
227	0x3e33a58d	0.17543621
228	0x3e010a01	0.12601472
229	0xbd912f83	-0.0708914
230	0xbc09c3c0	-0.008408487
231	0xbc8587f1	-0.016300173
232	0x3d5c3afe	0.053767197
233	0xbd1e10d9	-0.038590286
234	0x3e0c5899	0.13705672
235	0x3c91ab42	0.017781857
236	0xbdee7515	-0.116434254
237	0xbd9dac02	-0.076988235
238	0xbe09a64f	-0.13442348
239	0xbd88737e	-0.066626534
240	0xbd80ad9e	-0.06283115
241	0xbdcc4cfe	-0.099756226
242	0xbb0f568b	-0.0021871652
243	0xbcf695e6	-0.030100774
244	0x3e14ea09	0.14542402
245	0x3c6b70ff	0.014370202
246	0x3e0f5e1d	0.14000745
247	0x3d095771	0.033530656
248	0x3d16128e	0.03663879
249	0x3e4d51e0	0.20050764
250	0xbd56e147	-0.052460935
251	0xbd9631c5	-0.073337115
252	0x3e569bbb	0.20957844
253	0x3d06f678	0.032949895
254	0x3dffa9ea	0.124835804
255	0x3cd693eb	0.02619358

while/MatMul2 f4 [96, 16]
0	0x3e4732cc	0.19452971
1	0xbd893e27	-0.06701308
2	0xbe494e80	-0.19658852
3	0x3d26d18c	0.040727183
4	0x3c9bf501	0.019037725
5	0xbd44caf0	-0.0480451
6	0xbe4e161d	-0.20125623
7	0x3d22c754	0.039740875
8	0x3d71dea5	0.05905022
9	0x3d048866	0.032356642
10	0xbd70ea1d	-0.058817018
11	0xbe082fab	-0.13299434
12	0x3e62b57b	0.22139542
13	0x3d8cc663	0.06873777
14	0xbd7f3305	-0.062304515
15	0x3d412b4e	0.04716044
16	0x3deb8778	0.11500448
17	0x3e0a5c56	0.13511786
18	0xbcba0087	-0.02270533
19	0xbe1a1824	-0.15048271
20	0x3e564078	0.2092303
21	0xbc161fab	-0.009162824
22	0xbe169939	-0.14706887
23	0xbe2fbda2	-0.17162183
24	0x3d93ad88	0.07210833
25	0xbd3651e6	-0.0445117
26	0x3e49aaba	0.19694033
27	0x3dbc7572	0.092020884
28	0xbe04301f	-0.12908982
29	0xbe4c9a95	-0.19980843
30	0x3e3b20d7	0.18274246
31	0xbd949fd1	-0.07257045
32	0x3de922e4	0.11383608
33	0x3da7bddb	0.08190509
34	0x3dc085a0	0.09400487
35	0xbd7a5747	-0.06111839
36	0x3e12b441	0.14326574
37	0xbe4c9c61	-0.19981529
38	0xbd0770b0	-0.03306645
39	0x3deaf422	0.11472346
40	0xbd8fbe2b	-0.070186935
41	0xbde2c328	-0.11072379
42	0xbe59f53f	-0.2128496
43	0xbcae567d	-0.021281475
44	0xbe642e9f	-0.2228341
45	0xbe49e770	-0.19717193
46	0xbdde529e	-0.10855602
47	0x3c62ddfe	0.013846872
48	0x3e55e385	0.20887573
49	0x3bf38239	0.0074312952
50	0xbd7ffee2	-0.062498935
51	0xbe0381d3	-0.12842493
52	0x3c588ddd	0.013217417
53	0x3b727d08	0.0037000794
54	0x3d86f8ec	0.06590447
55	0xbe72d882	-0.23715404
56	0xbdcfbc97	-0.101433925
57	0xbcc6e6ed	-0.024280036
58	0x3df85197	0.12124937
59	0x3e32f713	0.17477064
60	0xbde148f5	-0.110002436
61	0x3c33395d	0.010938969
62	0x3dedd926	0.116136834
63	0xbe14589a	-0.14486924
64	0xbddd4a28	-0.1080516
65	0xbdf05a0f	-0.11735927
66	0xbe542520	-0.20717287
67	0x3e4f7de0	0.20262861
68	0x3e2f29f7	0.17105852
69	0xbe544bef	-0.20732091
70	0x3e3c8925	0.18411691
71	0x3dd3c03f	0.103394024
72	0xbd35ae1d	-0.0443555
73	0xbe5608a8	-0.2090174
74	0x3e59210a	0.2120401
75	0xbd6085e0	-0.054815173
76	0x3e624ae9	0.22098888
77	0xbe15772f	-0.14596246
78	0x3da25d5b	0.079279624
79	0x3d5a1618	0.053243726
80	0xbdb4c459	-0.08826513
81	0xbc38bcdf	-0.011275499
82	0xbc94982f	-0.018138973
83	0x3e5ebcd0	0.21751714
84	0x3e0afd31	0.13573147
85	0x3e5dc984	0.21658903
86	0x3dc21776	0.09477131
87	0xbe0f8ccc	-0.14018553
88	0x3de4a58f	0.1116439
89	0x3e20b259	0.15693034
90	0xbe444d2a	-0.19170061
91	0x3d5ab06b	0.0533909
92	0x3e5726bd	0.21010871
93	0x3d611f91	0.054961745
94	0x3cd6a0d7	0.026199741
95	0x3e01bacf	0.12668918
96	0xbe2c51ec	-0.16828126
97	0xbe2056b7	-0.15658079
98	0xbdc19290	-0.09451783
99	0x3d5b7802	0.053581245
100	0x3ddb2f0e	0.10702334
101	0x3d307ea6	0.04308953
102	0xbd5a2c4d	-0.053264905
103	0x3d46fa97	0.048578825
104	0x3d98f0d3	0.074678086
105	0x3e4204dc	0.18947166
106	0xbe56612e	-0.20935509
107	0x3e09cb4a	0.13456455
108	0x3d9cc5fc	0.0765495
109	0x3dc665a7	0.096873574
110	0xbdd32ffb	-0.10311886
111	0xbda9e143	-0.082949184
112	0xbe274146	-0.16333494
113	0xbcdcab2f	-0.026937095
114	0xbe5df701	-0.21676256
115	0xbe398fda	-0.18121281
116	0x3e41cd4e	0.18925974
117	0xbdcdcce1	-0.10048843
118	0x3e6442b9	0.22291078
119	0xbe48bb33	-0.19602661
120	0x3de1de70	0.11028755
121	0x3de09557	0.10965984
122	0xbd86eceb	-0.06588157
123	0x3cd309bd	0.02576148
124	0x3dde6a48	0.10860115
125	0x3e68e829	0.22744812
126	0xbe363a6f	-0.17795728
127	0x3cdd992d	0.027050579
128	0xbe3297ea	-0.17440763
129	0x3e219d81	0.15782739
130	0xbdce66de	-0.10078214
131	0xbd903925	-0.070421495
132	0x3e0c22c6	0.1368514
133	0x385441da	5.0606068e-05
134	0x3e341483	0.1758595
135	0xbe2ad3ae	-0.16682312
136	0xbcdcc883	-0.02695108
137	0xbe14fd5f	-0.14549778
138	0x3e472dfa	0.19451132
139	0xbe613bc4	-0.21995455
140	0x39aaf989	0.00032610845
141	0x3e141670	0.14461684
142	0xbd837ed8	-0.06420678
143	0xbe589072	-0.21148852
144	0x3d8e1238	0.06937069
145	0x3d644823	0.055732857
146	0x3d7292d8	0.059222072
147	0x3d932df0	0.07186496
148	0xbe458fb4	-0.192931
149	0x3da7e4ff	0.081979744
150	0xbe17dfde	-0.14831492
151	0xbd113637	-0.035452094
152	0xbe140a32	-0.14457014
153	0x3e674f34	0.22588807
154	0xbe61be15	-0.22045167
155	0x3cb15b29	0.021649914
156	0x3e2c7f5a	0.16845456
157	0x3dc2246a	0.09479602
158	0x3d7f060a	0.06226162
159	0x3db16bca	0.08663137
160	0xbe276d89	-0.16350378
161	0xbe4fb95e	-0.20285556
162	0x3d2d6d79	0.04234073
163	0x3db69e6d	0.08916936
164	0x3e487377	0.19575296
165	0x3c34bd09	0.011031398
166	0x3e183639	0.14864434
167	0x3d8de217	0.06927889
168	0xbe581fd0	-0.21105886
169	0x3db21256	0.086949036
170	0x3ddd0405	0.10791782
171	0x3e5fc978	0.21854198
172	0x3da125c3	0.078685306
173	0xbcf95e3a	-0.030440439
174	0xbe2974c8	-0.16548455
175	0xbe03fc39	-0.12889184
176	0xbc90df8c	-0.01768472
177	0xbe03315c	-0.12811798
178	0xbdebd16a	-0.11514552
179	0x3e4788ad	0.19485731
180	0x3e068aa0	0.13138819
181	0x3c881907	0.016613496
182	0x3e189f78	0.14904583
183	0xbb1f93de	-0.002434961
184	0xbe5d0898	-0.2158531
185	0xbdca1d65	-0.09868888
186	0x3e5d3045	0.21600445
187	0xbe057db6	-0.13036236
188	0xbe307429	-0.17231812
189	0x3ce5a59c	0.02803307
190	0x3e189c7b	0.14903443
191	0x3c483904	0.012220625
192	0x3e2acb85	0.16679199
193	0x3e559d15	0.20860703
194	0x3e58d573	0.21175174
195	0x3e1110e6	0.14166602
196	0x3e4dc3ef	0.20094274
197	0xbdec1f9f	-0.11529469
198	0x3e5ba5ae	0.2144992
199	0xbcb8d4ed	-0.022562468
200	0xbd875deb	-0.0660971
201	0xbe537925	-0.20651682
202	0x3d79e888	0.061012775
203	0xbceabc93	-0.028654372
204	0xbdbe2586	-0.09284501
205	0xbe674859	-0.22586192
206	0xbd028f90	-0.031875193
207	0x3e60c48e	0.2194998
208	0x3e2f7b70	0.17136931
209	0xbda10404	-0.07862094
210	0x3def3e35	0.11681787
211	0x3dc26215	0.09491364
212	0x3e5976f9	0.2123679
213	0xbe3adf50	-0.1824925
214	0xbd83ae82	-0.06429769
215	0xbd6c0399	-0.05762062
216	0xbdb4cd65	-0.088282384
217	0x3e1085f2	0.14113596
218	0xbca1691f	-0.019703446
219	0x3e04ab2a	0.12955919
220	0x3e5642e3	0.20923953
221	0xbd5f7383	-0.05455352
222	0xbdd4e7a5	-0.10395745
223	0xbe2d6406	-0.16932687
224	0x3c47c4cc	0.012192916
225	0xbdbd6f02	-0.09249689
226	0x3e6b549f	0.22981499
227	0xbe14e9a9	-0.1454226
228	0x3c2154f0	0.009846911
229	0x3e4651b2	0.19367102
230	0x3e6d4876	0.23172173
231	0x3dcc1333	0.099645995
232	0x3e436e76	0.19085106
233	0xbe3ae98c	-0.18253154
234	0xbdfa61e1	-0.122257
235	0xbe43a150	-0.19104505
236	0xbdf534f5	-0.119729914
237	0x3d23f218	0.0400258
238	0x3e4a7852	0.19772461
239	0xbccea73a	-0.025226224
240	0x3deebb27	0.1165679
241	0x3de158cc	0.11003265
242	0xbdd23a55	-0.10265032
243	0xbd699133	-0.05702324
244	0xbc390e8e	-0.011294974
245	0xbe1fb279	-0.15595426
246	0x3e3fac80	0.18718147
247	0xbc6749d2	-0.014116721
248	0xbe3b5975	-0.18295844
249	0xbe0781fd	-0.1323318
250	0x3e10b0e2	0.14129975
251	0x3e4b84d8	0.19874895
252	0xbe1a335e	-0.15058658
253	0xbe5863e8	-0.21131861
254	0xbe300dd9	-0.17192782
255	0x3db99cc9	0.090631075
