model-weight/hoax/C2/hoax_detection_C2.tflite (tflite, 698964 bytes, 14 tensors)

sequential_7/dense_15/MatMul;sequential_7/dense_15/Relu;sequential_7/dense_15/BiasAdd f4 [8]
0.11743007 -0.06473707 0.91574633 1.3159769 0.37581623 1.3935603 -0.596161 0.17713058
00000000: 2d7f f03d de94 84bd 5a6e 6a3f ee71 a83f
00000010: fc6a c03e 2f60 b23f 029e 18bf b861 353e

sequential_7/batch_normalization_3/batchnorm/mul_1;sequential_7/batch_normalization_3/batchnorm/add_1;sequential_7/dense_15/MatMul;sequential_7/dense_15/Relu;sequential_7/dense_15/BiasAdd f4 [8, 24]
-4.060324 -5.3422403 -2.74491 3.020328 2.7064528 4.1062427 -1.822594 3.6667643
-0.008343692 -6.6788497 0.8700357 3.2496557 -2.565491 4.1935587 -3.9865854 5.116627
3.115709 -2.1952517 -1.9611751 -1.8782941 4.1785393 0.008316598 1.8506058 -2.9041607
0.70470494 -2.650225 2.5019212 -3.126784 0.7148992 7.6605325 -5.4459105 -2.3840394
5.9028845 6.6892204 1.047813 2.7124088 2.1282134 1.7913569 -6.8609967 4.52693
0.9355534 -3.8398254 -2.3675122 0.13536747 7.619136 1.7633134 -1.5490887 -0.99892634
0.88339305 -1.2260354 -2.5505636 1.2449834 -0.5134357 2.158758 4.216392 -2.2047973
1.783267 -8.430932 -0.75453913 0.78932637 -2.2559268 -4.8674664 -4.107392 -0.042659085
-3.9189124 4.9799995 -0.953615 -3.8436198 6.5732107 -1.5926385 -1.187967 0.69376934
-0.9848118 4.0556536 4.4704895 -3.6487458 3.0568664 -3.9330256 -2.3442895 -3.4142299
1.6951847 -10.604778 -3.5513525 -0.3645993 -2.1103764 1.3179712 -8.230251 1.5444313
5.226058 1.5281736 -4.312207 -1.0153216 0.381671 -1.8712379 -5.4954023 -2.5223923
-2.8411107 -2.7481043 -1.8980823 4.6345835 -3.6786356 5.6474953 -1.0519186 4.837015
3.3116658 4.6962285 -2.889805 0.40350363 1.5839428 -5.619763 -0.14647272 0.3169198
-2.327917 0.14578451 3.9679852 -2.767507 1.9578621 2.4145637 -3.2371814 1.8357627
-0.13456647 5.5264564 1.3370574 -3.8739052 -0.34602776 6.3619795 -1.9235682 -4.203853
5.915015 7.467377 -4.157789 2.9890451 0.16937071 -2.8473415 -7.016904 2.0017912
2.3303056 1.7213621 -0.6701625 -2.2697194 -6.4671063 -3.9135594 -4.489284 -2.813054
1.3062707 1.2805665 -3.208264 2.3493516 0.12076197 -6.313217 4.912015 3.9311168
-3.5802503 5.565243 4.4205647 -0.18264385 1.9261115 1.9157319 -0.10330472 5.996447
2.8232162 -0.34529203 -3.3371305 -2.7574654 -4.4565306 -1.5932833 4.7231345 -1.4861736
-4.343251 3.8489003 4.529194 1.0850781 3.55184 -4.2329507 -0.3450591 -3.7800674
3.0319934 2.0274115 -2.6454897 -0.38905385 1.8769879 -3.6244602 -1.6528537 -6.3814754
4.0578465 2.3683066 2.5621738 1.6412147 -6.823477 -3.397948 -2.9074695 -2.6416762
00000000: 2dee 81c0 a2f3 aac0 9bac 2fc0 0e4d 4140
00000010: 8636 2d40 5766 8340 c34a e9bf 44ac 6a40
00000020: fbb3 08bc 23b9 d5c0 a9ba 5e3f 5cfa 4f40
00000030: 0131 24c0 a231 8640 3724 7fc0 69bb a340
00000040: c767 4740 017f 0cc0 c907 fbbf f16b f0bf
00000050: 98b6 8540 5742 083c a7e0 ec3f c5dd 39c0
00000060: 8b67 343f 499d 29c0 7a1f 2040 3b1d 48c0
00000070: a203 373f 1523 f540 e644 aec0 1a94 18c0
00000080: 6ee4 bc40 180e d640 bd1e 863f 1b98 2d40
00000090: a634 0840 2f4b e53f 498d dbc0 9cdc 9040
000000a0: 6d80 6f3f b3bf 75c0 5285 17c0 c59d 0a3e
000000b0: f6cf f340 41b4 e13f 8a48 c6bf a3b9 7fbf
000000c0: 0c26 623f baee 9cbf 6f3c 23c0 9e5b 9f3f
000000d0: 8670 03bf 1729 0a40 afec 8640 661b 0dc0
000000e0: 1842 e43f 19e5 06c1 7a29 41bf 4b11 4a3f
000000f0: 1b61 10c0 49c2 9bc0 c16f 83c0 4bbb 2ebd
00000100: 76cf 7ac0 285c 9f40 1d20 74bf defd 75c0
00000110: be57 d240 94db cbbf 4d0f 98bf de9a 313f
00000120: a01c 7cbf eac7 8140 400e 8f40 0d85 69c0
00000130: b3a3 4340 b1b6 7bc0 d708 16c0 be82 5ac0
00000140: d0fb d83f 2cad 29c1 5c49 63c0 c2ac babe
00000150: 6810 07c0 48b3 a83f 1caf 03c1 edaf c53f
00000160: de3b a740 319b c33f 9afd 89c0 0ff6 81bf
00000170: 626a c33e b984 efbf 56da afc0 e06e 21c0
00000180: c2d4 35c0 f1e0 2fc0 5cf4 f2bf 824e 9440
00000190: c46e 6bc0 48b8 b440 45a5 86bf d4c8 9a40
000001a0: 55f2 5340 8147 9640 91f2 38c0 0798 ce3e
000001b0: a3be ca3f 19d5 b3c0 f2fc 15be 5043 a23e
000001c0: 98fc 14c0 8948 153e 78f3 7d40 d61e 31c0
000001d0: 3a9b fa3f 3688 1a40 fb2d 4fc0 46fa ea3f
000001e0: cbcb 09be bbd8 b040 b224 ab3f 10ee 77c0
000001f0: 8d2a b1be 5695 cb40 7c37 f6bf f785 86c0
00000200: ce47 bd40 c1f4 ee40 9c0c 85c0 844c 3f40
00000210: 846f 2d3e d83a 36c0 7a8a e0c0 591d 0040
00000220: ba23 1540 9855 dc3f c58f 2bbf 1543 11c0
00000230: 89f2 cec0 c277 7ac0 37a8 8fc0 1409 34c0
00000240: e133 a73f 9ae9 a33f 3354 4dc0 c75b 1640
00000250: 0d52 f73d e005 cac0 3a2f 9d40 6b97 7b40
00000260: d222 65c0 7816 b240 4475 8d40 fd06 3bbe
00000270: d28a f63f b436 f53f 6d91 d3bd e5e2 bf40
00000280: 93af 3440 1eca b0be 8c93 55c0 507a 30c0
00000290: e69b 8ec0 b5f0 cbbf eb23 9740 f03a bebf
000002a0: eafb 8ac0 6254 7640 28ef 9040 d7e3 8a3f
000002b0: 5951 6340 5574 87c0 96ab b0be a0ec 71c0
000002c0: 2e0c 4240 1cc1 0140 b44f 29c0 1132 c7be
000002d0: 2441 f03f 28f7 67c0 b690 d3bf 0c35 ccc0
000002e0: e1d9 8140 5692 1740 a8fa 2340 5313 d23f
000002f0: ec59 dac0 fb77 59c0 fb13 3ac0 3911 29c0

sequential_7/lstm_8/Read_2/ReadVariableOp f4 [64]
0.00066338014 0.010422746 0.020247689 0.007693112 0.030153029 0.039610162 0.004081807 -0.0028897836
0.004591364 0.009437517 0.032989446 -0.005374983 0.029266683 0.024941202 -0.00041228387 -0.013971517
1.0062611 1.0153685 1.0240417 1.0082664 1.0331202 1.0411677 1.0069702 0.99858254
1.0072603 1.0123372 1.0359923 0.99927795 1.0317832 1.0264329 1.0032599 0.98740274
-0.0016529751 0.0011670559 -0.01358535 -0.015220344 -0.004409719 -1.7964567e-05 -0.011003012 0.00055766606
-0.0064405934 -0.006409984 -0.011330675 -0.0064270785 0.0076203006 -0.0073494897 0.0037119356 0.0025144743
-0.00024549462 0.009772018 0.020176662 0.0072491113 0.030189857 0.031523675 0.0058645746 -0.0031985156
0.004587336 0.008637158 0.029052548 -0.005682826 0.02524503 0.022269975 -0.0010182001 -0.014050218
00000000: b0e6 2d3a 2ac4 2a3c 7bde a53c 8016 fc3b
00000010: 7c03 f73c 443e 223d aec0 853b 8662 3dbb
00000020: 2773 963b d19f 1a3c f11f 073d a020 b0bb
00000030: afc0 ef3c 7e51 cc3c ce27 d8b9 cae8 64bc
00000040: 2acd 803f 98f7 813f cc13 833f e00e 813f
00000050: 483d 843f fc44 853f 66e4 803f 1ba3 7f3f
00000060: e8ed 803f 4494 813f 659b 843f aed0 7f3f
00000070: 7911 843f 2762 833f d26a 803f 6dc6 7c3f
00000080: a4a8 d8ba e6f7 983a 1695 5ebc c05e 79bc
00000090: 677f 90bb 9db2 96b7 fa45 34bc 5630 123a
000000a0: 9d0b d3bb d80a d2bb 4ca4 39bc 3e9a d2bb
000000b0: b7b3 f93b fdd3 f0bb f243 733b e1c9 243b
000000c0: bbb5 80b9 d01a 203c 8749 a53c f489 ed3b
000000d0: b850 f73c f81e 013d 9e2b c03b 309e 51bb
000000e0: 5d51 963b de82 0d3c 9cff ed3c 0037 babb
000000f0: aace ce3c 866f b63c 2075 85ba e332 66bc

sequential_7/lstm_7/Read_2/ReadVariableOp f4 [128]
0.03351884 0.0018253655 0.005021943 0.021665135 0.005372959 -0.008743575 0.042015426 0.009054774
-0.0058641406 0.02437375 0.02455601 0.023955869 0.013192668 0.014565963 0.025647204 0.00225441
0.03000263 0.014201635 0.037242476 0.03988644 -0.00081543234 0.02041923 -0.0034908496 -0.00020604575
0.029701576 0.023622202 0.015740994 0.004975536 -0.014163294 0.016388264 0.033400964 0.0055865715
1.0374548 1.0043206 1.0057935 1.0255271 1.0095305 0.99178284 1.0440071 1.0096171
0.9960026 1.026769 1.026804 1.0274156 1.0170555 1.0171546 1.0278236 1.0026687
1.0323795 1.016765 1.040064 1.043059 1.0006045 1.0229672 0.99648166 1.000194
1.0327314 1.0262145 1.019146 1.0072564 0.9870077 1.0202135 1.0380778 1.0074557
0.002252757 0.0025403895 0.0067025484 0.0010499405 0.004976879 -0.0049500535 -0.0012528853 -0.0003125725
0.00039697907 0.002578216 0.0045428486 -0.007469782 0.003086108 -0.0044286754 -0.004450566 -0.0011882994
-0.0012212637 0.008739906 -0.0020331831 0.001596275 -0.00278746 -0.0004502846 -0.0042461236 -0.008152976
0.004341412 0.0027986094 -0.00038039297 0.0023201706 0.00059603335 -0.004266942 -0.0023974404 -0.0028210043
0.033257615 0.001729363 0.004926919 0.021710781 0.0052282265 -0.008766678 0.041364826 0.008849342
-0.005848427 0.024000868 0.024434634 0.023408959 0.012922196 0.01453215 0.0256052 0.0023143739
0.029413134 0.013905377 0.03643369 0.039635982 -0.0007896619 0.019790705 -0.0034003854 -0.00023615989
0.029363079 0.023055587 0.01594021 0.004809822 -0.014086625 0.016334245 0.033163182 0.005422368
00000000: 0d4b 093d 1a41 ef3a 1c8f a43b 157b b13c
00000010: a60f b03b 3641 0fbc 5e18 2c3d 7a5a 143c
00000020: fa27 c0bb 75ab c73c af29 c93c 193f c43c
00000030: 0f26 583c 14a6 6e3c 161a d23c b9be 133b
00000040: 13c8 f53c f9ad 683c 918b 183d f75f 233d
00000050: bdc2 55ba 3b46 a73c bdc6 64bb fc0d 58b9
00000060: b850 f33c 5983 c13c 42f3 803c d209 a33b
00000070: 290d 68bc ae40 863c 73cf 083d 8f0f b73b
00000080: 52cb 843f 948d 803f d7bd 803f 7944 833f
00000090: 4c38 813f 7be5 7d3f 06a2 853f 223b 813f
000000a0: 07fa 7e3f 2b6d 833f 506e 833f 5b82 833f
000000b0: e02e 823f 1f32 823f b98f 833f 7357 803f
000000c0: 0325 843f 5b25 823f d120 853f f582 853f
000000d0: cf13 803f 97f0 823f 6c19 7f3f 5b06 803f
000000e0: 8b30 843f ff5a 833f 6073 823f c7ed 803f
000000f0: 89ac 7c3f 5b96 823f bcdf 843f 4ff4 803f
00000100: fea2 133b aa7c 263b 0da1 db3b 289e 893a
00000110: 1615 a33b 0f34 a2bb db37 a4ba c5e0 a3b9
00000120: a121 d039 49f7 283b 2ddc 943b 13c5 f4bb
00000130: 4d40 4a3b 6c1e 91bb 0ed6 91bb b6c0 9bba
00000140: cf12 a0ba d331 0f3c 273f 05bb 1a3a d13a
00000150: d2ad 36bb 2d14 ecb9 1123 8bbb 0f94 05bc
00000160: 6742 8e3b e068 373b 7b6f c7b9 010e 183b
00000170: 1f3f 1c3a b4d1 8bbb 601e 1dbb 99e0 38bb
00000180: 2339 083d cbab e23a fe71 a13b cfda b13c
00000190: 8b51 ab3b 1da2 0fbc 2a6e 293d d5fc 103c
000001a0: 29a4 bfbb 789d c43c 242b c83c 25c4 bf3c
000001b0: 9eb7 533c 4118 6e3c ffc1 d13c c0ac 173b
000001c0: d0f3 f03c 61d3 633c 7e3b 153d 5759 223d
000001d0: 5001 4fba 1e20 a23c 00d9 5ebb b0a1 77b9
000001e0: d78a f03c 12df bc3c 0b95 823c b69b 9d3b
000001f0: 96cb 66bc 65cf 853c 1ed6 073d 1fae b13b

sequential_7/embedding_7/embedding_lookup f4 [10000, 16]
-0.033762123 0.020743428 -0.04515225 -0.024629377 0.02588984 -0.010289652 -0.04805926 0.0051013953
0.036716033 0.043574452 -0.03466962 0.015128414 -0.008636612 0.04211861 -0.03555197 0.0057343342
-0.019039651 -0.0084946295 0.02674054 0.02289987 0.0031864035 -0.04068304 -0.0042892266 -0.029027471
-0.025119396 -0.04174331 0.005152605 -0.024015402 -0.027105616 0.014295234 -0.0495921 0.037027605
-0.04078578 -0.05196548 -0.0049900035 -0.0065182857 -0.03181795 0.010531096 0.006229479 0.0011719924
0.021270111 0.039051726 -0.004132007 0.03905537 0.03391674 -0.0018784703 0.029481146 -0.016113471
-0.004170954 -0.013769469 0.036745384 -0.0049999384 -0.00088697375 -0.0071019977 0.037118666 0.01553858
-0.00059546274 0.012845354 0.04132454 -0.018224051 -0.058654785 -0.0054176305 0.026993198 -0.034093484
-0.035363518 -0.040386684 0.017488034 0.019597797 -0.010593716 0.035590023 0.050648097 -0.0022941492
0.035885766 -0.022767829 -0.032601826 -0.012796065 -0.008476961 -0.018257672 -0.019056158 -0.027426993
-0.03040692 0.045528177 -0.02385737 -0.06582138 0.0088117 0.003608557 -0.03755056 -0.00720998
0.008837949 -0.029093202 -0.05105381 -0.0476669 0.026815291 -0.017626345 -0.02740919 0.00072445604
0.02838358 0.025164615 0.00023888609 0.007861155 0.0077300924 0.0037753494 -0.0035359438 0.018582374
-0.06192054 -0.0097005665 -0.014437788 0.022000728 0.01731798 -0.025371093 0.017819146 0.0007002016
-0.0413257 0.001358203 0.014554202 0.041683227 -0.0076773334 0.039891183 -0.05105469 -0.02299062
0.021752069 0.036395304 0.0038410383 0.045030892 -0.0044234954 0.008246295 -0.023285134 0.020577097
-0.023093909 -0.0049634534 -0.036004942 0.017361615 0.021672122 0.0125616295 -0.003892109 0.050991807
-0.019038271 -0.02710564 0.0010423908 -0.02637574 -0.051440537 0.02399886 -0.025101852 0.008598371
-0.025198402 -0.032071438 -0.03661172 -0.009816566 0.016659977 -0.03224097 -0.003986297 -0.021451509
0.04313862 -0.050549798 0.02919991 0.029317115 0.04367983 -0.012267491 0.038499437 0.018537337
0.038953938 -0.022989227 -0.036381375 -0.009692415 -0.031759784 0.004075065 0.022470737 0.010548419
-0.03599246 0.058093954 0.010185995 0.04211745 -0.045023557 -0.026671434 -0.023356553 0.027211513
-0.011509663 -0.028139591 0.0001498467 0.06068111 0.047662094 -0.020488448 0.01498984 0.04844958
0.025547167 0.053184908 0.01979431 0.04271701 -0.059478227 -0.03363014 0.020811452 0.029638948
0.014599684 -0.038431335 -0.07317533 0.033570066 0.07524466 -0.04101675 0.07762944 -0.031072997
0.032916 0.094508305 -0.017443798 0.031596143 -0.01560802 -0.08040262 0.015622493 0.0044229575
-0.006971176 -0.008807101 -0.009095335 -0.05068477 0.02733648 0.052974187 -0.051591337 -0.018683042
-0.010876357 -0.053161193 -0.002455909 0.026291108 0.009570953 -0.036421638 0.020782275 -0.0056857374
-0.013979515 0.04026974 0.006610334 -0.01924987 -0.02638639 -0.024620663 -0.03086887 0.02526378
0.0074564223 0.03350505 -0.020759227 0.0025978363 -0.043436326 0.043645315 -0.0071122325 0.010390094
0.04256328 -0.005617732 -0.0016285684 -0.03199892 0.043682683 0.029170267 0.058378264 0.0066518593
0.022134848 0.055492867 -0.0071921735 0.019103538 0.030680515 0.03170172 -0.031605184 0.03564366
00000000: 274a 0abd 1fee a93c 91f1 38bd 8cc3 c9bc
00000010: ee16 d43c ee95 28bc c9d9 44bd 9b29 a73b
00000020: 8d63 163d 207b 323d bb01 0ebd 2bdd 773c
00000030: 9480 0dbc 9084 2c3d f19e 11bd 15e7 bb3b
00000040: 0bf9 9bbc 0f2d 0bbc fa0e db3c 8298 bb3c
00000050: fbd2 503b 42a3 26bd a48c 8cbb 05cb edbc
00000060: 31c7 cdbc 08fb 2abd 2fd7 a83b f3bb c4bc
00000070: 990c debc 8f36 6a3c 1621 4bbd 42aa 173d
00000080: fd0e 27bd c1d9 54bd 2f83 a3bb 5897 d5bb
00000090: 8a53 02bd 9e8a 2c3c a820 cc3b 8a9d 993a
000000a0: a83e ae3c b4f4 1f3d c965 87bb 86f8 1f3d
000000b0: 48ec 0a3d 0137 f6ba 7282 f13c 6600 84bc
000000c0: 80ac 88bb 5799 61bc 5482 163d 86d6 a3bb
000000d0: cd83 68ba e0b7 e8bb be09 183d 8795 7e3c
000000e0: d418 1cba 5275 523c ec43 293d 9b4a 95bc
000000f0: 0040 70bd 6186 b1bb d720 dd3c 9ca5 0bbd
00000100: 56d9 10bd 826c 25bd 1143 8f3c 8f8b a03c
00000110: 4491 2dbc d8c6 113d 6174 4f3d 7059 16bb
00000120: f4fc 123d 9983 babc 7e89 05bd 96a6 51bc
00000130: f4e2 0abc 1d91 95bc a91b 9cbc 93ae e0bc
00000140: ef17 f9bc c17b 3a3d 8870 c3bc 5ccd 86bd
00000150: f35e 103c 8a7d 6c3b 9ece 19bd b241 ecbb
00000160: 0bcd 103c de54 eebc cd1d 51bd 5e3e 43bd
00000170: beab db3c 2065 90bc 3d89 e0bc 6ce9 3d3a
00000180: ae84 e83c 0626 ce3c 7f7d 7a39 13cc 003c
00000190: b74c fd3b da6b 773b 4bbb 67bb 103a 983c
000001a0: 64a0 7dbd 20ef 1ebc 798c 6cbc df3a b43c
000001b0: 70de 8d3c 0ad7 cfbc 75f9 913c bc8d 373a
000001c0: 2345 29bd bb05 b23a bf74 6e3c 08bc 2a3d
000001d0: 2492 fbbb f064 233d b91e 51bd d356 bcbc
000001e0: 6531 b23c 3e13 153d eeb9 7b3b 5072 383d
000001f0: f8f2 90bb 781b 073c 77c0 bebc 4d91 a83c
00000200: 702f bdbc 77a4 a2bb eb79 13bd f239 8e3c
00000210: bc89 b13c 4bcf 4d3c c112 7fbb c9dc 503d
00000220: 26f6 9bbc a60c debc d5a0 883a f011 d8bc
00000230: 50b3 52bd 4299 c43c 66a2 cdbc 2fe0 0c3c
00000240: e16c cebc 575d 03bd 2cf6 15bd a9d5 20bc
00000250: 817a 883c 1b0f 04bd 7c9f 82bb 13bb afbc
00000260: 1fb2 303d 4e0d 4fbd a634 ef3c 722a f03c
00000270: 9fe9 323d 96fd 48bc 96b1 1d3d 9ddb 973c
00000280: 2a8e 1f3d e753 bcbc a304 15bd efcc 1ebc
00000290: 8c16 02bd 1f88 853b 8d14 b83c 47d3 2c3c
000002a0: d46c 13bd edf3 6d3d 29e3 263c 5983 2c3d
000002b0: 9f6a 38bd 0d7e dabc 3e56 bfbc aeea de3c
000002c0: 0793 3cbc 0085 e6bc 2b20 1d39 c18c 783d
000002d0: 5439 433d 64d7 a7bc f297 753c 1173 463d
000002e0: 4b48 d13c 6bd8 593d ad27 a23c 08f8 2e3d
000002f0: 719f 73bd c2bf 09bd c77c aa3c 61cd f23c
00000300: 8333 6f3c 2d6a 1dbd f3dc 95bd c480 093d
00000310: df19 9a3d 2e01 28bd 2ffc 9e3d cc8c febc
00000320: edd2 063d 928d c13d 4ce6 8ebc f56a 013d
00000330: c8b8 7fbc 21aa a4bd 7cf5 7f3c 75ee 903b
00000340: 766e e4bb a94b 10bc 9a04 15bc d59a 4fbd
00000350: c1f0 df3c 76fb 583d 7051 53bd 2e0d 99bc
00000360: bf32 32bc 8dbf 59bd 51f3 20bb 7360 d73c
00000370: 7dcf 1c3c db2e 15bd 973f aa3c 6c4f babb
00000380: 560a 65bc e2f1 243d 809b d83b e7b1 9dbc
00000390: 4528 d8bc 46b1 c9bc b6e0 fcbc fdf5 ce3c
000003a0: 0155 f43b 973c 093d 410f aabc 7640 2a3b
000003b0: 4aea 31bd 6ec5 323d bb0d e9bb 363b 2a3c
000003c0: d556 2e3d f414 b8bb b075 d5ba 4d11 03bd
000003d0: 9dec 323d 7cf6 ee3c 0c1e 6f3d d7f7 d93b
000003e0: 2454 b53c 7d4c 633d 53ac ebbb 067f 9c3c
000003f0: b455 fb3c aad9 013d 7074 01bd 16ff 113d

sequential_7/dense_14/BiasAdd/ReadVariableOp f4 [24]
0.015885243 -0.002968119 0.021701494 0.015404927 0.029936507 -0.0024685531 0.040190384 0.026465999
0.0037744083 -0.01651202 7.215698e-05 0.014566002 -0.018241769 0.015246572 0.012404985 -0.0035216124
0.016556477 0.018506108 -0.003616268 0.027858797 -0.013283768 0.01040781 0.004285423 0.035896387
00000000: c521 823c c684 42bb 55c7 b13c f264 7c3c
00000010: 683d f53c 73c7 21bb ac9e 243d 39cf d83c
00000020: 105c 773b 3744 87bc fc52 9738 3ea6 6e3c
00000030: c36f 95bc c2cc 793c 473e 4b3c daca 66bb
00000040: 73a1 873c 1f9a 973c e9fe 6cbb 2238 e43c
00000050: 29a4 59bc 8585 2a3c bc6c 8c3b 1708 133d

sequential_7/dense_14/MatMul f4 [24, 16]
-0.085103884 -0.21692853 -0.40181383 0.08398178 0.1585454 0.26176915 0.14771682 0.1837484
0.26143453 0.25999257 0.088395275 0.30426487 0.3563543 -0.12010308 0.38016796 0.14576899
0.26888195 -0.27868456 0.15180683 -0.022860002 -0.28275898 0.04165901 -0.116106875 0.36053655
-0.05577056 -0.18697344 -0.14328602 0.16798007 -0.036072433 -0.35982478 0.1838773 -0.1320266
0.09049149 0.2532178 0.31428352 -0.39635655 -0.21341439 0.21715814 -0.18698142 0.0068289824
0.25091216 -0.42970777 0.25262025 -0.28229162 0.0486762 -0.19735688 0.18594083 -0.31526113
-0.2888789 0.23238125 -0.32964957 0.11133196 -0.293205 0.2564787 0.051463347 0.04700992
-0.24863051 -0.2968048 -0.123594776 -0.34486166 0.33921143 0.11566415 0.30361068 -0.13348784
-0.26598155 -0.040500518 -0.102284804 -0.01698242 -0.34558883 -0.35355315 0.31511486 0.020966532
0.07077935 -0.33779514 0.07688609 -0.07533724 -0.27680853 -0.24262433 0.0034398944 0.27032155
0.2708735 0.15040985 0.36625323 0.32640886 -0.1968389 -0.14358644 0.013155891 0.18408152
-0.16807939 0.14108723 -0.115501724 -0.09973019 -0.07688807 -0.22517608 -0.29652604 0.0029535878
-0.036282938 -0.27385774 0.0058781896 -0.18005113 0.23691013 0.09947669 -0.312425 -0.3422972
0.20612004 0.080720745 -0.2344373 0.19924183 -0.03505369 0.21845022 0.3202098 0.40078378
0.19077499 -0.13156815 -0.10512267 0.1253283 -0.11201076 0.18103147 -0.12815207 -0.23896226
-0.09372113 0.17333889 -0.31030276 -0.25829363 -0.001456292 -0.015777795 -0.18037286 -0.032450944
0.08388527 0.0039528348 0.07520426 -0.38186422 -0.2766242 -0.0051487694 -0.012063921 0.16749717
-0.025880652 0.076260686 -0.0083125215 -0.28711855 -0.39399967 -0.10949441 0.1340582 -0.041733805
-0.18747623 -0.04514997 -0.33486977 0.27022433 0.1586679 0.044358037 0.12848516 0.22271138
0.22878638 -0.25977254 0.23031092 0.21305886 0.081734225 0.03177836 0.33567634 0.24562636
0.36612976 0.243928 0.1728837 -0.3272419 0.23948571 0.28253964 0.06472777 0.025138732
0.085026205 -0.32732815 -0.39398384 0.2392826 -0.30592948 0.40750518 -0.08922778 -0.33144134
0.20676914 0.20382486 -0.12468468 -0.14692174 0.015881212 -0.303671 -0.32030433 -0.29172975
-0.07886777 0.16224466 -0.122912176 0.31855863 -0.3577843 -0.37804726 -0.33225963 -0.16807093
0.32055172 0.31001678 -0.3171548 0.23204684 0.21784087 0.21755198 0.14128675 0.015521468
0.0606315 0.021602727 -0.36036205 -0.2647322 -0.16542788 0.28880933 0.28994837 0.029060261
-0.012623639 0.02551921 -0.26280016 0.095509544 -0.28063154 -0.04150208 -0.124947764 0.20202316
-0.2032613 -0.3441889 0.2322989 -0.3262366 0.11880916 -0.14210524 0.09803668 -0.11827245
-0.31380466 -0.21281072 -0.20524307 0.24499483 0.06453054 -0.122544475 0.29980996 -0.20580766
-0.03929873 0.24534915 -0.032140587 -0.10210885 -0.08336103 0.21827441 0.2361813 -0.21549289
-0.37326977 -0.28322256 -0.1990588 0.08931173 0.1650974 -0.3067034 -0.12406336 0.3491422
0.33571893 0.17540197 -0.12170715 0.28297314 0.19305968 0.3619499 0.107910976 0.10850414
00000000: f24a aebd 8322 5ebe 8bba cdbe a4fe ab3d
00000010: ba59 223e 9b06 863e 1443 173e 8a28 3c3e
00000020: bfda 853e bf1d 853e 9508 b53d 9bc8 9b3e
00000030: 1274 b63e 9bf8 f5bd 60a5 c23e 7744 153e
00000040: e5aa 893e beaf 8ebe 4073 1b3e e644 bbbc
00000050: c9c5 90be a3a2 2a3d 71c9 edbd 3f98 b83e
00000060: ac6f 64bd f775 3fbe 92b9 12be f802 2c3e
00000070: b0c0 13bd f43a b8be 554a 3c3e fb31 07be
00000080: 9a53 b93d c3a5 813e c5e9 a03e 3fef cabe
00000090: 4d89 5abe b45e 5e3e 0f78 3fbe a8c5 df3b
000000a0: 8f77 803e a802 dcbe 7157 813e 8788 90be
000000b0: b260 473d ec17 4abe 4667 3e3e e869 a1be
000000c0: efe7 93be 5af5 6d3e d4c7 a8be 0302 e43d
000000d0: f71e 96be 2d51 833e 3bcb 523d 798d 403d
000000e0: ff98 7ebe ccf6 97be 421f fdbd b591 b0be
000000f0: 1fad ad3e 53e1 ec3d dc72 9b3e 09b1 08be
00000100: bc2e 88be dfe3 25bd b27a d1bd b71e 8bbc
00000110: 05f1 b0be eb04 b5be bc56 a13e 01c2 ab3c
00000120: c4f4 903d 7cf3 acbe 7476 9d3d 694a 9abd
00000130: d9b9 8dbe 8372 78be da6f 613b 9667 8a3e
00000140: eeaf 8a3e 0a05 1a3e 8b85 bb3e 101f a73e
00000150: 2390 49be 5308 13be ce8b 573c de7f 3c3e
00000160: 011d 2cbe 2c79 103e 2b8c ecbd 583f ccbd
00000170: 7e77 9dbd 8f94 66be 43d2 97be fb90 413b
00000180: 6b9d 14bd 1537 8cbe d49d c03b 535f 38be
00000190: 9298 723e 6fba cb3d 2bf6 9fbe 9441 afbe
000001a0: 2211 533e eb50 a53d 5510 70be 0d06 4c3e
000001b0: 7594 0fbd 6ab1 5f3e 8af2 a33e 8833 cd3e
000001c0: 855a 433e cdb9 06be 8e4a d7bd 1056 003e
000001d0: e665 e5bd 5060 393e 4c3a 03be 86b2 74be
000001e0: ddf0 bfbd c07f 313e 01e0 9ebe 103f 84be
000001f0: 0de1 beba 6f40 81bc aab3 38be 48eb 04bd
00000200: 0acc ab3d c886 813b b104 9a3d b583 c3be
00000210: b0a1 8dbe 02b7 a8bb c1a7 45bc 6184 2b3e
00000220: a903 d4bc 902e 9c3d 3e31 08bc 3401 93be
00000230: 53ba c9be 9b3e e0bd 8e46 093e 11f1 2abd
00000240: c5f9 3fbe 2def 38bd 0d74 abbe d85a 8a3e
00000250: d779 223e c6b0 353d 9d91 033e 740e 643e
00000260: fa46 6a3e e800 85be a0d6 6b3e 1a2c 5a3e
00000270: 4664 a73d 072a 023d c5dd ab3e 7a85 7b3e
00000280: 5c75 bb3e 43c8 793e 6d08 313e 408c a7be
00000290: be3b 753e 09a9 903e fe8f 843d beef cd3c
000002a0: 3822 ae3d 8e97 a7be 40b8 c9be 7f06 753e
000002b0: caa2 9cbe 85a4 d03e 0ebd b6bd aeb2 a9be
000002c0: 4abb 533e 77b7 503e ae5a ffbd a772 16be
000002d0: 5119 823c c47a 9bbe eefe a3be 9a5d 95be
000002e0: 6d85 a1bd 7723 263e 61b9 fbbd 1e1a a33e
000002f0: 812f b7be 698f c1be ef1d aabe c91a 2cbe
00000300: 5b1f a43e 85ba 9e3e 1d62 a2be b09d 6d3e
00000310: ad11 5f3e f2c5 5e3e 79ad 103e c14d 7e3c
00000320: bc58 783d 34f8 b03c 6081 b8be fb8a 87be
00000330: ed65 29be d1de 933e 1d74 943e c90f ee3c
00000340: 61d3 4ebc aa0d d13c be8d 86be 829a c33d
00000350: f0ae 8fbe 16fe 29bd 9de4 ffbd 29df 4e3e
00000360: bb23 50be 8739 b0be c3df 6d3e 7c08 a7be
00000370: 3852 f33d 0984 11be 74c7 c83d d438 f2bd
00000380: 01ab a0be 0eeb 59be 3d2b 52be eddf 7a3e
00000390: 9628 843d 99f8 fabd b180 993e 3ebf 52be
000003a0: b5f7 20bd cf3c 7b3e d9a5 03bd 721e d1bd
000003b0: 30b9 aabd 5483 5f3e 83d9 713e 2baa 5cbe
000003c0: 371d bfbe 8c02 91be 12d6 4bbe 11e9 b63d
000003d0: 4b0f 293e 3a08 9dbe ee14 febd c4c2 b23e
000003e0: 5ae3 ab3e 939c 333e 9941 f9bd dbe1 903e
000003f0: 70b1 453e 7f51 b93e 6e00 dd3d 6b37 de3d

sequential_7/dense_16/MatMul f4 [1, 8]
-0.73970276 -0.4971191 0.7977072 -0.20405373 0.8161326 -0.5985625 0.6235275 -0.7645824
00000000: 295d 3dbf 6586 febe 8a36 4c3f 76f3 50be
00000010: 11ee 503f 643b 19bf 809f 1f3f acbb 43bf

sequential_7/lstm_7/Read_2/ReadVariableOp1 f4 [128]
0.03351884 0.0018253655 0.005021943 0.021665135 0.005372959 -0.008743575 0.042015426 0.009054774
-0.0058641406 0.02437375 0.02455601 0.023955869 0.013192668 0.014565963 0.025647204 0.00225441
0.03000263 0.014201635 0.037242476 0.03988644 -0.00081543234 0.02041923 -0.0034908496 -0.00020604575
0.029701576 0.023622202 0.015740994 0.004975536 -0.014163294 0.016388264 0.033400964 0.0055865715
1.0374548 1.0043206 1.0057935 1.0255271 1.0095305 0.99178284 1.0440071 1.0096171
0.9960026 1.026769 1.026804 1.0274156 1.0170555 1.0171546 1.0278236 1.0026687
1.0323795 1.016765 1.040064 1.043059 1.0006045 1.0229672 0.99648166 1.000194
1.0327314 1.0262145 1.019146 1.0072564 0.9870077 1.0202135 1.0380778 1.0074557
0.002252757 0.0025403895 0.0067025484 0.0010499405 0.004976879 -0.0049500535 -0.0012528853 -0.0003125725
0.00039697907 0.002578216 0.0045428486 -0.007469782 0.003086108 -0.0044286754 -0.004450566 -0.0011882994
-0.0012212637 0.008739906 -0.0020331831 0.001596275 -0.00278746 -0.0004502846 -0.0042461236 -0.008152976
0.004341412 0.0027986094 -0.00038039297 0.0023201706 0.00059603335 -0.004266942 -0.0023974404 -0.0028210043
0.033257615 0.001729363 0.004926919 0.021710781 0.0052282265 -0.008766678 0.041364826 0.008849342
-0.005848427 0.024000868 0.024434634 0.023408959 0.012922196 0.01453215 0.0256052 0.0023143739
0.029413134 0.013905377 0.03643369 0.039635982 -0.0007896619 0.019790705 -0.0034003854 -0.00023615989
0.029363079 0.023055587 0.01594021 0.004809822 -0.014086625 0.016334245 0.033163182 0.005422368
00000000: 0d4b 093d 1a41 ef3a 1c8f a43b 157b b13c
00000010: a60f b03b 3641 0fbc 5e18 2c3d 7a5a 143c
00000020: fa27 c0bb 75ab c73c af29 c93c 193f c43c
00000030: 0f26 583c 14a6 6e3c 161a d23c b9be 133b
00000040: 13c8 f53c f9ad 683c 918b 183d f75f 233d
00000050: bdc2 55ba 3b46 a73c bdc6 64bb fc0d 58b9
00000060: b850 f33c 5983 c13c 42f3 803c d209 a33b
00000070: 290d 68bc ae40 863c 73cf 083d 8f0f b73b
00000080: 52cb 843f 948d 803f d7bd 803f 7944 833f
00000090: 4c38 813f 7be5 7d3f 06a2 853f 223b 813f
000000a0: 07fa 7e3f 2b6d 833f 506e 833f 5b82 833f
000000b0: e02e 823f 1f32 823f b98f 833f 7357 803f
000000c0: 0325 843f 5b25 823f d120 853f f582 853f
000000d0: cf13 803f 97f0 823f 6c19 7f3f 5b06 803f
000000e0: 8b30 843f ff5a 833f 6073 823f c7ed 803f
000000f0: 89ac 7c3f 5b96 823f bcdf 843f 4ff4 803f
00000100: fea2 133b aa7c 263b 0da1 db3b 289e 893a
00000110: 1615 a33b 0f34 a2bb db37 a4ba c5e0 a3b9
00000120: a121 d039 49f7 283b 2ddc 943b 13c5 f4bb
00000130: 4d40 4a3b 6c1e 91bb 0ed6 91bb b6c0 9bba
00000140: cf12 a0ba d331 0f3c 273f 05bb 1a3a d13a
00000150: d2ad 36bb 2d14 ecb9 1123 8bbb 0f94 05bc
00000160: 6742 8e3b e068 373b 7b6f c7b9 010e 183b
00000170: 1f3f 1c3a b4d1 8bbb 601e 1dbb 99e0 38bb
00000180: 2339 083d cbab e23a fe71 a13b cfda b13c
00000190: 8b51 ab3b 1da2 0fbc 2a6e 293d d5fc 103c
000001a0: 29a4 bfbb 789d c43c 242b c83c 25c4 bf3c
000001b0: 9eb7 533c 4118 6e3c ffc1 d13c c0ac 173b
000001c0: d0f3 f03c 61d3 633c 7e3b 153d 5759 223d
000001d0: 5001 4fba 1e20 a23c 00d9 5ebb b0a1 77b9
000001e0: d78a f03c 12df bc3c 0b95 823c b69b 9d3b
000001f0: 96cb 66bc 65cf 853c 1ed6 073d 1fae b13b

while/MatMul_11 f4 [128, 32]
0.053287495 -0.104062766 -0.028438995 0.123413794 0.009026379 -0.007639681 -0.099071 0.036007024
-0.032419637 0.004507928 0.19121616 0.08055834 0.03780106 0.018368015 -0.15629068 0.1532788
-0.07212737 0.03266371 -0.069249086 0.056180272 0.12621732 -0.00058424333 -0.07125002 0.14380625
-0.011853987 -0.033529907 -0.062094547 0.03128037 -0.048455287 0.064987995 0.023613922 0.11055878
0.1435847 0.09570452 -0.046045873 -0.041317504 -0.10498428 0.11678061 -0.037442505 -0.24770436
-0.042672366 -0.025668282 -0.06023847 -0.012387423 -0.062845916 0.21249586 0.20970741 0.046080202
-0.04982813 0.06353677 -0.041007794 -0.049246483 0.035283376 -0.2014861 -0.041568276 0.09219679
0.07255634 -0.017967883 -0.029923897 0.23608768 0.03014291 0.11091819 0.073252976 0.008428995
0.056892145 0.14593828 0.010420717 -0.07146253 0.1299055 0.054323137 -0.10449724 -0.036866754
0.09696521 0.13945182 -0.0035162868 -0.011958407 0.05252898 0.12248056 0.01297694 0.008885435
0.14019895 -0.07063494 -0.10476554 0.0031378793 0.06409504 0.0037895988 -0.034176968 0.04938137
0.026660584 0.049240742 0.049144957 0.12194411 0.10942954 -0.12456449 -0.117699206 0.14426684
0.048162416 -0.18707989 -0.13861763 -0.035524707 0.051255636 -0.09054317 0.033599876 0.0009170233
7.428278e-06 -0.002118999 0.045403097 0.009998239 0.047838442 0.0015870049 -0.049805604 0.025190523
-0.047336146 0.035706755 -0.1073114 0.009257556 0.12738885 -0.04206241 -0.026043162 0.076401174
0.073887795 0.05209812 -0.14242013 -0.0003579091 0.08304519 -0.15874614 -0.017795907 -0.08995398
0.014190142 0.12673737 -0.012917848 -0.012562748 -0.076687254 0.063213386 -0.11533805 -0.029058028
0.08601708 -0.03894306 0.04862134 -0.07553963 0.023405269 0.059135552 0.08864461 -0.23094077
0.03743128 0.044655558 -0.01716509 0.124056436 -0.010618333 -0.027105672 -0.11175964 -0.025306927
-0.17720039 -0.0036832702 0.13696052 -0.17441088 -0.035757516 -0.17520283 -0.066757314 0.0075727296
-0.15139456 -0.068682544 -0.04894494 0.082068585 -0.07427308 -0.010331983 0.10383911 -0.050846595
0.13569796 -0.07096455 -0.027536072 -0.06389206 -0.053844318 0.017394057 0.011565124 0.010115532
-0.0035618981 -0.023360362 0.11206665 0.120485656 0.056234244 -0.06322487 -0.04848938 -0.096013434
-0.047948442 -0.015476236 -0.07630067 0.08978167 0.17171064 0.036714915 0.03690998 -0.13540716
0.10765488 0.07577009 -0.07389788 0.07188859 0.0036087676 -0.2293202 0.051930632 -0.030830193
0.055850368 -0.007633752 -0.14829476 -0.07628507 0.028007885 0.011449052 0.20395938 -0.01959812
-0.071328424 0.039361887 0.081920445 -0.004623558 -0.036893893 0.06656149 0.04126084 -0.0003902771
-0.124766365 0.102834426 0.099883184 0.038661897 0.063968524 -0.044477776 0.008993838 0.23622257
-0.046233658 0.12179143 0.031264894 0.047772393 0.0018270757 0.056386575 0.073307425 0.123146325
-0.102222726 0.010806402 -0.008331208 0.10540541 0.18157257 0.050520077 -0.01272735 0.14659628
-0.18034047 0.20253761 0.07531643 0.00675512 -0.13843556 -0.011943181 -0.1257143 -0.017623074
-0.05959355 0.044471543 0.10355353 0.15217718 -0.1179538 0.019213574 -0.0848637 -0.08338631
00000000: fd43 5a3d dc1e d5bd e5f8 e8bc 5fc0 fc3d
00000010: 61e3 133c 4a56 fabb bde5 cabd 1a7c 133d
00000020: 74ca 04bd 3eb7 933b 2bce 433e c5fb a43d
00000030: 49d5 1a3d 8578 963c aa0a 20be 1ef5 1c3e
00000040: 84b7 93bd 62ca 053d 77d2 8dbd 491d 663d
00000050: 1d3f 013e e827 19ba 88eb 91bd f241 133e
00000060: 3a37 42bc a856 09bd da56 7ebd d81f 003d
00000070: 0d79 46bd 6d18 853d fc71 c13c a46c e23d
00000080: de07 133e bb00 c43d 999a 3cbd 8b3c 29bd
00000090: 0002 d7bd ac2a ef3d 505d 19bd 36a6 7dbe
000000a0: 38c9 2ebd 4a46 d2bc 9dbc 76bd 9ef4 4abc
000000b0: 5cb5 80bd 8498 593e 8abd 563e 98be 3c3d
000000c0: 9518 4cbd 911f 823d caf7 27bd aeb6 49bd
000000d0: 4d85 103d 5f52 4ebe 7f43 2abd acd1 bc3d
000000e0: 6b98 943d 6231 93bc f622 f5bc f8c0 713e
000000f0: 44ee f63c 1329 e33d a805 963d c419 0a3c
00000100: bd07 693d d870 153e a8bb 2a3c f25a 92bd
00000110: f305 053e f081 5e3d a602 d6bd 9801 17bd
00000120: b295 c63d 75cc 0e3e 8171 66bb 32ed 43bc
00000130: a128 573d 16d7 fa3d 3b9d 543c 3794 113c
00000140: 5090 0f3e 0da9 90bd 518f d6bd e1a4 4d3b
00000150: 4344 833d eb5a 783b 26fd 0bbd 1f44 4a3d
00000160: 4c67 da3c a9b0 493d 394c 493d d5bd f93d
00000170: 981c e03d ab1b ffbd 480c f1bd b0ba 133e
00000180: f445 453d df91 3fbe c8f1 0dbe 5b82 11bd
00000190: 6ef1 513d b36e b9bd 06a0 093d 6464 703a
000001a0: 6c40 f936 e7de 0abb 99f8 393d a7cf 233c
000001b0: 3ef2 433d 0c03 d03a f600 4cbd 5b5c ce3c
000001c0: 8ce3 41bd 3f41 123d 14c6 dbbd 01ad 173c
000001d0: 3972 023e a249 2cbd 7858 d5bc 3878 9c3d
000001e0: 7c52 973d d764 553d 95d6 11be bfa5 bbb9
000001f0: 9913 aa3d 598e 22be b9c8 91bc cb39 b8bd
00000200: c57d 683c 71c7 013e 62a5 53bc fcd3 4dbc
00000210: 350e 9dbd 0576 813d 5b36 ecbd 1a0b eebc
00000220: b929 b03d c282 1fbd 2c27 473d 86b4 9abd
00000230: 68bc bf3c 1f38 723d 4e8b b53d bd7b 6cbe
00000240: 8b51 193d bfe8 363d ce9d 8cbc 4d11 fe3d
00000250: 84f8 2dbc b70c debc 3de2 e4bd 7950 cfbc
00000260: 0574 35be 0563 71bb 613f 0c3e c498 32be
00000270: 7976 12bd 5f68 33be 0fb8 88bd a924 f83b
00000280: 2d07 1bbe 6fa9 8cbd 7d7a 48bd 9313 a83d
00000290: 7c1c 98bd 7a47 29bc 99a9 d43d 8544 50bd
000002a0: 68f4 0a3e dd55 91bd 5493 e1bc d7d9 82bd
000002b0: dc8b 5cbd fb7d 8e3c a57b 3d3c 9ebb 253c
000002c0: bc6e 69bb 3b5e bfbc 3383 e53d 2fc1 f63d
000002d0: e155 663d 0a7c 81bd cd9c 46bd b1a2 c4bd
000002e0: 9665 44bd 0a90 7dbc 8743 9cbd 74df b73d
000002f0: ead4 2f3e 6162 163d eb2e 173d 2da8 0abe
00000300: 297a dc3d 592d 9b3d c657 97bd 533a 933d
00000310: 1381 6c3b ead2 6abe 37b5 543d 9a8f fcbc
00000320: 5bc3 643d 8e24 fabb 95da 17be 593b 9cbd
00000330: cb70 e53c ce94 3b3c bada 503e 3d8c a0bc
00000340: a314 92bd ee39 213d e8c5 a73d 3781 97bb
00000350: 0d1e 17bd 6451 883d 2001 293d 1b9e ccb9
00000360: 8285 ffbd db9a d23d 8e8f cc3d f05b 1e3d
00000370: ee01 833d 542e 36bd e45a 133c 54e4 713e
00000380: 815f 3dbd c96d f93d 9e0f 003d fcac 433d
00000390: 7d7a ef3a 9cf5 663d 3422 963d 2434 fc3d
000003a0: 265a d1bd 560d 313c 9e7f 08bc cbde d73d
000003b0: 29ee 393e 24ee 4e3d 6086 50bc 561d 163e
000003c0: 2cab 38be 0566 4f3e 803f 9a3d 0e5a dd3b
000003d0: 0dc2 0dbe 55ad 43bc 40bb 00be 445e 90bc
000003e0: 5e18 74bd cb27 363d e013 d43d 56d4 1b3e
000003f0: c391 f1bd c965 9d3c 05cd adbd 71c6 aabd

while/MatMul f4 [128, 16]
0.15878071 0.14201556 0.03843199 0.094892405 0.018572861 0.10716603 -0.08070612 -0.08099187
0.10243811 -0.13720724 0.006611515 0.03336654 0.22673084 0.07608539 -0.17294554 0.2034564
-0.08115994 -0.11695645 -0.1489158 0.041972063 -0.07389824 -0.041497093 -0.012420316 -0.03282377
-0.18291187 0.049101863 -0.05662882 -0.027810525 0.09784976 -0.16475812 -0.054312702 -0.011827435
0.15154032 0.03801416 0.03922055 -0.042890076 -0.045480143 0.04667289 -0.16399619 -0.13041139
-0.17454469 -0.06438993 -0.16770037 0.1109034 -0.10365125 -0.023075247 0.008626806 -0.1887169
0.077779934 -0.1723809 0.14291969 0.15907112 0.0040658177 0.090423785 -0.012671671 -0.21109971
0.16550025 -0.026214568 0.14976978 -0.07614857 -0.078228876 -0.10887248 0.12068848 0.012199004
0.083146565 0.0016217756 -0.044559833 -0.14292581 0.13218969 -0.12225644 0.014353292 0.19500047
-0.16137014 0.08382296 0.0951602 -0.067408055 0.035675462 -0.03352365 -0.10717101 0.120125
0.023695573 -0.17206852 0.14241268 -0.09696147 0.16039565 -0.1481177 0.020134771 0.05550507
-0.076487124 0.13232964 -0.13191146 -0.07300335 -0.13238838 -0.032228924 -0.06166681 0.1322175
-0.06921478 -0.21125127 0.051711615 -0.11213624 -0.08664283 -0.0677467 0.071619965 0.08378606
0.026708579 0.19735287 -0.19608547 0.0022400818 -0.11145532 -0.12457894 0.16432369 0.17781739
-0.10557516 -0.18268019 -0.03583454 -0.19180928 -0.14966077 -0.0894301 -0.050371923 0.11546627
0.1518178 0.04251904 -0.117597915 -0.0814699 0.11274893 -0.10419468 -0.055666063 -0.091434516
-0.16115606 0.16580796 -0.0038239143 -0.034536734 -0.12283409 0.06402067 0.00087829336 -0.16516964
-0.16617532 -0.040869556 -0.07346515 -0.06263388 -0.045912478 0.111024894 0.14888407 -0.19629161
0.08923063 0.048056632 0.18498898 -0.1315542 -0.10515265 0.07778124 0.094305694 0.11712174
0.12342465 -0.022283424 -0.12300218 -0.13833286 0.18365327 -0.089234106 0.15814385 0.21324132
0.20618391 0.03371897 0.1879279 0.14494607 -0.11481474 0.101762205 -0.022564607 -0.15250574
-0.17190579 -0.16455354 -0.1799894 0.047286775 -0.11999919 -0.18020293 0.175079 0.05647925
-0.12910967 0.11029278 0.030396169 0.17673771 0.1446759 0.16295588 0.07852169 0.037434865
0.20192525 0.08811177 0.1306987 -0.20021886 -0.1521369 0.09890527 -0.047444332 0.06839528
-0.189842 -0.029737027 -0.11175113 0.22032301 -0.15746093 0.13303466 0.09098988 0.07847724
0.1711874 -0.021439215 0.15182862 0.093862705 0.02430407 0.17454474 0.034284692 -0.1387021
0.18606566 -0.035583023 0.031055735 0.0018164366 0.07540153 0.10365574 0.15944055 -0.024862574
-0.11018454 0.1367149 -0.12459821 -0.14677168 0.018466745 -0.09061477 0.026737615 -0.06342522
0.14389482 -0.100554004 -0.14371197 0.113300234 0.17913516 -0.019836586 0.157124 -0.19331759
-0.052437484 -0.15151154 0.06266045 -0.011319561 0.0024431979 0.072591655 -0.005142761 0.124222994
0.002732395 -0.08391395 0.12455602 -0.078373455 -0.1697388 0.0053454465 0.19322518 -0.04457209
0.16162919 0.17162067 0.19948709 -0.15324353 0.09552875 0.029837962 0.02264953 -0.09579682
00000000: 6997 223e 876c 113e dd6a 1d3d f356 c23d
00000010: 1d26 983c dd79 db3d 4049 a5bd 11df a5bd
00000020: 12cb d13d 0e80 0cbe 68a5 d83b 5aab 083d
00000030: 212c 683e a8d2 9b3d a318 31be e056 503e
00000040: 2f37 a6bd dd86 efbd 627d 18be e6ea 2b3d
00000050: f657 97bd dbf8 29bd 957e 4bbc 3872 06bd
00000060: 404d 3bbe 091f 493d 9ff3 67bd e6d2 e3bc
00000070: 7465 c83d 5ab6 28be ff76 5ebd dcc7 41bc
00000080: 632d 1b3e bcb4 1b3d baa5 203d 81ad 2fbd
00000090: 6349 3abd 132c 3f3d 9eee 27be 908a 05be
000000a0: d8bb 32be dede 83bd a5b9 2bbe 5221 e33d
000000b0: 1b47 d4bd 4d08 bdbc 7257 0d3c 013f 41be
000000c0: 164b 9f3d 9e84 30be 8a59 123e 8ae3 223e
000000d0: 8d3a 853b 1b30 b93d d79c 4fbc 862a 58be
000000e0: e678 293e efbf d6bc 405d 193e c8f3 9bbd
000000f0: 7636 a0bd 89f8 debd 862b f73d 55de 473c
00000100: bf48 aa3d c291 d43a 5f84 36bd 255b 12be
00000110: bc5c 073e 9661 fabd 122a 6b3c 34ae 473e
00000120: 373e 25be 5fab ab3d 5ae3 c23d 3c0d 8abd
00000130: 6f20 123d 1850 09bd 797c dbbd 1904 f63d
00000140: 381d c23c bb32 30be a1d4 113e bc93 c6bd
00000150: c23e 243e 2bac 17be adf1 a43c 4959 633d
00000160: 48a5 9cbd 6c81 073e cc13 07be c882 95bd
00000170: d290 07be 7a02 04bd 5696 7cbd 0664 073e
00000180: 7bc0 8dbd 4152 58be 8fcf 533d afa7 e5bd
00000190: cc71 b1bd c8be 8abd 7dad 923d 0798 ab3d
000001a0: f3cb da3c df16 4a3e a1ca 48be 56ce 123b
000001b0: b042 e4bd 3e23 ffbd 7844 283e c315 363e
000001c0: ca37 d8bd 8410 3bbe 3dc7 12bd a769 44be
000001d0: ac40 19be 2127 b7bd ca52 4ebd 9479 ec3d
000001e0: 2076 1b3e 7228 2e3d 2dd7 f0bd b1d9 a6bd
000001f0: e9e8 e63d 0564 d5bd 1902 64bd 0542 bbbd
00000200: 1806 25be 90c9 293e a39a 7abb 6476 0dbd
00000210: 7090 fbbd 451d 833d 453d 663a 3b22 29be
00000220: dd29 2abe d666 27bd e674 96bd 3146 80bd
00000230: b90e 3cbd 0561 e33d 1175 183e ab00 49be
00000240: 8cbe b63d 08d7 443d c06d 3d3e 25b6 06be
00000250: 465a d7bd c54b 9f3d 5823 c13d 86dd ef3d
00000260: 10c6 fc3d ba8b b6bc 91e8 fbbd 21a7 0dbe
00000270: 9a0f 3c3e 5fc0 b6bd 76f0 213e ef5b 5a3e
00000280: e021 533e e71c 0a3d 2c70 403e be6c 143e
00000290: fe23 ebbd b468 d03d 69d9 b8bc 772a 1cbe
000002a0: 1208 30be b980 28be 244f 38be c7af 413d
000002b0: 23c2 f5bd 1e87 38be e947 333e c956 673d
000002c0: 5335 04be 2ee1 e13d 6301 f93c bbfa 343e
000002d0: eb25 143e e8dd 263e fbcf a03d 4d55 193d
000002e0: 7ec5 4e3e f273 b43d e1d5 053e 2c06 4dbe
000002f0: c7c9 1bbe d98e ca3d fd54 42bd d312 8c3d
00000300: f165 42be 119b f3bc c7dd e4bd 5b9c 613e
00000310: 703d 21be 3d3a 083e e758 ba3d adb8 a03d
00000320: c04b 2f3e 4ba1 afbc f678 1b3e 173b c03d
00000330: 5419 c73c dbbb 323e 1b6e 0c3d ec07 0ebe
00000340: ff87 3e3e 81bf 11bd 9968 fe3c 8015 ee3a
00000350: 1e6c 9a3d 7649 d43d 6244 233e 99ac cbbc
00000360: 6fa8 e1bd fefe 0b3e 592d ffbd 514b 16be
00000370: 9247 973c 3d94 b9bd d808 db3c 15e5 81bd
00000380: 2a59 133e 42ef cdbd 3b29 13be f409 e83d
00000390: 356f 373e 5680 a2bc 1de5 203e 0cf5 45be
000003a0: b0c8 56bd d725 1bbe 1f54 803d ae75 39bc
000003b0: 0f1e 203b efaa 943d 9b84 a8bb a068 fe3d
000003c0: fb11 333b 14db abbd 3a17 ff3d 4382 a0bd
000003d0: 02d0 2dbe db28 af3b d2dc 453e 3991 36bd
000003e0: 1f82 253e 54bd 2f3e 5846 4c3e dfeb 1cbe
000003f0: 94a4 c33d be6e f43c 828b b93c 2031 c4bd

sequential_7/lstm_8/Read_2/ReadVariableOp1 f4 [64]
0.00066338014 0.010422746 0.020247689 0.007693112 0.030153029 0.039610162 0.004081807 -0.0028897836
0.004591364 0.009437517 0.032989446 -0.005374983 0.029266683 0.024941202 -0.00041228387 -0.013971517
1.0062611 1.0153685 1.0240417 1.0082664 1.0331202 1.0411677 1.0069702 0.99858254
1.0072603 1.0123372 1.0359923 0.99927795 1.0317832 1.0264329 1.0032599 0.98740274
-0.0016529751 0.0011670559 -0.01358535 -0.015220344 -0.004409719 -1.7964567e-05 -0.011003012 0.00055766606
-0.0064405934 -0.006409984 -0.011330675 -0.0064270785 0.0076203006 -0.0073494897 0.0037119356 0.0025144743
-0.00024549462 0.009772018 0.020176662 0.0072491113 0.030189857 0.031523675 0.0058645746 -0.0031985156
0.004587336 0.008637158 0.029052548 -0.005682826 0.02524503 0.022269975 -0.0010182001 -0.014050218
00000000: b0e6 2d3a 2ac4 2a3c 7bde a53c 8016 fc3b
00000010: 7c03 f73c 443e 223d aec0 853b 8662 3dbb
00000020: 2773 963b d19f 1a3c f11f 073d a020 b0bb
00000030: afc0 ef3c 7e51 cc3c ce27 d8b9 cae8 64bc
00000040: 2acd 803f 98f7 813f cc13 833f e00e 813f
00000050: 483d 843f fc44 853f 66e4 803f 1ba3 7f3f
00000060: e8ed 803f 4494 813f 659b 843f aed0 7f3f
00000070: 7911 843f 2762 833f d26a 803f 6dc6 7c3f
00000080: a4a8 d8ba e6f7 983a 1695 5ebc c05e 79bc
00000090: 677f 90bb 9db2 96b7 fa45 34bc 5630 123a
000000a0: 9d0b d3bb d80a d2bb 4ca4 39bc 3e9a d2bb
000000b0: b7b3 f93b fdd3 f0bb f243 733b e1c9 243b
000000c0: bbb5 80b9 d01a 203c 8749 a53c f489 ed3b
000000d0: b850 f73c f81e 013d 9e2b c03b 309e 51bb
000000e0: 5d51 963b de82 0d3c 9cff ed3c 0037 babb
000000f0: aace ce3c 866f b63c 2075 85ba e332 66bc

while/MatMul_14 f4 [64, 16]
0.09817082 0.029015489 0.07799167 -0.14383723 -0.057652164 -0.067598365 -0.023450412 -0.04159743
-0.07216165 -0.1352703 0.014728337 -0.0942333 0.18894327 -0.11252679 -0.076472394 0.10768573
0.032165315 -0.2668868 -0.044150043 -0.107914045 -0.012835679 -0.01823442 -0.20362146 0.069711104
0.011964929 0.08893823 -0.13614285 -0.05349857 0.007140726 -0.0076996717 -0.16798681 -0.07771645
0.10696109 0.16188394 0.08503829 0.05618322 0.10407372 0.28428206 0.16659452 0.039749112
0.049401008 -0.06779758 -0.09398637 0.075455114 0.20535433 0.1321953 0.08750863 -0.14360656
0.019324383 0.014756015 0.13084279 -0.079127625 -0.22613788 -0.20043254 -0.09888568 0.106933035
0.046229612 -0.081658944 0.01427127 0.11850517 -0.0057575223 -0.19158755 -0.036536276 -0.12806362
-0.08501171 0.3356372 -0.14321198 -0.036728367 -0.12384119 -0.023601372 -0.17983423 -0.23056634
0.07165957 0.06716429 0.1895863 -0.07812241 0.14490236 0.05896477 -0.012476744 0.10554726
-0.19239245 -0.0064958604 0.032872796 -0.21187155 -0.1725249 0.08615648 -0.14198104 0.1633343
-0.24134688 0.02468559 0.12981549 -0.0029244444 -0.1467213 0.13228726 0.08488798 0.051063795
-0.06589344 -0.14552109 0.19612661 -0.059913263 -0.035790425 0.03708338 -0.007874669 -0.030429533
0.0019726416 -0.15081437 0.23267882 0.1938996 -0.037867285 -0.07317988 0.025966328 -0.20621075
-0.28337163 0.031041643 0.0036495128 -0.20971937 -0.094526224 0.18670544 -0.23442127 -0.006337055
0.15041126 -0.18651143 0.034756113 -0.24750352 -0.05169123 0.20959528 -0.14527637 0.06609643
-0.15809608 -0.058747362 0.13318282 -0.1123416 0.007144478 -0.035384145 0.1357683 -0.11020527
0.17969078 0.019681934 -0.051674936 0.07986616 -0.033403434 0.10499132 0.088461444 -0.123177096
-0.09853795 -0.022118362 -0.0057016243 0.12061181 0.17798713 -0.045137312 0.03181587 -0.098667495
-0.33163694 -0.21634512 0.035035443 -0.034998547 0.038289387 0.06833981 -0.10463231 0.02298186
-0.03865563 -0.1524992 -0.056453638 0.1233381 0.13742532 0.1962609 0.053469095 -0.1781916
0.07608226 0.08225687 0.018063309 -0.11747082 0.11846735 0.1853247 -0.19221237 -0.04585462
0.08481223 0.056604255 -0.039837155 -0.1870037 0.09679504 -0.034461997 0.0026139214 -0.1601841
0.049123935 0.03766361 0.0013351466 -0.19973613 -0.022840243 -0.32365623 -0.2976756 0.13308027
-0.20827101 0.049965367 -0.06874682 0.098866224 0.052752618 -0.24288258 0.12796232 0.04597026
0.08020194 0.19758026 -0.31932387 -0.1357484 0.14844012 -0.09474935 0.04469106 0.034833837
0.1380384 -0.14804442 0.0060262405 -0.058732487 -0.01483896 -0.06708224 0.118234456 -0.021619987
0.021766393 -0.08518037 0.13408305 -0.011014352 -0.08759892 -0.003148846 -0.027717557 -0.14581284
0.004465357 0.029448865 -0.18302366 -0.05498718 0.040577713 -0.04457231 -0.107179455 -0.104117915
0.09324572 -0.12658575 -0.15039039 0.055396523 -0.014380729 -0.089070894 0.23228055 0.15235817
0.09387139 0.029179873 0.11853582 0.16005103 -0.13087347 0.02265605 -0.20777155 0.2378181
0.09652994 -0.07605645 0.046878185 -0.035068337 0.078042634 -0.13309611 -0.038658015 -0.033727515
00000000: c80d c93d e4b1 ed3c 19ba 9f3d 114a 13be
00000010: ad24 6cbd 0371 8abd 141b c0bc 1162 2abd
00000020: 7dc9 93bd 4c84 0abe 1f4f 713c 63fd c0bd
00000030: 587a 413e 7274 e6bd 8f9d 9cbd 568a dc3d
00000040: c7bf 033d 63a5 88be add6 34bd 0a02 ddbd
00000050: bd4c 52bc 5a60 95bc 2582 50be b2c4 8e3d
00000060: 8d08 443c 3f25 b63d 0869 0bbe 5121 5bbd
00000070: c0fc e93b 874d fcbb bc04 2cbe cd29 9fbd
00000080: 6a0e db3d e7c4 253e 8e28 ae3d 6020 663d
00000090: 9a24 d53d 6b8d 913e c197 2a3e f7cf 223d
000000a0: b658 4a3d 75d9 8abd ed7b c0bd 3688 9a3d
000000b0: 6848 523e 345e 073e b937 b33d 990d 13be
000000c0: 2b4e 9e3c 36c3 713c a7fb 053e aa0d a2bd
000000d0: b090 67be 303e 4dbe 9384 cabd b5ff da3d
000000e0: 435b 3d3d ce3c a7bd 0bd2 693c d7b2 f23d
000000f0: 99a9 bcbb 872f 44be 10a7 15bd 1c23 03be
00000100: 9f1a aebd a4d8 ab3e 29a6 12be 7c70 16bd
00000110: 73a0 fdbd aa57 c1bc 7726 38be 9519 6cbe
00000120: 41c2 923d 6e8d 893d e922 423e a4fe 9fbd
00000130: 4961 143e 0b85 713d 426b 4cbc 2929 d83d
00000140: 8702 45be 3adb d4bb a0a5 063d dbf4 58be
00000150: 5eaa 30be cf72 b03d 7a63 11be 1b41 273e
00000160: a323 77be 6f39 ca3c 5aee 043e 09a8 3fbb
00000170: 1c3e 16be 5076 073e c0d9 ad3d 4528 513d
00000180: 24f3 86bd 7b03 15be 6ad5 483e 9c67 75bd
00000190: fb98 12bd bee4 173d c104 01bc 5b47 f9bc
000001a0: 6f47 013b 156f 1abe 5b43 6e3e 9e8d 463e
000001b0: ba1a 1bbd 55df 95bd 56b7 d43c e928 53be
000001c0: 1616 91be 0b4b fe3c aa2c 6f3b adc0 56be
000001d0: f796 c1bd b62f 3f3e 210c 70be 12a7 cfbb
000001e0: 6905 1a3e dafc 3ebe 6d5c 0e3d 9071 7dbe
000001f0: 2fba 53bd 25a0 563e 54c3 14be 915d 873d
00000200: f0e3 21be 13a1 70bd 1461 083e 5a13 e6bd
00000210: 3a1c ea3b f7ee 10bd d806 0b3e 4db3 e1bd
00000220: dc00 383e 023c a13c 19a9 53bd df90 a33d
00000230: 0ad2 08bd b005 d73d 462b b53d 4644 fcbd
00000240: 44ce c9bd 9131 b5bc b1d4 babb 5303 f73d
00000250: 4242 363e e7e1 38bd 5c51 023d 2f12 cabd
00000260: 51cc a9be 9389 5dbe 5381 0f3d a35a 0fbd
00000270: 55d5 1c3d bef5 8b3d 7749 d6bd 7444 bc3c
00000280: 5e55 1ebd c028 1cbe ee3b 67bd b098 fc3d
00000290: 39b9 0c3e 9ef8 483e 6902 5b3d dc77 36be
000002a0: 04d1 9b3d 4a76 a83d 81f9 933c 8b94 f0bd
000002b0: 039f f23d c2c5 3d3e 52d3 44be 0ed2 3bbd
000002c0: 09b2 ad3d ddd9 673d 492c 23bd e67d 3fbe
000002d0: 7a3c c63d 0628 0dbd 534e 2b3b 4d07 24be
000002e0: 2e36 493d 2845 1a3d 1600 af3a a187 4cbe
000002f0: 761b bbbc 45b6 a5be f068 98be 3246 083e
00000300: ff44 55be 7ca8 4c3d 22cb 8cbd 607a ca3d
00000310: 2113 583d 36b6 78be 8e08 033e 504b 3c3d
00000320: ea40 a43d 7b52 4a3e 6b7e a3be a101 0bbe
00000330: b000 183e f20b c2bd f90d 373d edad 0e3d
00000340: f059 0d3e f598 17be c577 c53b 7a91 70bd
00000350: 1c1f 73bc 6a62 89bd e824 f23d 661c b1bc
00000360: 6f4f b23c 0c73 aebd 114d 093e 8a75 34bc
00000370: 1067 b3bd df5c 4ebb ee0f e3bc f64f 15be
00000380: 2152 923b bf3e f13c 8e6a 3bbe 3d3a 61bd
00000390: d134 263d 7491 36bd e780 dbbd c63b d5bd
000003a0: 9df7 be3d b29f 01be f0ff 19be 77e7 623d
000003b0: 269d 6bbc cd6a b6bd f4da 6d3e c803 1c3e
000003c0: a53f c03d a10a ef3c e8c2 f23d 6be4 233e
000003d0: b203 06be 2e99 b93c 11c2 54be 9786 733e
000003e0: 7db1 c53d 7cc3 9bbd 5703 403d d1a3 0fbd
000003f0: d1d4 9f3d 594a 08be de57 1ebd dd25 0abd
